checkpoint_critic_1.pth (torch, 88357 bytes, 5 tensors)

fcs1.weight f4 [128, 33]
00000000: 64d4 3bbd 84b9 7dbb f66e fe3d 9607 5a3c
00000010: 8bd0 d6bb 0fd7 413b 1e23 b73d 7801 443d
00000020: 8ae3 5f3c 0be0 93bd 8804 d8bc 130e 7a3d
00000030: b8a1 ad3c d0f3 013d 3167 c3bb 825e 6abd
00000040: 1d46 313c 7eb2 bcbd b86b 65bd f788 2cbd
00000050: 5156 71bd e414 5dbd 03b5 14bb 5083 50bc
00000060: b406 773c 1d48 0fbd f6dc 3a3b 38a4 d1bc
00000070: 89c8 a5bd 5018 c53a a455 6d3d e392 af3a
00000080: 86f8 0dbd 51d7 fc3d 77d6 8f3d abc5 333d
00000090: 7a6e 803d fd9d 183d 3557 92bc 9a16 fdbd
000000a0: 7a61 7ebb 14fc 8abb d3bb 0f3c 6eb4 a83c
000000b0: b22f 6dbd 5a74 a23c 4d9a 563d 75bb d3bd
000000c0: c299 7dbb 5dce 2a3b f99a 86bd a1cc 8bbc
000000d0: c4bf 53bd baba 9b3d 0a7c 903c 7b41 823d
000000e0: 7d4d 963d d1fd 803b 14e4 7dbc c6b5 5d3d
000000f0: a7c7 93bd 78f0 973d fb29 d7bc 8dba e83d
00000100: 60fc dabc 1890 8dbd 5823 373d ef91 cdbc
00000110: ec80 e1bc 3869 b5bd b626 883d ceae 91bd
00000120: 2f59 753d bcc6 89bd 2584 2cbd 8747 11bd
00000130: 0064 883d df6f eebb 054e adbc dc06 123c
00000140: 7f6b dfbd fd90 0a3d 8e47 6f3d 0f60 05bd
00000150: de3b 28bd 99bf 3ebd 7398 5a3d f9ad 1ebd
00000160: 50be 213c 081c 55bd e43e 0bbb 3646 71bb
00000170: 2540 b23d 1aec 943d 06b7 61bd f4ff 943d
00000180: 46ba 99bd b234 f1bc a781 38bd db95 9ebb
00000190: da7e 2b3c e879 cfbd 4bcb 7abd ea36 403c
000001a0: b439 61bd e08e c7bc c68d b3bd c0e7 533d
000001b0: 8443 ba3c 3c6d 19bd 0b75 b3bd 037d 923c
000001c0: 4d40 babc 55a9 b83c 0de7 e83c 919f 053d
000001d0: 6229 bb3b b206 093d 9a6f 83bc 4175 47bd
000001e0: 04c5 a13d 5fee 38bc 238d 6dbd 579d e53c
000001f0: 9f42 853d 833a 963d 6438 513d 5897 833d
00000200: 33b2 943d be77 71bd 5f3c 8f3d edec a43d
00000210: fe0e 983d d4d2 c2bd 4cea 5e3c a33d 34bc
00000220: 8a8c 0bbd 4c81 edbd 3bed fdbc 5236 99bc
00000230: ddaa 45bb e608 903d 3250 c4bc 87b4 433d
00000240: 51d0 1a3d 9b52 bd3d 4263 003e ce24 4b3d
00000250: b074 ca3c a0e6 a43d b8df 94bd 245c c2bd
00000260: 2925 3ebd df6c 2bbd d5e4 5bbc e5b6 883c
00000270: 7e6c bbbb 199d 1dbd dff5 d5bc 775a a0bd
00000280: 732e d1bd 76d1 9fbc e5a7 0c3a 9c30 1a3d
00000290: e2d3 423e cf61 ddbd b911 3ebd d2f0 abbd
000002a0: a527 b3bc e856 c43c 5bc3 783d 8b56 19bc
000002b0: 5433 803c 48a8 933d ba01 823d 8b31 c63b
000002c0: 5818 543c daf7 b639 21bb 113e f9a0 2cbd
000002d0: ea1b 293d 7cc4 12bc 4c21 8ebc 15ff 383d
000002e0: 1d44 733d a4c7 293d 5f8e c83b 22a9 6fbb
000002f0: 0e4c 073b d447 81bc 946b c63c 696a 03be
00000300: 93b5 0fbc b1c8 273c a8cd 2dbd b4f0 15bc
00000310: 684b 26bd 3c0c dd3e 6a0e 463c caab 23bd
00000320: a214 623d c48b 72bd 0c50 02be a6c6 643d
00000330: 75cb aebd a57f 2abd ac73 0f3d 1552 18b8
00000340: ffd3 2abd 81fd 9fbc 45b3 d03c 114b b8bd
00000350: 0d59 ad3c 84e9 72bd a8e4 403c 588d 6bbd
00000360: 3152 39bd 7207 c93d 6b63 183d 1d53 4f3b
00000370: 6b22 dfbc ca6c 8f3c 7647 233c a42a 873d
00000380: 0f90 0dbe 4abb 7bbc de12 8cbd 3e07 923d
00000390: 056f 1fbd 8bba 8f3d 5c54 debd 76a4 90bd
000003a0: 6ad4 983c 1b93 aebb d36d d5bb 3ed6 043e
000003b0: f9d2 d0bb 1f05 44bd a2b3 0d3d d0c8 ef3d
000003c0: 73f0 c839 0db3 4a3b 8a6c 63bc 5e20 21bd
000003d0: 3d5c 79bd 1ec9 143d 814f b0bc 4958 01bd
000003e0: a1bb 84bc 2ecc b3bd d29d 70bc 8230 d33c
000003f0: 98de fabc 0886 a1bc c8d4 ae3d cc69 523d
-0.04585685 -0.0038715312 0.12423508 0.013307473 -0.006555622 0.0029577648 0.08942245 0.047852963
0.013665089 -0.07220467 -0.026369348 0.06104858 0.021195278 0.03172666 -0.005963229 -0.057219036
0.010819939 -0.09213732 -0.05601093 -0.042122807 -0.05892021 -0.053975 -0.00226909 -0.01272662
0.015077282 -0.034980882 0.002851305 -0.025591 -0.0809489 0.0015037153 0.057943 0.0013395216
-0.03466084 0.12345756 0.07023328 0.043889683 0.06271072 0.037260044 -0.01786385 -0.123578265
-0.0038815425 -0.004241476 0.008772808 0.020593848 -0.057906814 0.019830871 0.052393246 -0.10338489
-0.0038696383 0.0026062944 -0.065725274 -0.017065348 -0.051696554 0.07603975 0.017637271 0.06360146
0.073389985 0.0039365073 -0.015496273 0.05412843 -0.07215815 0.07418913 -0.026265135 0.11363707
-0.02673167 -0.06912249 0.04471144 -0.025094 -0.027527295 -0.088579595 0.066480085 -0.071134195
0.059899505 -0.06727359 -0.04211821 -0.035468604 0.066596985 -0.0072765197 -0.021155367 0.008912768
-0.10909175 0.033829678 0.05841785 -0.03256231 -0.04107272 -0.04656944 0.053368043 -0.038740132
0.009872034 -0.052028686 -0.0021247203 -0.003681553 0.08703641 0.07271595 -0.055106185 0.07275382
-0.07506232 -0.029444072 -0.04504552 -0.0048396415 0.0104672555 -0.10130674 -0.06122903 0.0117318425
-0.05498667 -0.02436012 -0.087672755 0.051734686 0.022737272 -0.03745769 -0.087625585 0.017881876
-0.02273574 0.022541681 0.028430486 0.032622878 0.0057117203 0.03345365 -0.016044427 -0.048695806
0.07898906 -0.011287301 -0.057995927 0.028029127 0.065068476 0.07335379 0.05107917 0.06425351
0.07260551 -0.058952086 0.06993937 0.080530025 0.074247345 -0.095128685 0.013605665 -0.011001023
-0.034069575 -0.11596927 -0.03099691 -0.01870266 -0.0030161657 0.07032947 -0.023964021 0.047779586
0.037796322 0.09244271 0.12537864 0.049595647 0.024713844 0.08051801 -0.072692335 -0.09490231
-0.046422157 -0.041851874 -0.013421257 0.016688773 -0.0057197204 -0.038479898 -0.026118217 -0.07829755
-0.102139376 -0.019509058 0.00053655944 0.037644014 0.1902614 -0.10809671 -0.04640362 -0.08395542
-0.02186949 0.023967221 0.06073318 -0.009359012 0.015649475 0.072098315 0.063479856 0.0060483865
0.012945257 0.0003489841 0.1423154 -0.042145703 0.041286387 -0.008957978 -0.017349862 0.04516514
0.05939113 0.041450158 0.0061204876 -0.0036569317 0.0020644697 -0.01578132 0.02422122 -0.12833561
-0.008771318 0.01024072 -0.042432457 -0.009151626 -0.040599257 0.43173397 0.0120883975 -0.039958753
0.05519546 -0.059215322 -0.12725848 0.05585351 -0.085349 -0.041625638 0.035022423 -3.631607e-05
-0.04170608 -0.01953006 0.025476107 -0.08998693 0.021160627 -0.05930473 0.011773266 -0.057507843
-0.0452444 0.09815873 0.037204187 0.0031635233 -0.027238091 0.01750793 0.009965768 0.0659993
-0.13824485 -0.015364477 -0.06839536 0.071302876 -0.038924236 0.07018002 -0.10855934 -0.070626184
0.018655974 -0.005327595 -0.006513336 0.12972352 -0.006372806 -0.047856446 0.03459514 0.11708224
0.0003832612 0.0030929476 -0.013880858 -0.03933751 -0.06087898 0.036324613 -0.021522285 -0.031578336
-0.01620275 -0.087791786 -0.014686065 0.025779966 -0.03062372 -0.019717231 0.085366786 0.051370427

fcs1.bias f4 [128]
00000000: 1562 dbbd 07f8 d0bd 3e6e e03d d3f8 48ba
00000010: e05a b2bb 961a 08be e337 eb3d 9d7d 18be
00000020: 6883 8d3d d5c8 92bc 8247 5d3c e54b 473d
00000030: f4a1 59bd dee9 c5bd 999b 2f3e f79c 38be
00000040: 6ea7 b53d b6bf 03bd d00f dbbd 8ec8 073e
00000050: d070 713b 91a1 2dbe 89df f33d 391f a4bd
00000060: 8bc6 003e 83cf f1bc b78e 2d3e 1af0 503d
00000070: ad9d c9bc 8f55 7b3d 084d 59bc ac7a a8bd
00000080: e9b4 8d3d f9a3 fa3d 56ea 2fbc f3ed 3b3e
00000090: 1735 cb3a 254f b1bd 4ff6 dbbd cded cb3d
000000a0: 8c78 8fbd 0bd9 b43d a316 27be 7cb0 dcbb
000000b0: f1c2 c0bd f40a 3d3d 7fbf db3d 7f9c af3c
000000c0: b31d 01bd de6e 33be 94e9 b8bd b379 2cbe
000000d0: 6973 233e cf28 6fbd a65a 613d bf79 1e3e
000000e0: 2a2a 913d 3f96 10be 71e7 b1bc 6b01 57bd
000000f0: 2ccd a13d 85e5 19bd 459d 76bd 4915 093e
00000100: 964e 6c3d 8d22 8e3d 9caf 3ebd 4209 b93d
00000110: a0b6 c639 0bb2 3fbd 672a 153a 01c7 05be
00000120: f538 8ebb 5ec5 e63d 56b5 1abe e2ad e7bd
00000130: 9c28 ce3d b996 f73c c3a1 dcbc b382 a8bc
00000140: 683c cfbd 08e4 203e c500 62bd 9b86 5abd
00000150: 281c 033e a0da febd 2663 99bc 72aa 463c
00000160: 9624 8fbd 5e49 033e b4df 30be 4e51 bdbc
00000170: 82c5 9abd 8ac3 253e 8c4f b93d aa13 e7bd
00000180: bace aa3d 12ca e03c 432b ea3d 8d70 e13d
00000190: dff3 e9bd 6938 3f3e cee6 0cbd 8346 a5bd
000001a0: 5e5c 0d3d 59f3 243e 52a4 fe3c 8ebd 23be
000001b0: dce1 8cbd 9af6 c93d 681e 89bd a03a b5bd
000001c0: e64d 02be a15d 24be 1c9d 91bd 4b23 223d
000001d0: f1bf 363d a3dc 3e3e 78f5 7b3d df90 30bd
000001e0: a9e9 893d 31b9 e63d 1650 09be b6f7 643d
000001f0: feed bbbd f645 d73d ed08 dabd ec33 f03b
-0.10712067 -0.102035575 0.10958527 -0.0007666472 -0.005442962 -0.13291392 0.11485269 -0.14891668
0.069098294 -0.01791803 0.013505818 0.048656363 -0.053132966 -0.09663747 0.171492 -0.18028627
0.08869825 -0.03216525 -0.10696375 0.132601 0.0036840923 -0.16956164 0.1190787 -0.08013768
0.12575738 -0.029517895 0.16948973 0.05101023 -0.024611318 0.061360892 -0.013262995 -0.08226523
0.069192715 0.122383066 -0.010737022 0.18352489 0.0015503493 -0.08657674 -0.10740339 0.09957466
-0.07005414 0.0883046 -0.16317229 -0.0067349058 -0.09412182 0.046153024 0.10729884 0.021436928
-0.031522464 -0.17522761 -0.090289265 -0.168433 0.15961994 -0.058388527 0.05501809 0.1547613
0.0708812 -0.14119814 -0.021716805 -0.052491587 0.079004616 -0.037572403 -0.060208578 0.13387026
0.057692133 0.06940184 -0.046554193 0.09034969 0.0003790157 -0.046800654 0.00056902174 -0.13064195
-0.004340286 0.112681136 -0.15108237 -0.113124624 0.100663394 0.030223237 -0.026932603 -0.020570135
-0.101189435 0.15711987 -0.055176515 -0.053351026 0.1280371 -0.12444043 -0.018724035 0.012125598
-0.069894 0.12820956 -0.17272836 -0.023110058 -0.07557203 0.16187873 0.090483755 -0.112830475
0.08340211 0.027440105 0.11434033 0.110077955 -0.11423468 0.18673863 -0.0343998 -0.0807009
0.034511916 0.16108455 0.031084213 -0.15990278 -0.06879017 0.09861489 -0.06695253 -0.088490725
-0.12725028 -0.16051342 -0.07110044 0.03958444 0.044616643 0.18638854 0.061513394 -0.04310691
0.0673402 0.11265791 -0.13409457 0.055900298 -0.09176253 0.10511391 -0.10646234 0.0073304083

fc2.weight f4 [128, 132]
00000000: 9b9a a6bd 3a4a c53c cfd8 1cbd 3fd3 06bd
00000010: 0d5f 2e3d 1b78 9b3d 7bb3 d2bd ecd3 013c
00000020: ef9a 0cbc 8163 69bd 4943 443d 0cc2 87bc
00000030: d7d9 7b3d 81fe 513d d630 b5bb 95a8 1abe
00000040: d115 4b3d e0a6 63bd b3b6 24be b5e0 00be
00000050: 8e79 933d 06a2 b7bc 7b36 0cbd 02c1 50bd
00000060: 9114 92bd 1883 303d 15ec 963d 25a8 a6bc
00000070: ffa3 01bc d06d d9bc b62b 7a3d d07f d1bd
00000080: 719d e1bd 0044 603c 2b27 2c3d 2c5f 1dbc
00000090: 1250 a9bc 5240 a4bd d22a 9dbd 5ea6 9fbd
000000a0: c6ce f33b 1969 c4bc 6c6f 633d b4c5 5a3d
000000b0: 999c 58bd 3519 9ebc a4ef fe3c 777d 93bd
000000c0: 0fdc 2fbe 5f2c 863d f9c5 a93a 1fcf 753d
000000d0: 62a0 ac3d 10ee 82bd 3e50 3abd aae5 d53c
000000e0: 951a 84bd f224 68bc 775f 2c3c a28c 50bd
000000f0: 141c d4bc 7f26 f13b dead 4e3d 3c4a ac3c
00000100: e2fd 76bd e7ef 883c f449 d2bd a1ba 58bd
00000110: 1083 65bd d3a1 2d3d e4fe 013d 35bc 5b3d
00000120: 4698 a3bd 6c65 09bd 7b8d 27bd 463b 673d
00000130: 66ca aabc fa88 8bbd c9ae 0abd 1170 87bd
00000140: 27a2 133c e18b dbbc 3c0f 6fbc 0219 d4bd
00000150: f015 e2bc 519e ccbd 4c4a b13d 937e 0dbd
00000160: 3e1a 70bd 9629 a33d 115b 2bbc 9416 d5bc
00000170: 3e0c a3bd c068 403d e6bc 5e3d b650 f4bd
00000180: 1cde 843c 5fc3 bb3d d98f d7bc 4896 653c
00000190: 5a08 ab3d 8db2 693c b678 1b3c c1d3 89bd
000001a0: ffc7 d5bd beca 2b3d ac64 fcbd 57fb 97bd
000001b0: fd99 17bd 4dcf 13bc 37f5 26bd b1d0 813d
000001c0: 264e 1ebd 42e7 d03c 047b a3bd 8f29 07be
000001d0: 4acb a3bd ce45 bbbd 27d7 f9b8 8a4f b23d
000001e0: a297 803d 5d83 82bb cb4b ee3b 4039 943d
000001f0: 4a9c 59be 1a67 1b3d 6416 f5bd 9e6f e738
00000200: 5c0f 89bc 4b0f bd3c 0233 d63c 70e5 4a3d
00000210: d742 343d 610d 40bd 1913 313c 3e33 2e3d
00000220: 4258 0fbc 1aba 8d3d 06db ba3c 42d3 6dbd
00000230: 657f b1bd b1d4 893d 4977 8e3d fede 973d
00000240: 3be0 43bd 9546 18bd 5c82 043d 1dca cf3b
00000250: 67d4 073d ee19 2fbe a489 fb3c d3ef 86bd
00000260: 2bc5 e63c 687f 643c 0d68 b7bd 9116 52bc
00000270: 95ba c1bd 9f23 763c c3c9 ca3d 34c2 e23d
00000280: fb0b 09bd 36e0 29bd 832f 25bd d0f3 cebd
00000290: 48e1 d0bd 48b5 7dbc 2b96 37bd 6660 83bd
000002a0: 8ea2 76bc 19ab 593d a7c7 bdbc 4e01 1dbd
000002b0: 840c d3bd 6874 c5bb b880 883b bb0b 733c
000002c0: b3f0 a23c c507 e13c 64d1 03bd 3c99 1c3d
000002d0: 8bb6 2b3d 43f4 273d 3721 e5bc 3971 2abd
000002e0: 09ad a83d 00dd 20bd 9ae5 efbc 9190 333b
000002f0: 5cb2 8e3d 899c e0bb eba1 0e3d e2b1 213d
00000300: 1bf7 8f3c 7e9b c0bd 53b3 ba3c 5f79 bc3d
00000310: 4d81 fcbc 7ddc a8bd f9a6 013c 1811 ca3b
00000320: 190e 443d 017b 90ba 296c 013d 39d2 eabd
00000330: 4c80 a3bd f28c 4abd 4b71 293c 70d7 8c3d
00000340: a0ea 6fbd 3b05 9c3d 89d8 5cbd 5d72 43bb
00000350: 5077 90bd 954e 7abd 4649 eebc dd83 67bc
00000360: 2117 efbd cf82 683c d135 bfbd e375 233c
00000370: 0235 353c 3093 8e3c 9ec2 a8bd 3e40 643d
00000380: 87ae e43d b743 48bd 8c93 28bc b7b3 f6bd
00000390: aa49 56bd 22e6 493b 7929 0abc 49f6 5dbd
000003a0: 343a 643d d170 603d 4086 f23c 12a5 863d
000003b0: c75c ef3c 53e7 fcb9 9db9 643d 5752 e3bd
000003c0: d848 bbbc 9c2b fabc eb9f fcbd 04ae aa3d
000003d0: 50dc 97ba 84af b13c 8bb2 f4bc aec8 a93d
000003e0: 59be 7ebc 0606 66bd c13f 24bd 5ad9 343c
000003f0: 7b94 d9bd dca1 833d d0b6 82bd 4a58 adbd
-0.081349574 0.024083246 -0.038292702 -0.032916304 0.042571116 0.07591268 -0.102881394 0.007924061
-0.008581861 -0.05697966 0.04791573 -0.016572021 0.061487045 0.051268104 -0.0055295033 -0.15103371
0.049581353 -0.055579066 -0.16085319 -0.12585719 0.07200919 -0.022416126 -0.034231644 -0.050965317
-0.07132829 0.04309377 0.07369248 -0.02034385 -0.007912635 -0.02654162 0.061076842 -0.102294564
-0.11016358 0.013688087 0.04202954 -0.00960521 -0.020668063 -0.080200806 -0.07674183 -0.07795404
0.007440421 -0.023975896 0.055526182 0.0534112 -0.05288372 -0.019299129 0.031120129 -0.07201665
-0.1717379 0.06551432 0.0012952677 0.06001198 0.08429028 -0.06393063 -0.04548668 0.026110489
-0.064503826 -0.014168965 0.0105208075 -0.050915368 -0.025892295 0.0073593254 0.05045878 0.021031491
-0.060300715 0.016715957 -0.10268012 -0.05291236 -0.056033194 0.042390656 0.031737223 0.053646285
-0.07988028 -0.03354399 -0.04090641 0.056453012 -0.020848464 -0.068132356 -0.033858094 -0.06613172
0.009010828 -0.026800098 -0.0145910345 -0.10356332 -0.027598351 -0.09991134 0.08656749 -0.03454454
-0.058618777 0.07966916 -0.010458724 -0.026011743 -0.079613194 0.046974897 0.054379366 -0.11929457
0.016219191 0.091681235 -0.02631371 0.014012881 0.08351202 0.014263761 0.009489229 -0.06729842
-0.10438537 0.041941397 -0.12323889 -0.07420986 -0.03701209 -0.009021592 -0.0407612 0.06338633
-0.038648747 0.025500897 -0.07982448 -0.13199447 -0.07997759 -0.091441736 -0.000119133205 0.08706577
0.06278922 -0.003982945 0.007272219 0.07237482 -0.21251026 0.037940122 -0.11967161 0.00011035729
-0.016730957 0.023078581 0.02614737 0.049535215 0.044009056 -0.04688776 0.010807776 0.042529337
-0.00874907 0.06920262 0.022809517 -0.0580628 -0.08666877 0.06730021 0.069563456 0.07415579
-0.047821265 -0.037176687 0.032350883 0.0063412325 0.033161547 -0.17099735 0.03070528 -0.065887116
0.028170189 0.013946392 -0.08955393 -0.012822763 -0.09459416 0.015023141 0.09901764 0.110721976
-0.03345869 -0.04147359 -0.040328514 -0.10105097 -0.10199219 -0.015485115 -0.044820946 -0.06414871
-0.0150534045 0.053141687 -0.02316649 -0.038331322 -0.103051215 -0.0060258396 0.004165735 0.01483434
0.019890165 0.027469525 -0.032182112 0.038232073 0.041922133 0.04100443 -0.02796994 -0.041611884
0.08236129 -0.039273262 -0.029284287 0.00273994 0.06967613 -0.006854598 0.034822386 0.039476283
0.017573884 -0.09404658 0.022790587 0.09202837 -0.030823374 -0.0824518 0.007913345 0.0061665885
0.047865007 -0.0011022986 0.03159729 -0.11465878 -0.07983455 -0.049450822 0.010341953 0.06877029
-0.058573365 0.07618185 -0.05391744 -0.0029822804 -0.07054007 -0.061110098 -0.029087674 -0.01413056
-0.11674333 0.014191343 -0.093364365 0.009976837 0.011060001 0.017404169 -0.08240245 0.05572533
0.11166101 -0.048892703 -0.010289084 -0.12045997 -0.052316345 0.0030807336 -0.008432739 -0.054189954
0.05571957 0.05479509 0.029605031 0.065744534 0.029219044 -0.00048237536 0.055841077 -0.110996895
-0.022861883 -0.030538373 -0.123351894 0.08333972 -0.0011586044 0.021690138 -0.029870292 0.0829023
-0.015548312 -0.05615809 -0.040099863 0.011038149 -0.106240235 0.064273566 -0.06382525 -0.084641054

fc2.bias f4 [128]
00000000: d939 bdbc 2df0 153c ef66 b6bc 34de d23b
00000010: 5398 c8bb dfe0 a13d 98de 733b 418c 09bd
00000020: 9308 5abd fbbb a4bd be92 b0bc ffb1 05bd
00000030: 2b30 71bd e3b3 d5bd fca9 a2bd 5455 8b3d
00000040: e214 79bd 4b8b a53d bd11 02bd adf8 203d
00000050: 4165 47bd 4dc0 833d c9cb 823c 9e1f 243d
00000060: 56ea bf3c aa1c 743d 476e acbc 5294 d03c
00000070: ff24 c4bc badb 083d be86 9f3d e7e3 863d
00000080: 34de a9bc ab70 85bc f5f6 c53d 4260 84bd
00000090: 1602 443d 3271 803b 04a5 9c3d cfff 38bd
000000a0: 4ea4 603d 63a2 ae3c a7d3 ba3d 5887 c0bd
000000b0: 8514 8bbd cb3e 1abc c395 8dbd a3a4 df3b
000000c0: 8169 79bd e752 9b3d 227b 8c3d 655a b5bc
000000d0: 8512 653d e95c b03c 6508 4f3d bb3b b63c
000000e0: 7eb8 94bd 117e 87bd 0c6d 3a3d 087d 48bd
000000f0: 28c8 b13d 90f8 943c 9659 f3bc a38f 01bd
00000100: 87d2 003d cd4a b33c a5c0 bd3d d2bd 05bd
00000110: 9417 06bd 2c04 92bd a847 ee3b dbf8 a4bd
00000120: daa3 0dbc b63a 8d3d 4e1d 5abd 8dbf 963d
00000130: fd9f 873d 2354 83bd bb88 363d 2b7e 50bd
00000140: a3a2 473d a590 19bd 94d1 beba 4167 343d
00000150: fbae 513d ebd0 51bd d154 b73c d0dd 8f3d
00000160: 392f e0bc e447 503d 8d4b 05bd 33e4 5cbd
00000170: b342 133d 61a6 013d 5196 a0bd 94a3 b4bc
00000180: 801a d6bb 2c15 843d d12b 26bc 153f adbd
00000190: c46f 01bb f19d 953c 39fc 1e3d cdb6 883d
000001a0: a16d c8bd ec53 123d b8fe 37bd d8f2 60bd
000001b0: a259 80bd 7e0a 14bd f8dc a9bd a6e9 7fbd
000001c0: 83af 723d 3b75 ba3c 3e35 9abd e0ef 75bb
000001d0: ad35 73bc 3146 90bb ebbd 04bd 89ac 303d
000001e0: b011 893b 327b bf3c 7037 f2bc 097a 91bd
000001f0: 2487 053d a3c7 933d 624b 41bd b8ea f03c
-0.023098873 0.009151501 -0.02226588 0.00643518 -0.006121674 0.07904219 0.0037211534 -0.033581022
-0.053230833 -0.08043667 -0.021554347 -0.032640453 -0.058883827 -0.10434701 -0.07942578 0.068033844
-0.06081093 0.08083209 -0.031755198 0.039299656 -0.048680548 0.06433163 0.015966313 0.040069215
0.02342717 0.05959765 -0.021048678 0.02546135 -0.023943422 0.033412673 0.07789372 0.06586438
-0.020735838 -0.016289076 0.09666244 -0.06463672 0.04785355 0.003919744 0.07648662 -0.045165833
0.054844193 0.021317666 0.09122401 -0.09400815 -0.06791023 -0.009414385 -0.069133304 0.006825046
-0.060891632 0.07584172 0.06859423 -0.02213783 0.055925865 0.021528678 0.050545115 0.022245279
-0.072617516 -0.06615842 0.04551415 -0.048947364 0.08680755 0.01818493 -0.029705804 -0.031631123
0.031450775 0.021886254 0.0926526 -0.03265173 -0.03273733 -0.07129702 0.0072717257 -0.08055278
-0.008645022 0.06895964 -0.053250603 0.07360754 0.06622312 -0.06412532 0.04456399 -0.050901573
0.048739087 -0.03749146 -0.0014558309 0.044043783 0.051192265 -0.05122463 0.02237931 0.07024729
-0.027366268 0.05084981 -0.032542754 -0.053928565 0.03595228 0.031652812 -0.078411706 -0.022050656
-0.0065339208 0.06449351 -0.010142283 -0.084592976 -0.0019750455 0.018263789 0.038814757 0.066754915
-0.09786535 0.035724565 -0.044920653 -0.054919094 -0.06267096 -0.03614282 -0.082940996 -0.062478684
0.059249412 0.022760978 -0.075296864 -0.003752701 -0.01484434 -0.0044028987 -0.032407682 0.043133292
0.0041830167 0.023374174 -0.02956745 -0.071033545 0.032599583 0.07215812 -0.04719103 0.029408798

fc3.weight f4 [1, 128]
00000000: 93a2 4b3d 0820 81bd c994 9dbd 21e8 2abc
00000010: e6c6 ccbc 44a1 783d 930b b73c c673 8e3d
00000020: 3893 83bd ced1 efbc 05cc 593d f03a ec3c
00000030: 8a3f ad3c 98be 003d 000b f03c a741 b73c
00000040: ce3b 0bbd e948 f7bc 0a6b 88bd 97e4 96bd
00000050: 6f0a d33d d12c 47bc 9b05 aebc 84d9 8d3d
00000060: 10a4 79bd cb6c 873d dd90 a43c 9dc5 373d
00000070: d162 793d 8268 afbc 8eb3 debb 16aa 6abc
00000080: 1793 01bd b43e 26bd 0017 fa3c 23d5 cabd
00000090: 48c0 2f3d 2d3c 8cbb 4892 4dbc f91a 22bd
000000a0: df18 b0bc b5f3 333e a4ec f93d a924 cfbc
000000b0: ed4e cfbc 1f4d 6d3d 102f cc3d 4ac1 493d
000000c0: 6e57 f0bc 560b 163d 9086 023e 3ee8 86bd
000000d0: 2586 773d f818 68bc 0ae2 5d3e b4a6 333e
000000e0: 7d51 80bd 9c8b d23c 3372 2f3d ccca 173d
000000f0: 3d90 543d 98b1 2e3d 408a d93c 1b5e db3d
00000100: 8d39 ae3c 576c 1f3e 0cd7 993d 1b1d 533d
00000110: 8f9b 6a3c f0fc c2bc 1b0e 3bbc 25d8 5cbd
00000120: fad2 c33d 631b 90bd 813e 8fbc 9b15 14bd
00000130: d6e5 093d fa72 15bc 7774 233d 5589 20bd
00000140: c5b1 8bbc 9c17 81bd 8892 60bc 9236 e23d
00000150: 390d c8bc f59d 99bc c8c9 c9bc a6df fb3d
00000160: 1d90 aabc d2f6 08bd 51e3 3bbc 743f aabc
00000170: 7099 c33c b0d9 f93d 7ec0 133d d61d de3d
00000180: 95de d63d 5838 c43c 0bf0 0bbd 5874 36bc
00000190: bd66 3cbd e005 9abc eb63 7f3d 3203 cabc
000001a0: 3468 99bc 43ba 393d e70a 223d 2d84 b1bc
000001b0: faea 6cbc a470 c83c 3dc2 fe3c eb07 923d
000001c0: 34cb 32bd 8f03 e0bc a21b a5bc 3c5e 243e
000001d0: 19c5 1c3c 98b1 fc3c 5f38 e93b 1fbf 16bc
000001e0: 7221 203e 25e9 afbc 25f3 7d3d 3bf8 d1bc
000001f0: b70e 153d 63ba 8fbd 6c9c aa3c 635e b2bc
0.04971559 -0.063049376 -0.07694394 -0.01043132 -0.024997186 0.06070067 0.022344386 0.06955676
-0.06424564 -0.029274847 0.053173084 0.028836697 0.021148462 0.031431764 0.02930212 0.022370173
-0.03399258 -0.030186133 -0.06661041 -0.07367819 0.103047244 -0.012156681 -0.021242907 0.069262534
-0.060947478 0.066125475 0.020088607 0.044866193 0.060885254 -0.021412138 -0.006796307 -0.014322778
-0.031634416 -0.040587142 0.030528545 -0.09903934 0.042907983 -0.0042796344 -0.012547083 -0.039576504
-0.021496234 0.17573436 0.12203339 -0.025286036 -0.02530619 0.057934877 0.09969914 0.0492566
-0.029338565 0.036631905 0.12746644 -0.065872654 0.060430665 -0.014166109 0.21668258 0.17544061
-0.06265543 0.025701337 0.04283352 0.037058637 0.05189537 0.042649835 0.02655518 0.107113086
0.021267677 0.15568672 0.0751172 0.05154143 0.014319315 -0.02380225 -0.011416937 -0.05391707
0.09561725 -0.070364736 -0.017485859 -0.036153417 0.033666454 -0.009121651 0.03990599 -0.03919347
-0.01705254 -0.06303331 -0.013706811 0.11045565 -0.024420368 -0.018752078 -0.02463235 0.12298517
-0.020820672 -0.03343851 -0.011467771 -0.02078221 0.023876876 0.12199724 0.036072247 0.108455345
0.10491673 0.023952648 -0.03416447 -0.011136137 -0.045996416 -0.01880163 0.06235115 -0.024659727
-0.018726446 0.04534365 0.03956118 -0.021669472 -0.01446032 0.024467774 0.03109848 0.071304165
-0.04365082 -0.027345447 -0.020154778 0.16051573 0.009568476 0.030846402 0.0071173157 -0.00920084
0.15637758 -0.021473477 0.06199946 -0.02563106 0.036390986 -0.07017972 0.02082654 -0.021773523
