checkpoint_actor_final.pth (torch, 87909 bytes, 6 tensors)

fc1.weight f4 [128, 33]
0.45312685 -0.017439876 -0.15449972 0.054759733 0.09355515 -0.06233265 -0.025482409 -0.120363854
0.15886566 0.10372915 0.08531818 0.0040854183 0.09202757 -0.36346734 -0.0076880897 0.100989595
0.082242474 -0.17457663 0.005350861 -0.007747886 0.06859127 0.059916504 0.050007906 -0.3202883
-0.08235167 0.08775732 0.0065871356 -0.1358238 0.12261791 -0.011835541 0.22060633 -0.054728672
0.6291523 -0.049908247 -0.11109146 -0.19110112 0.044528436 0.033490412 0.024236597 0.06400159
-0.00565038 -0.042464532 -0.03861819 0.04409517 0.1149711 -0.14360082 0.14901102 0.18107593
0.18347031 0.01570074 -0.052356537 -0.10825677 -0.02489131 0.027328439 0.0015835351 -0.04479656
-0.011129968 0.05460696 0.099259965 -0.11249558 -0.22139089 -0.17028844 -0.06032259 0.23085654
-0.034492347 1.7458094 0.023888417 -0.095399596 0.08361798 -0.06604201 -0.03767101 -0.07628447
0.10871118 -0.069068335 0.04924231 0.036665924 -0.07412589 -0.14110494 -0.06609983 -0.03621822
-0.1281572 -0.22810529 0.035301898 0.028338265 -0.020638583 0.06752988 0.00467641 -0.13526133
0.090000324 0.036252283 -0.07782785 -0.14843746 -0.090377346 -0.11400176 -0.04976072 -0.062163703
0.121197194 0.08344149 -0.79337853 -0.045074765 -0.241032 0.17139289 -0.052436538 -0.06965928
-0.024814347 0.0547524 0.07438763 0.10686255 0.060489062 -0.21027483 -0.007809536 0.026725745
0.012038886 0.36592272 -0.29540408 0.0028179544 0.07593391 0.016341794 -0.016061815 0.04099105
-0.07535321 0.057339203 0.028195342 0.09715288 0.18457769 -0.01483424 -0.19779287 0.13278358
-0.010008022 0.26411107 0.0022957914 -0.083494805 -0.03894115 0.13894598 -0.08319315 -0.051254258
0.013506312 -0.016712654 -0.047177464 0.10496391 0.046990674 0.033478558 -0.017649537 0.040052965
-0.009994853 0.008506097 -0.1350751 0.07044535 0.06377617 0.059685506 -0.022151928 -0.010328152
-0.08575219 0.075141996 -0.0040181074 -0.057509907 -0.102256455 -0.00080096815 0.10043843 0.042765584
0.11962696 0.072098576 0.07654805 -0.0024613338 -1.5180354 0.103021644 -0.12552187 0.11351217
-0.048938207 -0.02315685 -0.09197496 0.019833712 -0.06701691 -0.19577315 -0.18891193 -0.03499172
0.07267906 -0.08649699 -0.027366273 0.31367967 -0.110997096 0.025904313 -0.14912589 -0.049274303
0.00073473284 -0.109957494 0.14348973 0.0656969 -0.22783989 0.058514982 -0.0964899 0.07770522
-0.10043412 0.123609364 -0.043028023 0.113400504 -0.030286176 -0.33449546 -0.16983266 -0.21165243
0.074539825 0.073821515 0.012516289 0.041578796 0.1654691 -0.082910664 0.12772502 0.007052922
0.01481973 -0.10081607 0.0082799755 0.34013152 -0.0012627837 -0.12970214 -0.0029243042 -0.023763917
-0.011506095 0.026646826 0.0033368361 -0.034638867 0.000457562 0.11963641 0.05178541 -0.066549845
-0.29863897 -0.1550849 0.09714993 -0.022760836 0.15020932 -0.014444673 -0.1062324 -0.32872674
0.053769074 0.19857107 -0.12423636 0.04790465 -0.023643471 0.0452907 0.0021807132 0.20847294
0.033768836 -0.16016582 -0.09629169 -0.2034501 -0.029783105 -0.024334641 0.008041857 0.031044198
-0.07578307 -0.16239926 -0.080617405 0.027812261 0.030581156 -0.0035326357 -0.19358517 0.05501601
00000000: 3e00 e83e 12de 8ebc 2d35 1ebe be4b 603d
00000010: d899 bf3d 8550 7fbd 7cc0 d0bc 5381 f6bd
00000020: aead 223e f36f d43d 4cbb ae3d f9de 853b
00000030: f378 bc3d 6418 babe 5fec fbbb a2d3 ce3d
00000040: be6e a83d 37c4 32be 4756 af3b fae1 fdbb
00000050: 9479 8c3d 026b 753d 17d5 4c3d d4fc a3be
00000060: fea7 a8bd 1cba b33d e6d8 d73b 6515 0bbe
00000070: 191f fb3d dbe9 41bc a0e6 613e 2c2b 60bd
00000080: 2010 213f 976c 4cbd eb83 e3bd 03b0 43be
00000090: 7363 363d 3e2d 093d d48b c63c 4413 833d
000000a0: d326 b9bb 4aef 2dbd 1b2e 1ebd 239d 343d
000000b0: f875 eb3d 180c 13be 5896 183e f86b 393e
000000c0: a4df 3b3e d79e 803c cf73 56bd bab5 ddbd
000000d0: dce8 cbbc e4df df3c 9f8e cf3a 997c 37bd
000000e0: 785a 36bc 8cab 5f3d cf48 cb3d 1564 e6bd
000000f0: 4bb4 62be 1860 2ebe d214 77bd a865 6c3e
00000100: d947 0dbd af76 df3f a4b1 c33c dd60 c3bd
00000110: e73f ab3d 0941 87bd eb4c 1abd 083b 9cbd
00000120: f8a3 de3d b373 8dbd 4eb2 493d 022f 163d
00000130: 51cf 97bd d07d 10be 595f 87bd 8e59 14bd
00000140: a43b 03be 6f94 69be b998 103d a625 e83c
00000150: 3f12 a9bc 1b4d 8a3d 923c 993b f281 0abe
00000160: 1752 b83d 467d 143d 3564 9fbd fdff 17be
00000170: c217 b9bd c179 e9bd e6d1 4bbd 5e9f 7ebd
00000180: 3c36 f83d 5fe3 aa3d db1a 4bbf 51a0 38bd
00000190: 18d1 76be 9e81 2f3e b2c7 56bd 86a9 8ebd
000001a0: 7547 cbbc 0d44 603d 8b58 983d c1da da3d
000001b0: 61c3 773d 4952 57be 23e7 ffbb f3ef da3c
000001c0: bf3e 453c 395a bb3e 343f 97be 6ead 383b
000001d0: 3d83 9b3d 3adf 853c 1194 83bc 3be6 273d
000001e0: c952 9abd 83dc 6a3d ebf9 e63c 17f8 c63d
000001f0: ef01 3d3e 500b 73bc 378a 4abe 6bf8 073e
00000200: b0f8 23bc 9139 873e fd74 163b 53ff aabd
00000210: c180 1fbd db47 0e3e 2c61 aabd fcef 51bd
00000220: 9449 5d3c fae8 88bc 283d 41bd 52f7 d63d
00000230: 4b79 403d d020 093d c395 90bc 940e 243d
00000240: 74c1 23bc 285d 0b3c 2151 0abe a745 903d
00000250: 159d 823d ca78 743d f677 b5bc 6937 29bc
00000260: d89e afbd 0ce4 993d 54aa 83bb 828f 6bbd
00000270: d56b d1bd 10f8 51ba aab2 cd3d f72a 2f3d
00000280: fbfe f43d 6ba8 933d 39c5 9c3d 544e 21bb
00000290: fc4e c2bf 03fd d23d ce88 00be 1279 e83d
000002a0: 6e73 48bd 6fb3 bdbc 5e5d bcbd 4f7a a23c
000002b0: 2940 89bd c278 48be 2172 41be 7a53 0fbd
000002c0: c2d8 943d 5525 b1bd 3c2f e0bc 9f9a a03e
000002d0: 7252 e3bd 4835 d43c 75b4 18be dad3 49bd
000002e0: 169b 403a 6531 e1bd f9ee 123e 198c 863d
000002f0: dc4e 69be 68ad 6f3d 7f9c c5bd ea23 9f3d
00000300: 67b0 cdbd e826 fd3d 273e 30bd 863e e83d
00000310: b71a f8bc fd42 abbe 9de8 2dbe 6abb 58be
00000320: 56a8 983d bc2f 973d 1f11 4d3c 874e 2a3d
00000330: bb70 293e 11cd a9bd 59ca 023e 331c e73b
00000340: 74ce 723c a878 cebd bca8 073c b825 ae3e
00000350: fd83 a5ba a3d0 04be afa5 3fbb 8cac c2bc
00000360: 0f84 3cbc 724a da3c d2ae 5a3b 7ce1 0dbd
00000370: efe4 ef39 ef03 f53d f01c 543d 494b 88bd
00000380: 35e7 98be 93ce 1ebe 8bf6 c63d ef74 babc
00000390: 79d0 193e 5aa9 6cbc 5f90 d9bd df4e a8be
000003a0: f63c 5c3d 3756 4b3e a26f febd ab37 443d
000003b0: f4af c1bc be82 393d 4cea 0e3b ee79 553e
000003c0: 3151 0a3d 8202 24be 9434 c5bd 3955 50be
000003d0: b3fb f3bc 7159 c7bc fec1 033c 6750 fe3c
000003e0: 2734 9bbd fe4b 26be bd1a a5bd 8ad6 e33c
000003f0: 5585 fa3c cb83 67bb 313b 46be 7858 613d

fc1.bias f4 [128]
0.042989247 0.13115776 0.24065238 0.25959748 0.028751155 -0.10006716 0.30345207 -0.36117274
-0.026653618 0.03325781 0.124694474 0.14020774 -0.011742747 -0.06326623 0.010505629 -0.3731244
0.12511246 -0.24533816 0.038304504 0.15164334 0.115480065 0.010687309 0.2362816 -0.18346481
0.18093169 0.05533114 -0.12300967 0.26322997 -0.101693474 0.36760065 -0.01906074 -0.10708668
0.06487396 0.2637828 0.14028318 0.4309866 0.11672925 -0.29874283 -0.22002855 0.13468567
0.0046263537 -0.05681133 -0.036645092 0.23051958 -0.18080562 0.115628235 0.11017295 -0.021758644
-0.041198466 -0.1120781 -0.12779245 0.09863446 0.46142405 0.174119 -0.12749948 0.4487992
-0.04874369 -0.032208458 0.15649956 -0.15452039 0.067567274 0.052833915 0.095263496 0.2018804
0.03293358 -0.28572223 0.05781146 0.18645158 0.012223893 -0.11407308 0.040854212 -0.23320603
0.1360165 0.32415837 -0.053789854 0.025196701 0.11615234 -0.024667507 -0.10944164 -0.07693733
0.23314442 -0.15173975 0.18374206 -0.034831263 0.11671259 -0.26505437 -0.0021148084 -0.28242972
-0.16763726 0.3007644 -0.035574324 -0.03581439 -0.23158896 0.37267733 -0.026890373 -0.06098331
0.1572574 0.038725015 -0.039591845 0.33580858 0.09197877 0.17819506 0.060635123 -0.068822466
-0.03305871 0.13746293 -0.37959477 -0.09180868 0.15738904 0.23528415 -0.02864058 0.106390886
-0.03670526 -0.11450977 0.18452585 0.28214586 -0.12386742 0.08823642 0.2830246 0.049841717
0.1347517 -0.002920361 0.07660762 0.2379869 -0.2545723 0.07308906 0.05727556 0.08276001
00000000: 7e15 303d 384e 063e 946d 763e f6e9 843e
00000010: 8b87 eb3c 03f0 ccbd 125e 9b3e a2eb b8be
00000020: b058 dabc 5739 083d d15f ff3d 9e92 0f3e
00000030: a764 40bc ba91 81bd cd1f 2c3c 290a bfbe
00000040: 7b1d 003e ed39 7bbe 2fe5 1c3d 6448 1b3e
00000050: d080 ec3d d319 2f3c cef3 713e 33de 3bbe
00000060: 2846 393e e8a2 623d 7eec fbbd 14c6 863e
00000070: ab44 d0bd 2736 bc3e 4525 9cbc 4350 dbbd
00000080: a4dc 843d 8a0e 873e 65a6 0f3e 47aa dc3e
00000090: bf0f ef3d d2f4 98be 2a4f 61be 0aeb 093e
000000a0: ab98 973b ffb2 68bd 2a19 16bd 530d 6c3e
000000b0: 1c25 39be 7fce ec3d 5ba2 e13d 2f3f b2bc
000000c0: b9bf 28bd 3489 e5bd 06dc 02be dd00 ca3d
000000d0: c63f ec3e 404c 323e 398f 02be 02c9 e53e
000000e0: 77a7 47bd 04ed 03bd 6c41 203e 983a 1ebe
000000f0: b660 8a3d 6068 583d 8219 c33d bcb9 4e3e
00000100: 5de5 063d 2f4a 92be b6cb 6c3d 2aed 3e3e
00000110: b946 483c 269f e9bd bf56 273d 90cd 6ebe
00000120: e947 0b3e 16f8 a53e c052 5cbd 5069 ce3c
00000130: 47e1 ed3d 8313 cabc f022 e0bd 5291 9dbd
00000140: 69bd 6e3e aa61 1bbe e126 3c3e 3aab 0ebd
00000150: 0307 ef3d 35b5 87be 9998 0abb a19a 90be
00000160: 1aa9 2bbe cbfd 993e 62b6 11bd 1cb2 12bd
00000170: a825 6dbe 90cf be3e 3349 dcbc a3c9 79bd
00000180: 1508 213e 1f9e 1e3d 0f2b 22bd 1aef ab3e
00000190: 5e5f bc3d c478 363e 895c 783d cbf2 8cbd
000001a0: 9268 07bd 15c3 0c3e 3f5a c2be 3006 bcbd
000001b0: 982a 213e 54ee 703e a69f eabc 77e3 d93d
000001c0: 4158 16bd 1984 eabd 58f4 3c3e 6c75 903e
000001d0: 34ae fdbd 4cb5 b43d 9ae8 903e d426 4c3d
000001e0: 5afc 093e 8763 3fbb 75e4 9c3d d7b2 733e
000001f0: 4d57 82be b8af 953d c799 6a3d 157e a93d

fc2.weight f4 [128, 128]
0.12050323 -0.34428984 0.2115046 0.11522253 0.03900413 -0.1840464 0.08019723 0.19706936
-0.04015935 -0.019465424 0.26253867 0.01497094 0.045558844 -0.20678824 -0.41115385 -0.1950366
-0.18854977 0.061976038 -0.2970904 -0.081146985 0.3192611 0.11120626 -0.058143374 -0.043132033
-0.2867763 -0.10425081 0.020128712 0.2643932 -0.04417663 0.0055827587 0.025567787 -0.13175172
0.38631245 0.10278461 -0.027427435 0.118596025 -0.26036805 -0.03251234 -0.38553664 0.34133512
-0.434624 -0.051285468 -0.009874644 0.14285392 -0.0059906584 -0.028026117 -0.22773702 -0.043111205
0.04772936 -0.30825064 -0.13265467 0.23088576 -0.22311267 0.110359676 0.0022969367 0.053353548
-0.018690156 0.2756771 -0.07912701 -0.24472125 0.2216186 -0.11942836 0.13382638 0.026882717
0.23207116 -0.16561963 0.20852779 0.035476234 0.10631534 -0.03353348 0.04755257 -0.06496295
-0.09143232 -0.04892998 -0.06182543 0.133817 0.22959663 0.005171007 0.2278378 0.10511102
0.0944753 -0.050837666 0.30596673 -0.07567174 -0.24566598 0.30834723 0.08587843 0.24251604
0.088169575 -0.19596829 -0.2812742 0.16940342 0.18784693 -0.29604405 0.5471088 0.08148687
0.0151424 0.07042572 -0.31325772 -0.07703926 0.19216156 -0.20764236 -0.29802972 0.1495847
0.07871998 -0.120558985 -0.28300244 0.37842274 0.02605328 -0.060032878 -0.034491185 -0.19504473
-0.09380915 -0.18030615 0.060188357 0.11715017 -0.8281104 0.22719121 -0.28667262 0.10211664
0.2051293 0.2168546 0.10180432 -0.13582444 -0.9073462 -0.16474243 -0.06893289 0.004977935
-0.36206782 -0.09484709 0.03070658 -0.01601557 -0.15536124 -0.21151684 -0.12600186 0.035567224
-0.16054766 0.052284777 -0.1059642 -0.11125255 -0.52129394 0.2533532 0.10381266 -0.16235425
0.17372069 0.11890151 -0.0039730933 0.16525458 0.017445331 -0.18071644 -0.14177895 -0.15599127
0.41363385 -0.102839 0.4149776 -0.15807508 0.19640374 0.1330815 0.32130313 0.08408595
-0.22888286 -0.10190384 0.06057643 -0.31332743 0.054016568 -0.08265262 0.31196645 -0.36104146
0.10032926 0.5874909 -0.036059305 -0.05063366 -0.03222187 0.060456008 -0.1849784 -0.15542907
0.26624832 -0.12586935 0.0747017 -0.17174762 0.13520694 0.111743756 0.11103462 0.33468673
-0.08341308 -0.16894676 0.0021482965 -0.23947741 -0.09271493 -0.3289198 0.00459532 0.051643174
0.3351371 0.21189496 0.053778168 -0.38268122 -0.11407125 -0.5623708 0.1770251 0.11957197
0.45572397 -0.042741418 -0.25300404 0.36298355 0.14604771 0.023636451 -0.3438337 -0.3472055
-0.07131937 0.05731033 -0.78274304 -0.29189262 -0.27192765 -0.16963863 0.28210932 0.25046965
-0.029220996 0.10724281 0.24978806 0.21775058 0.27217895 0.38851583 -0.7282274 0.29203716
-0.41985092 0.21951039 0.19330782 -0.16528124 0.09442137 0.14225188 0.086744614 -0.3666901
-0.33827215 0.15904704 0.23446372 -0.08547954 0.19856007 -0.062914185 0.3745252 0.01410766
-0.37107342 -0.0258721 -0.03710532 -0.21199459 0.27593178 0.23494709 0.037510544 -0.05695213
-0.21335769 -0.24341367 0.2861013 -0.025469752 0.11688474 -0.16421942 0.11928687 -0.34191057
00000000: 66ca f63d c246 b0be a994 583e caf9 eb3d
00000010: cbc2 1f3d a976 3cbe 723e a43d 8dcc 493e
00000020: 217e 24bd f475 9fbc 786b 863e ac48 753c
00000030: e99b 3a3d 4cc0 53be c282 d2be adb7 47be
00000040: 3113 41be 96da 7d3d 3c1c 98be 6430 a6bd
00000050: 3176 a33e 1cc0 e33d bf27 6ebd 37ab 30bd
00000060: 58d4 92be 7381 d5bd f8e4 a43c 8c5e 873e
00000070: 8ef2 34bd 93ef b63b 8973 d13c ece9 06be
00000080: bfca c53e bd80 d23d 80af e0bc 79e2 f23d
00000090: f64e 85be a92b 05bd 0f65 c5be 7ac3 ae3e
000000a0: 0987 debe b610 52bd 42c9 21bc 4c48 123e
000000b0: 494d c4bb 0797 e5bc e533 69be 6095 30bd
000000c0: dd7f 433d 07d3 9dbe a0d6 07be 516d 6c3e
000000d0: a677 64be 4104 e23d 3488 163b 4089 5a3d
000000e0: 191c 99bc 8d25 8d3e 580d a2bd 3598 7abe
000000f0: fcef 623e db96 f4bd c809 093e 2539 dc3c
00000100: 10a4 6d3e 3198 29be 4f88 553e 874f 113d
00000110: dbbb d93d 675a 09bd 7cc6 423d 4c0b 85bd
00000120: de40 bbbd cd6a 48bd a93c 7dbd 5307 093e
00000130: 611b 6b3e 8d71 a93b 504e 693e 7244 d73d
00000140: 447c c13d 283b 50bd aca7 9c3e c9f9 9abd
00000150: dd8f 7bbe b0df 9d3e 08e1 af3d 2056 783e
00000160: 4092 b43d e9ab 48be 2c03 90be 1778 2d3e
00000170: f25a 403e 1693 97be 530f 0c3f 97e2 a63d
00000180: d417 783c 5c3b 903d 5163 a0be c2c6 9dbd
00000190: 00c6 443e 33a0 54be 5a97 98be bb2c 193e
000001a0: f137 a13d a1e7 f6bd b2e5 90be a0c0 c13e
000001b0: b06d d53c 09e5 75bd a146 0dbd ceb9 47be
000001c0: 031f c0bd 2da2 38be 1188 763d 6eec ef3d
000001d0: 0bff 53bf d0a4 683e c1c6 92be 8722 d13d
000001e0: 6a0d 523e 220f 5e3e c97e d03d 9015 0bbe
000001f0: d747 68bf 3db2 28be b02c 8dbd f21d a33b
00000200: f460 b9be 313f c2bd 5e8c fb3c 1633 83bc
00000210: 0417 1fbe df97 58be a206 01be f0ae 113d
00000220: 9b66 24be 9028 563d c203 d9bd 60d8 e3bd
00000230: 8573 05bf 83b7 813e bb9b d43d 3140 26be
00000240: d6e3 313e a382 f33d b930 82bb 7f38 293e
00000250: 83e9 8e3c bb0d 39be 802e 11be 2dbc 1fbe
00000260: d1c7 d33e 419d d2bd f277 d43e 6fde 21be
00000270: 101e 493e 8446 083e d881 a43e 4135 ac3d
00000280: 4560 6abe f6b2 d0bd fe1e 783d 746c a0be
00000290: 7a40 5d3d c745 a9bd 11ba 9f3e 6dda b8be
000002a0: 6d79 cd3d ce65 163f ecb2 13bd 3e65 4fbd
000002b0: 14fb 03bd b8a0 773d fa6a 3dbe cc28 1fbe
000002c0: b351 883e e5e3 00be 34fd 983d 9cde 2fbe
000002d0: b073 0a3e e9d9 e43d 1e66 e33d 0f5c ab3e
000002e0: 7ad4 aabd 6100 2dbe 6fca 0c3b 9139 75be
000002f0: 53e1 bdbd 2d68 a8be 5794 963b cb87 533d
00000300: 1797 ab3e fefa 583e 7f46 5c3d cbee c3be
00000310: 309e e9bd 88f7 0fbf 1146 353e 26e2 f43d
00000320: a754 e93e a011 2fbd bf89 81be fbd8 b93e
00000330: 888d 153e 3ba1 c13c f90a b0be ebc4 b1be
00000340: e40f 92bd 3dbe 6a3d d961 48bf f372 95be
00000350: 1a3a 8bbe c0b5 2dbe a270 903e 8f3d 803e
00000360: df60 efbc 1ea2 db3d 71c8 7f3e 02fa 5e3e
00000370: 0a5b 8b3e 8ceb c63e 1c6d 3abf e585 953e
00000380: b3f6 d6be 55c7 603e 7cf2 453e 7c3f 29be
00000390: fe5f c13d 7aaa 113e 29a7 b13d cebe bbbe
000003a0: 0232 adbe 3add 223e 4217 703e e60f afbd
000003b0: 5553 4b3e 27d9 80bd c4c1 bf3e d123 673c
000003c0: 56fd bdbe baf1 d3bc bffb 17bd 1c15 59be
000003d0: ee46 8d3e f895 703e a8a4 193d a346 69bd
000003e0: 707a 5abe 6f41 79be df7b 923e f1a5 d0bc
000003f0: 4461 ef3d 2329 28be ad4c f43d e70e afbe

fc2.bias f4 [128]
0.2835241 0.09562346 0.035592247 -0.004118654 0.1709288 0.12996435 0.06393852 0.03591953
-0.036398828 0.18169074 0.08574272 0.055382617 -0.06512735 0.03171388 0.03882858 -0.023345962
0.17425177 -0.052440863 0.052140158 0.0835574 0.0095372675 -0.07982735 -0.107229166 -0.060850628
0.11909391 0.09204831 -0.061813407 0.04777032 -0.03621276 -0.040880553 -0.022450946 0.06501025
0.08991164 -0.0030789461 0.051042248 0.04894647 0.051129114 -0.049898602 -0.03688506 -0.054396372
-0.0045594373 0.046242464 0.066587016 0.13704138 0.054310996 0.0032056493 0.10031055 -0.023926325
0.023451358 -0.10063165 0.15480684 0.11386109 -0.05722082 -0.020586018 0.01564403 -0.07105646
-0.008866936 -0.01688054 0.07951432 -0.024300735 -0.038692433 0.08795805 0.116240345 0.075246595
0.12826459 -0.1897764 0.034780424 -0.032176323 0.06717131 -0.040149692 -0.13235056 -0.06293653
-0.06804836 0.10534305 -0.013477212 0.0595126 -0.010736806 0.097863436 0.03605311 -0.09731352
0.0125063555 -0.00819297 0.062817186 0.07809715 -0.09701255 -0.067859665 -0.020318346 -0.026363773
-0.0041481294 0.11747335 0.09961624 -0.060572874 -0.04110148 -0.026516143 -0.17090425 0.0015165609
-0.12254008 0.016355926 -0.08184433 0.095836475 -0.06838542 -0.02180787 -0.23434056 0.018240824
0.036090747 -0.048992246 0.13692321 -0.040892795 -0.007002854 0.23079255 0.07348602 0.00035674678
-0.00061657035 0.27496016 -0.11367401 0.052532647 0.040782325 0.060402784 -0.021236904 0.09801074
-0.019355588 -0.019230746 -0.06923578 0.116436705 -0.0981474 0.061201636 -0.06843551 0.11729636
00000000: 122a 913e 3cd6 c33d 2dc9 113d c6f5 86bb
00000010: f607 2f3e 6015 053e 33f2 823d 5b20 133d
00000020: f016 15bd 230d 3a3e e199 af3d e2d8 623d
00000030: 7d61 85bd 6ae6 013d b80a 1f3d 0840 bfbc
00000040: 0e6f 323e 3bcc 56bd eb90 553d 2420 ab3d
00000050: 3342 1c3c 867c a3bd f79a dbbd 823e 79bd
00000060: 82e7 f33d d383 bc3d 0e30 7dbd d0aa 433d
00000070: d553 14bd 5e72 27bd 0ceb b7bc 1824 853d
00000080: 9823 b83d 25c8 49bb ad11 513d 187c 483d
00000090: c36c 513d 7a62 4cbd ca14 17bd bbce 5ebd
000000a0: 5567 95bb bd68 3d3d c65e 883d 9354 0c3e
000000b0: 3575 5e3d df15 523b 9e6f cd3d 2401 c4bc
000000c0: 101d c03c f717 cebd af85 1e3e 0130 e93d
000000d0: 6160 6abd 02a4 a8bc e927 803c 0d86 91bd
000000e0: a046 11bc 0f49 8abc 67d8 a23d 5612 c7bc
000000f0: f57b 1ebd 5a23 b43d 6b0f ee3d e31a 9a3d
00000100: cb57 033e bf54 42be eb75 0e3d 52cb 03bd
00000110: 1d91 893d 0174 24bd e886 07be dee4 80bd
00000120: f05c 8bbd 19be d73d 86cf 5cbc 7cc3 733d
00000130: 6ee9 2fbc a06c c83d 6dac 133d 504c c7bd
00000140: 75e7 4c3c cf3b 06bc 4ca6 803d 66f1 9f3d
00000150: 84ae c6bd 02fa 8abd a972 a6bc d7f8 d7bc
00000160: 08ed 87bb de95 f03d 9903 cc3d 431b 78bd
00000170: 075a 28bd 6238 d9bc 8601 2fbe 57c7 c63a
00000180: 4bf6 fabd ddfc 853c 009e a7bd ea45 c43d
00000190: a80d 8cbd 6ba6 b2bc f9f6 6fbe c86d 953c
000001a0: e4d3 133d 18ac 48bd 9935 0c3e 347f 27bd
000001b0: 3278 e5bb e254 6c3e d77f 963d be09 bb39
000001c0: 56a1 21ba 94c7 8c3e ebcd e8bd 792c 573d
000001d0: 5e0b 273d e968 773d 04f9 adbc dbb9 c83d
000001e0: 9c8f 9ebc cc89 9dbc 7dcb 8dbd 5e76 ee3d
000001f0: 8101 c9bd 91ae 7a3d eb27 8cbd 1339 f03d

fc3.weight f4 [4, 128]
0.45968708 0.7410581 -0.33311102 -0.67619 0.4602053 -0.1585313 -0.61907536 -0.20404766
-0.4843542 -0.49628222 -0.74972826 -0.4641137 -0.3353757 -0.33342916 0.41851637 0.020601116
-0.16199993 -0.20529395 -0.09131612 -0.22632022 0.13009124 0.7440061 -0.40651065 -0.42659992
0.6208662 0.050987426 -0.17790493 -0.5022998 1.1310439 -0.3951192 0.34553742 -0.20473054
0.046250354 -0.833028 -0.01654835 0.0015552487 -0.13714157 -0.95645356 -0.7595754 -0.259765
-0.052224737 -0.12293519 -0.025876136 -0.23745045 0.2652289 0.08887226 -0.25975263 0.008209969
0.065435655 -0.1497225 -0.060340773 0.8194996 0.1306895 0.05263267 -0.18894982 0.96179575
-0.4633207 -0.75326777 1.0235466 -0.72877485 0.99386114 -0.005429219 -0.10534081 -0.077734895
-0.24642569 -0.90738463 0.4614639 -0.34614998 0.87112767 0.5875206 -0.26780784 0.2569444
-0.6414228 0.008290376 -0.48321408 -0.0421954 -0.67224354 -0.021652712 0.79504913 0.15752973
0.24657463 0.1443459 0.4987883 -0.13695973 -0.019943276 0.9433301 -0.09790337 -0.14269851
0.8100196 -0.32511273 0.19531205 -0.060627818 -0.0001860504 0.03307747 -1.1428996 0.2742686
-0.6404606 -0.022346124 0.31071162 -0.052714154 0.57032275 -0.113065146 -0.03168645 0.17192242
1.0080092 0.5993272 0.6277155 -0.032341376 0.14675148 0.057355005 0.10998175 0.20717883
-1.0851715 0.23940675 -0.9147113 -0.9206017 0.061153077 0.06931714 -0.4106725 0.6382656
0.6904657 -0.027048513 -0.38789034 -0.34064132 -0.113525204 0.23043074 0.21045882 0.6752101
-0.12515506 -0.45140547 -0.49452916 0.24007964 -0.21942107 0.33317357 0.095806904 0.016885571
-0.048906174 -0.21317446 -0.4513589 -0.5383812 -0.4361304 0.21749592 0.14394648 -0.05976595
-0.023240536 0.50041854 0.116770715 0.110476255 0.22527629 -0.74479896 -0.6491057 -0.28045037
0.09742838 0.13575007 0.13756637 -0.10847159 0.45127627 -0.045995623 -0.3501242 -0.5350839
0.041585784 -0.33037752 0.35612616 0.12492118 0.070486985 -0.770268 0.18405117 -0.3536884
0.04488454 0.44381145 -0.5321433 0.2662603 -0.11101157 -0.34581685 0.32053706 -0.19401751
0.31460953 0.35935813 0.1307088 0.33468872 0.040284477 0.16340333 0.41961402 0.2578472
-0.52823734 -0.3456228 -0.03249189 0.00782777 -0.1158792 0.12917987 0.50231844 0.1564128
0.07452285 0.26630437 0.3617656 -0.15645452 0.052241787 -0.09985926 -0.3554935 0.11736041
-0.16869853 0.24243428 0.2113632 0.08147102 0.35230047 0.13443634 -0.11027842 -0.7638306
0.028765615 -0.07788679 -0.15066913 -0.71511185 0.25319266 0.0109233335 0.03656874 -0.47488177
0.17814532 -0.30961046 -0.17171136 -0.78572667 0.015597058 -0.41861135 0.65280896 -0.2072834
0.52085924 0.14140826 -0.15455633 0.12867545 0.08014218 0.044813484 -0.140488 -0.10087004
-0.3248537 0.08776813 0.44042906 0.034147575 0.027997771 0.21883911 0.09904584 0.36809903
-0.3849996 -0.19475892 -0.1710561 0.24995483 0.4478095 -0.5795453 0.19166319 -0.00063890894
0.27964833 -0.3154218 -0.11039002 0.10088792 -0.17550044 -0.43557397 0.07548459 0.056903087
00000000: 1b5c eb3e fcb5 3d3f 878d aabe ca1a 2dbf
00000010: 07a0 eb3e 0756 22be b97b 1ebf dff1 50be
00000020: 46fd f7be b418 febe 31ee 3fbf 50a0 edbe
00000030: 5db6 abbe 3ab7 aabe c747 d63e acc3 a83c
00000040: 4fe3 25be 9438 52be f203 bbbd 7dc0 67be
00000050: a336 053e 2f77 3e3f 2a22 d0be 4e6b dabe
00000060: 16f1 1e3f 31d8 503d b62c 36be b896 00bf
00000070: 0cc6 903f 104d cabe 48ea b03e e2a4 51be
00000080: 0371 3d3d 5341 55bf 6890 87bc 7dd9 cb3a
00000090: d76e 0cbe 24da 74bf 8973 42bf ebff 84be
000000a0: 9be9 55bd 72c5 fbbd 31fa d3bc 3626 73be
000000b0: 15cc 873e a902 b63d 4cfe 84be 1b83 063c
000000c0: 2103 863d db50 19be e327 77bd baca 513f
000000d0: 78d3 053e 5b95 573d 107c 41be 3f38 763f
000000e0: 5f38 edbe 28d6 40bf 9303 833f fd90 3abf
000000f0: af6d 7e3f 97e7 b1bb ecbc d7bd 7933 9fbd
00000100: 0457 7cbe 5c4a 68bf ff44 ec3e 923a b1be
00000110: 3902 5f3f c067 163f 1c1e 89be 378e 833e
00000120: 4934 24bf 5bd4 073c d667 f7be 15d5 2cbd
00000130: 2718 2cbf 0761 b1bc 5788 4b3f 794f 213e
00000140: 0f7e 7c3e 69cf 133e 2e61 ff3e 2c3f 0cbe
00000150: 1560 a3bc 157e 713f 9081 c8bd 8f1f 12be
00000160: 725d 4f3f 2d75 a6be e2ff 473e e054 78bd
00000170: 8616 43b9 3e7c 073d 894a 92bf ef6c 8c3e
00000180: 3af5 23bf 380f b7bc 9815 9f3e ccea 57bd
00000190: ac00 123f b38e e7bd a7c9 01bd 6e0c 303e
000001a0: 7206 813f 826d 193f f7b1 203f 6478 04bd
000001b0: 0546 163e 15ed 6a3d 1d3e e13d b026 543e
000001c0: e6e6 8abf 0b27 753e 852a 6abf 8eac 6bbf
000001d0: a67b 7a3d 25f6 8d3d aa43 d2be 6065 233f
000001e0: 5cc2 303f d894 ddbc 9099 c6be 8a68 aebe
000001f0: e77f e8bd 09f6 6b3e 8482 573e 92da 2c3f
00000200: a628 00be 9e1e e7be ed32 fdbe 70d7 753e
00000210: ebaf 60be ba95 aa3e 6936 c43d 9c53 8a3c
00000220: d751 48bd 684a 5abe 8418 e7be 5ad3 09bf
00000230: 7c4c dfbe 40b7 5e3e b566 133e 24cd 74bd
00000240: f062 bebc 6e1b 003f 7c25 ef3d 6041 e23d
00000250: d4ae 663e 25ab 3ebf cb2b 26bf 3197 8fbe
00000260: 8888 c73d 1102 0b3e 33de 0c3e 5a26 debd
00000270: af0d e73e e865 3cbd 7b43 b3be 42fb 08bf
00000280: db55 2a3d 3e27 a9be 2b56 b63e add6 ff3d
00000290: 7b5b 903d 4930 45bf e977 3c3e a516 b5be
000002a0: dad8 373d 413b e33e 8b3a 08bf 4553 883e
000002b0: 095a e3bd e80e b1be 6f1d a43e 87ac 46be
000002c0: 8014 a13e cafd b73e 87d8 053e 525c ab3e
000002d0: 5601 253d 3453 273e a6d7 d63e 8c04 843e
000002e0: 903a 07bf 79f5 b0be 3716 05bd 0c40 003c
000002f0: 1352 edbd ba47 043e f197 003f ad2a 203e
00000300: 709f 983d 0c59 883e 5739 b93e 9d35 20be
00000310: 7cfb 553d 0383 ccbd 3e03 b6be a85a f03d
00000320: 4fbf 2cbe b140 783e 986f 583e 47da a63d
00000330: ba60 b43e aea9 093e a7d9 e1bd 678a 43bf
00000340: dea5 eb3c 1c83 9fbd 0249 1abe 9211 37bf
00000350: 78a2 813e c8f7 323c 1ac9 153d b423 f3be
00000360: ba6b 363e 4385 9ebe 1ad5 2fbe 6225 49bf
00000370: ce8a 7f3c 3a54 d6be 7d1e 273f 1a42 54be
00000380: 0857 053f 54cd 103e 0444 1ebe 7fc3 033e
00000390: 9521 a43d 588e 373d 16dc 0fbe f494 cebd
000003a0: 3953 a6be c7bf b33d eb7f e13e 54de 0b3d
000003b0: 955b e53c 5c17 603e 8cd8 ca3d 7a77 bc3e
000003c0: ab1e c5be e26e 47be 5529 2fbe 29f4 7f3e
000003d0: 4947 e53e 155d 14bf 5b43 443e 747c 27ba
000003e0: 112e 8f3e f77e a1be 2a14 e2bd 539e ce3d
000003f0: 63b6 33be 8d03 dfbe aa97 9a3d 3613 693d

fc3.bias f4 [4]
-0.06638723 0.24269356 -0.11838838 0.0026255809
00000000: 07f6 87bd a984 783e 9b75 f2bd f011 2c3b
