checkpoint_actor_1.pth (torch, 87845 bytes, 6 tensors)

fc1.weight f4 [128, 33]
00000000: e1d6 263e c0c1 233d b3a5 ccbd df06 a53c
00000010: 6c6b acbc 296b e03c b8c3 a4bd a19a 07bd
00000020: ac55 9a3e 3564 d33d 479d 5cbd 452e bcbc
00000030: 9391 333b 5f7e 50be 6b8d 18be a494 953d
00000040: f1a3 53bd a1d9 cdbb b524 433d 75cb f03c
00000050: 7d6a 42bd 7c84 0c3d ee5c 923d 93ed 85bc
00000060: af49 08be c6fb 9dbc 443c 3c3e 8c0d edbd
00000070: eb20 063e dbe9 41bc 7157 4d3e 2c2b 60bd
00000080: 73c4 3c3f 41d8 98bd 5c63 a13c 18ca 3abe
00000090: aeaf e73c ba2c cb3b b4d8 093d 3f1f e6bb
000000a0: 0d27 6c3c d2d4 9cbd b488 16be bc3b 68bd
000000b0: e68f a13d 0509 f7bc 0fda 963c 88f5 e439
000000c0: 7c2c 123d e3e8 34bd 1576 c4ba b45d bfbd
000000d0: fb9d 00bd 5abc 023d bfa2 04bb 9590 aebc
000000e0: 37ad 383d 3ddc 723d 85f5 b2bb 28e1 2bbe
000000f0: 07ce 9bbd a3f7 24be d214 77bd 7731 af3d
00000100: d947 0dbd 105f e03f 79e8 7c3c f834 31bc
00000110: aa4a 143d adfb 313d 2a86 66bc 13be 06bc
00000120: 7e9c 353c 35bd 963d c1a6 d83d e2ac 073e
00000130: 1905 acbd b34c 2cbd 565b f8bd 4c29 57bd
00000140: 67b9 2b3d 3b42 70be 6610 54bd 8b89 a4bc
00000150: 8402 0b3c 33d8 44bd 6f1b db3d 1315 d43d
00000160: c93a 6fbd 25f9 a7bd 5829 a6bb ecb5 27be
00000170: a37e a63c 14dd bdbc 9edf 1fbe 5e9f 7ebd
00000180: b9cf f83c 5fe3 aa3d 7e81 63bf f45c 0ebd
00000190: 04b0 0dbe 2c44 f53d 00e6 43bd 23c4 6abd
000001a0: 3dcf 8cbd 92fe 26bb bada 57bc bdec ccbc
000001b0: 65cc 783d 598f 99be a207 9bbb 0aa7 25bc
000001c0: 3699 c73c 8ac4 6c3e b87e 95be ddf0 0f3c
000001d0: ea58 9fbd 2709 82bd 0f9b 1d3d 04f8 553d
000001e0: c65b 28be 2289 b13d 0735 8d3d 3284 063e
000001f0: 9863 ddbd 5908 0c3d 967e d3bd 33bf 063d
00000200: b0f8 23bc 5aa9 2d3e fd74 163b 5c81 63be
00000210: 2b53 893d acbf b53c 87fe efbd 630d 873c
00000220: cd14 d43c 50c1 2c3d bfa0 10bc f5cb df3d
00000230: 96c7 e03d 872d 5f3d 8554 9abd 8784 12be
00000240: 1032 753c edeb a13c ed2d d6bd 110c 31bc
00000250: 4571 213d ec3d 383b 73d8 a83d b1d9 fd3c
00000260: 5704 95bd 9996 c0bd dddf b53a 05f5 e9bc
00000270: 4100 33bd 1988 61bc 18b1 1c3e 767c b23a
00000280: e029 89bc 6ba8 933d 488f f13d 544e 21bb
00000290: 089f 88bf 08e7 89bd 7287 b3bc 20af af3d
000002a0: fdf1 5c3d a8f6 d5bc d819 e2bd b419 f3bc
000002b0: 015e 23be 3de4 e9bd db7f 603d ae7a d4bc
000002c0: 8f99 c73d 339c 513c 9c43 24be b703 a83d
000002d0: e899 a6bd db6f 3b3d 8980 06bd 8449 673d
000002e0: f9ef 30bd 2e8c a7be 7f53 26bd f1cb 6d3d
000002f0: f81a 5ebe b02b 253e d936 743d cde2 76bb
00000300: a39e b4bd ce0f 9f3d 273e 30bd c72c cf3d
00000310: b71a f8bc e1a7 073b 6625 05be b221 21be
00000320: 142a a73d 9476 5a3c c9d8 393c f366 863d
00000330: 18e4 49bc b6d9 1cbd 464a 8ebd 9f9e ba3d
00000340: 4a24 9b3d f350 c5bd 7521 b33d 86bd 6b3e
00000350: e7fa e8bc 7590 68bd a703 9e3b 1b43 03bc
00000360: 7ce8 2c3c 035b fcbc c7dd 153d 4481 18be
00000370: 585b 493d 952d a33d 9cb2 453d 27d9 0e3d
00000380: a8d8 83be a526 c9bd ffd0 973d ef74 babc
00000390: bf2a bf3d 5aa9 6cbc f9df d13c 568c 7e3c
000003a0: 8245 98bd 7862 a03d ed1e c8ba a103 01be
000003b0: 35ec d03d 630e 8e3d e8d1 3dbe 9e9c 423e
000003c0: 20b3 443e deb8 1bbe 7bae 73be 1beb 19bd
000003d0: b724 f73d cce4 87bd 0b21 afbd 65f0 513c
000003e0: 3ec4 69bd d221 41bd 70b9 9dbd c097 a1be
000003f0: c764 92ba eefa c43d 9357 f73c 448b 34bd
0.16292907 0.039979696 -0.09992542 0.020144878 -0.021047316 0.027394848 -0.08045143 -0.03310645
0.30143487 0.10321847 -0.05386093 -0.022971282 0.0027400001 -0.20360707 -0.14897697 0.073037416
-0.05167002 -0.006282047 0.04764243 0.02939389 -0.047464836 0.034306034 0.07146631 -0.016348636
-0.13309358 -0.019285094 0.18382365 -0.115748495 0.13098495 -0.011835541 0.20052887 -0.054728672
0.7373726 -0.07463122 0.019700699 -0.18241155 0.028282013 0.0062004 0.03365393 -0.007022768
0.014413607 -0.0765778 -0.14700586 -0.056697592 0.078887746 -0.030155668 0.018414525 0.00043670484
0.035686955 -0.04416741 -0.0014988804 -0.09344044 -0.031400662 0.031917907 -0.0020238606 -0.021309176
0.045087066 0.059292067 -0.005461397 -0.16785109 -0.07607656 -0.16110091 -0.06032259 0.085543565
-0.034492347 1.7529011 0.015436285 -0.010815851 0.036204018 0.043452907 -0.014070073 -0.008224028
0.011084674 0.07360307 0.10578681 0.13249543 -0.0839941 -0.042065334 -0.12126796 -0.05252962
0.04192486 -0.23462765 -0.05177345 -0.020085117 0.0084844865 -0.048057746 0.10698592 0.10355582
-0.05840567 -0.082018174 -0.0050708465 -0.16377991 0.020324057 -0.023176707 -0.15612647 -0.062163703
0.030372487 0.08344149 -0.88869464 -0.034756616 -0.13836676 0.119758934 -0.047826767 -0.057315957
-0.06875465 -0.0025481326 -0.013174707 -0.02501523 0.0607418 -0.29992178 -0.0047311345 -0.010110626
0.024365049 0.23121849 -0.2919824 0.008785454 -0.07780631 -0.06349402 0.038477954 0.05223848
-0.16441259 0.08668734 0.0689488 0.13136366 -0.108100116 0.03418765 -0.10326879 0.032897186
-0.010008022 0.16959134 0.0022957914 -0.22217315 0.06705316 0.022186123 -0.11718469 0.016485875
0.025888825 0.042176545 -0.008827387 0.109275736 0.10975568 0.054486778 -0.07535652 -0.14308368
0.014965549 0.019765818 -0.104579784 -0.0108060995 0.039414663 0.002811308 0.082444094 0.030987592
-0.072762184 -0.09403724 0.001387592 -0.028559217 -0.043701414 -0.013765358 0.15301931 0.0013617415
-0.0167436 0.072098576 0.11794907 -0.0024613338 -1.0673532 -0.06733519 -0.021915171 0.08578324
0.053941716 -0.026118591 -0.110400856 -0.029675342 -0.15953828 -0.11420486 0.054809432 -0.025937404
0.09746086 0.012793588 -0.16041416 0.082038336 -0.08134824 0.04576097 -0.032837424 0.056466594
-0.043197606 -0.32724136 -0.04060697 0.05805582 -0.21689975 0.16129947 0.05962262 -0.0037671805
-0.0881932 0.077666864 -0.043028023 0.101159625 -0.030286176 0.002069943 -0.13002548 -0.1573551
0.08162323 0.013333935 0.0113431895 0.06562605 -0.012322448 -0.038293563 -0.0694776 0.09112286
0.07575281 -0.096345805 0.08746616 0.23021516 -0.028439952 -0.05677839 0.0048222127 -0.008011605
0.0105534755 -0.030805117 0.036588456 -0.14893061 0.049159378 0.079676785 0.04826604 0.03487506
-0.25751233 -0.09821824 0.0741291 -0.022760836 0.09334325 -0.014444673 0.025619494 0.015536388
-0.074351326 0.078312814 -0.0015268006 -0.1259904 0.10201303 0.06936338 -0.18537104 0.19005057
0.19208956 -0.1520724 -0.23797028 -0.03757773 0.1206755 -0.066354364 -0.08551224 0.012813662
-0.057071917 -0.047151394 -0.07701385 -0.3156109 -0.001116895 0.096181735 0.030193126 -0.044078127

fc1.bias f4 [128]
00000000: 7eb3 bb3c f2ea 67bc 666a 193e dc09 293e
00000010: 65ac 8f3d c503 e6bd 4c81 7c3e 022b 82be
00000020: 6620 e9bc 0a47 b93c 8772 d8bc eb6b 8a3b
00000030: 975e d9ba 3a95 01be b2ca 493e ff56 82be
00000040: 77b8 2f3e da93 82bd 48e8 a73d d225 863d
00000050: 3cc2 863c fd48 6b3d ffe8 763e 4bd2 dcbd
00000060: 39bb eb3d a7fb d4bd 1e25 b63c ec1c 1c3e
00000070: ab64 b3bd 0efa 883e 7600 50bd cb1a b2bd
00000080: b1a8 073e 34b3 243e 98ce ad3d ea7e 853e
00000090: 08b3 213e a2c2 6ebe e8ea e63c 3078 f03d
000000a0: b787 113d 3e6e 883d a12d 0b3d 6d2c 313e
000000b0: e2da aabd 23de 05bd 23e3 093e e987 1c3d
000000c0: 7b05 443b 8c05 92bd c2e6 31be 6fc2 f73d
000000d0: 53b7 363e f624 223c 299f 6ebe 9fb1 763e
000000e0: b710 2c3d cbd3 01be 2c39 183d 6d0e e0bd
000000f0: 32b7 233e e76c 9a3d de94 f73d 8dc7 593e
00000100: c9bc 463d b5e2 f6bd 36a4 99bc 2ba4 173e
00000110: 7101 323d cbe4 0f3d e06c 763d 8f37 eabd
00000120: 1a26 1c3e d126 8c3e 1248 bebd 35e5 9a3d
00000130: 0485 8e3d a8bc 54bc 91af b3bd 04bc 25be
00000140: 2393 e73c 0fed 02bd be2d 743d c046 af3c
00000150: 3364 e13d e0a0 b5be 0c6b 5a3d 4565 35be
00000160: 7edf 023d b8cd 463e 9cc6 ffbd a8c0 f1bd
00000170: d9b9 803d 2258 a93e 33ce 3dbe 9c25 5e3c
00000180: ce56 6d3d 06fe e63c e3e9 533e 69c2 a73e
00000190: 8a58 1f3e a09d cf3d 249b a03c 32a8 77bc
000001a0: 2e31 253e 754e 0c3e eb18 3dbe d1a6 82bd
000001b0: 825f 263e ce9c 773e 8b7e c53d 5867 ea3d
000001c0: d002 22be 7cc9 eabc b74f 4f3e 686c 953e
000001d0: 5a70 e0bd 451b 123e d7da ac3e d719 d2bc
000001e0: dc64 373e 7074 e73d 7bcf a2bc e3e0 4b3e
000001f0: 01c7 f93c e08e db3d 3c1a 67bd 1f93 1f3e
0.022912737 -0.014155136 0.14981994 0.16507667 0.070153035 -0.11231188 0.24658698 -0.25423437
-0.028457832 0.022616882 -0.026421798 0.0042242906 -0.0016583976 -0.12654582 0.19706228 -0.25456998
0.17160212 -0.06375857 0.08198601 0.065501824 0.01645004 0.057442654 0.24112318 -0.10782298
0.11510319 -0.103995614 0.022234496 0.15245408 -0.08759435 0.26753277 -0.05078169 -0.086965166
0.13247944 0.16083986 0.0848667 0.2607339 0.15790951 -0.23316434 0.028188184 0.11741674
0.03552982 0.06661652 0.033979062 0.17302103 -0.0834253 -0.03268255 0.13465552 0.03821555
0.0029910493 -0.07129964 -0.17373183 0.12097632 0.1784337 0.0098965075 -0.23302902 0.24091195
0.042008128 -0.12678449 0.0371639 -0.109402515 0.15987852 0.07540303 0.12088941 0.21267529
0.048519883 -0.1205496 -0.01875506 0.14808719 0.043458406 0.035130303 0.060162425 -0.11436378
0.1524891 0.27373365 -0.0929109 0.07563249 0.069589645 -0.012984432 -0.08773721 -0.16185004
0.028268402 -0.031964358 0.059613936 0.02139604 0.110054396 -0.354743 0.053324744 -0.17714413
0.03195142 0.19414413 -0.124890536 -0.118043244 0.062854476 0.33075052 -0.1853569 0.013558771
0.05794411 0.0281973 0.2069469 0.3276551 0.15561119 0.101374865 0.019605227 -0.0151157845
0.16132042 0.13701804 -0.18466537 -0.06379474 0.16247371 0.2418091 0.09643277 0.114454925
-0.15821385 -0.028660528 0.20245253 0.2918427 -0.10958929 0.14268215 0.33760712 -0.025647087
0.17909569 0.113015056 -0.019874325 0.19910006 0.0304904 0.107206106 -0.056421503 0.15583466

fc2.weight f4 [128, 128]
00000000: 2086 4cbd 4249 96be 6eea 30bd 360e cc3d
00000010: 83d5 bc3c a791 00be de47 be3d 50a0 433d
00000020: a96e c7bc 41fc aa3c a68e 0f3e f324 47bc
00000030: 5ad0 d63d bd42 a4be b291 a4be ec7a 01be
00000040: 8cf7 8abe bd5d 1d39 1f22 4abe ac37 d13c
00000050: 082e aa3b 245e 303d 7f42 7bbd 0111 f0bd
00000060: 2f37 c2bd df32 adbd 2361 353d b08c 6c3e
00000070: d729 cbbb 2ebd a43c f26b 25bc ddd2 53be
00000080: b585 f53d a519 c13d a4bd 71bc b1ff 053c
00000090: d5f8 3bbd 17cd 52bd bada afbd 39df fe3c
000000a0: be27 e7be ab7e 3fbd a816 5b3d 8c13 b33d
000000b0: 4d58 80bd b7cd 2c3d 4914 84be 01e5 85bd
000000c0: b275 f43d a837 a1be 3128 82be 6a48 233e
000000d0: c72b 8ebe 05f5 f33d 3194 6a3e 97de 7c3c
000000e0: a09d 0d3e 9266 443e 3092 1fbd d438 80bd
000000f0: 204f 393e 0291 d8bd 7014 f43d 8ba9 413b
00000100: 3650 3a3e 4839 3c3e e448 e83d bd43 a4bd
00000110: dcc1 ac3d d199 a83d 965f c43d 35ef 623d
00000120: a6e2 e8bd ad8c 39be 3ba5 8dbd 17d6 ff3d
00000130: 40b1 dc3c 379a ce3d 213c 043e f335 41be
00000140: 5d72 c63d 8986 53be e388 1a3e 0bdc 0f3d
00000150: c480 dabd 7bed 8e3e cf28 90bd e5be 4d3e
00000160: a316 a6be 4766 c2bd bd46 15bf b561 66bc
00000170: 0db8 e6be 9f81 1cbe d6e2 973e c949 5c3d
00000180: 6b1e 363e ca14 813d 576a 3cbe bcf0 233e
00000190: e277 1e3d 562f 4bbd 6f5d c4be c62b b1bd
000001a0: bc69 c63d 3b5e 2c3d 4cc7 31bf 3ed8 de3d
000001b0: 2c30 0c3d 833d a33d 0062 ee3d 7b5d 0bbe
000001c0: 1445 a23b 9384 9cbe 2969 c73d 1dca c53d
000001d0: 8903 48bf 87f0 163d e323 813d 9baa b73d
000001e0: 9175 893e 3378 6f3e 5bad bd3d 21b2 07bc
000001f0: 659e e1be 6234 6dbc ce56 1bbd 6fcb 20bc
00000200: 169f 10bf 03fc fa3d a6bb b6bd 4224 0dbe
00000210: 0803 8bbd 990f b4bd c917 ecbd ab3c b9bc
00000220: bcae 34be 18e1 0db9 ca2c 5d3c 1612 2cbd
00000230: 543a 94bd cb94 9c3d 0373 8f3c 5622 c4bc
00000240: a691 b73d 4f5e a3bc db46 25be 6cee dfbd
00000250: e8ad 113d 2f7c 0ebe f8fe 5c3d 8c32 46ba
00000260: 99a8 073e 8f6a 88bd 33f3 713e ea79 aebc
00000270: 49c0 cb3d 8aec 653e 024a 8f3e 9f56 7f3c
00000280: d805 c1bd 8394 49bd 3e3f 6dbd c899 29be
00000290: 320d 553c 6b2d 44be ed1b 373e 8277 92be
000002a0: 7987 693c 4bb1 74bd 7056 0c3e abce 42be
000002b0: 1a80 3d3e 7dec c93d e51d 91bc 3e4e 49be
000002c0: 5fe5 fa3d 505d 713d 9ace 473e e98e 5dbe
000002d0: 8aab bf3c ae0e 0c3e 26d3 44bc 12e6 d03e
000002e0: 2a0a 2dbd 1377 26bd 2855 24be 930d 853e
000002f0: a742 8a3d 8b97 56be 76a3 183e ba49 7dbd
00000300: f7f5 ac3d 15fd 2fbe 0c3d c73d f6fa 4bbe
00000310: 2db6 123d 027f 33be c3da f33d 1052 b8bd
00000320: 643e 583d 88fe 6abd 5bcd a7bd 6a3b c33d
00000330: 1a5a 723d 37e2 2e3d e925 3fbe 1837 45bd
00000340: abfd ffbc 45e2 883d 2aec 13bf e691 65bd
00000350: 3eac e2bd 92d2 01bd bbf8 593c 12e1 e63d
00000360: 64f6 843d 23ca 67bd 30bb c63d 724c 1b3e
00000370: 011f 4b3e 6662 b93e 6a77 76bf 3753 063d
00000380: ac71 763a 3d9b 8e3d ade8 f43d 9ee8 bdbd
00000390: 04fb 373c c0c2 9d3e 5f3d c43d f5c5 95be
000003a0: 3347 9cbe 1687 a8bc ad55 c73c 950e d1bd
000003b0: 2a56 a53e d487 86bd 3bd5 6f3e 2fef 9f3d
000003c0: 1f2f a8bd 91ea 8bbc 9b18 d03d cd79 c2bd
000003d0: af20 c83e 72de 473d 2451 f93d 6ade 0f3c
000003e0: 7e2e 05bc dcf1 453c 7cb4 5b3e 0409 f0bd
000003f0: 7b47 663e add6 6ebc 008b 163e 8a06 9b3a
-0.0499326 -0.29352766 -0.04319232 0.09963648 0.02305103 -0.12555562 0.09291051 0.047760308
-0.024344759 0.020872237 0.1401926 -0.0121548055 0.10488959 -0.32082167 -0.32142407 -0.12644547
-0.27141988 0.00015007607 -0.19739579 0.025539242 0.0051934756 0.04305853 -0.061342712 -0.11721993
-0.09483182 -0.084569685 0.04428209 0.23100543 -0.006200056 0.02010974 -0.010096537 -0.20685907
0.11988393 0.094287194 -0.0147546865 0.008178637 -0.0458916 -0.05146512 -0.08586641 0.0311123
-0.45147508 -0.04675166 0.053488404 0.08743963 -0.06266842 0.042188372 -0.25796726 -0.0653782
0.11936511 -0.31487775 -0.2542129 0.15945593 -0.27767774 0.11911968 0.22908093 0.015433929
0.1382966 0.19179752 -0.038957775 -0.06260839 0.1809659 -0.10574533 0.11917961 0.0029550518
0.1819466 0.18381226 0.11342028 -0.080207326 0.08435413 0.08232463 0.09588544 0.055403907
-0.11371355 -0.1812007 -0.06916281 0.12492006 0.026939988 0.10088008 0.12913562 -0.18868236
0.09689782 -0.2065679 0.1509128 0.03512196 -0.10669091 0.27915558 -0.070390336 0.20092352
-0.32439145 -0.09492164 -0.58311063 -0.014061381 -0.45062295 -0.15283822 0.2966525 0.053781305
0.17785041 0.06302793 -0.1839994 0.16009802 0.038688548 -0.04960569 -0.38352534 -0.08650927
0.09688136 0.042082053 -0.6944473 0.10881089 0.034225628 0.07970717 0.11639786 -0.13609879
0.0049520824 -0.30569896 0.097368546 0.09657691 -0.78130394 0.03685048 0.06305673 0.08968087
0.2684751 0.23385696 0.092615806 -0.008282215 -0.44066158 -0.014477821 -0.03792458 -0.009814127
-0.56492746 0.12255099 -0.0892251 -0.13783363 -0.067876875 -0.087920375 -0.11527974 -0.022611937
-0.17644781 -0.00013530662 0.013499448 -0.042009436 -0.07237688 0.076455675 0.017510897 -0.023942154
0.08963327 -0.01994243 -0.1614031 -0.10934147 0.03556624 -0.1391456 0.053954095 -0.00075606327
0.13247909 -0.066609494 0.2362793 -0.021298368 0.09948785 0.22453514 0.2798615 0.015584617
-0.09424943 -0.049213897 -0.05792164 -0.16562569 0.013003634 -0.1915795 0.17881747 -0.28606802
0.014253491 -0.059739392 0.13704848 -0.1902415 0.18505898 0.0985956 -0.01771445 -0.19658753
0.1225078 0.05892688 0.19512406 -0.21636547 0.023397226 0.13677475 -0.012013232 0.4080053
-0.04224602 -0.0406409 -0.1604811 0.2598692 0.06750994 -0.20956247 0.14906105 -0.06183789
0.084453516 -0.17186387 0.09728441 -0.19919953 0.035818268 -0.17528918 0.1190696 -0.09000027
0.052793875 -0.057371646 -0.08193465 0.09532817 0.05916796 0.042696204 -0.18666805 -0.048148245
-0.031248888 0.066837825 -0.5778223 -0.056047343 -0.11068009 -0.031694956 0.013303931 0.112733975
0.06492308 -0.056589257 0.09703672 0.1516588 0.19836046 0.36207885 -0.9627596 0.032794204
0.00094010937 0.06963203 0.11958442 -0.09272884 0.01122928 0.30812645 0.09582018 -0.29252592
-0.3052307 -0.020572226 0.024332846 -0.102078594 0.322923 -0.06568876 0.23421185 0.078092925
-0.08212113 -0.017079623 0.10160943 -0.09495888 0.39087436 0.048796125 0.121736795 0.008781055
-0.00812876 0.01208159 0.21455568 -0.117204696 0.22488205 -0.01457755 0.14701462 0.001182751

fc2.bias f4 [128]
00000000: fa91 5e3e dc70 ff3d 4fb2 113d e810 1d3d
00000010: 57eb 923d 43a6 e73d e27d e13d c783 463d
00000020: 058c 673d 2c8c 293e b095 ec3a 24d3 7b3d
00000030: 4e91 1bbe 22b8 ba3c 6cdd 87bc 42d5 06be
00000040: 8073 083e 0aae 82bc 48c7 e7bc 3e20 fd3c
00000050: b42a bb3a a1f2 d7bc bca6 22bd 48ee 7a3c
00000060: db8d e33d 50ba f43c c899 60bc 0f34 14bc
00000070: fb17 62bd 2adf 3ebd 88a0 85bd 3caf d93d
00000080: 0655 ad3d dd50 973d 4046 7ebd 639b 3b3d
00000090: ce69 ce3d cf07 a93c 8ab7 37bd f82c 8dbd
000000a0: ae81 073d 8575 db3d 4707 cc3c 3e7a 973d
000000b0: 02c6 253d 661b 03ba 5e6b 2d3e 2f98 adbc
000000c0: 147d a7bc 93b5 55bd bdb8 223e 0ea5 ab3d
000000d0: da95 3cbd 1217 a4bc d403 aa3d 904f d8bd
000000e0: d77b 59bd 7c28 793d ec9c 273d 6dde ae3d
000000f0: 05aa 2ebd 79fa ae3d db46 873d c255 0d3d
00000100: b055 c23d 39af a1bd 6fe3 563d 12bd a6bc
00000110: 1439 253d f7da 19bd 4650 d4bd 3f97 9bbd
00000120: 6e6f a1bc 380d 513c 6b50 8bbd f07a 9f3d
00000130: 477e 0f3d 5212 be3d 1f9b 82bc dec0 54bc
00000140: 1277 cabb 7953 31bd da9d 683d cd4a 683d
00000150: 6f06 b2bd f282 0abe 113e 003c b9e7 3bbd
00000160: 9956 b23d 75d1 5a3d f858 b03d aa5a 2c3d
00000170: 631f 55bd 0e4d 183d f65e e7bd f9b5 74bd
00000180: a576 edbc e5b4 863d 1df2 aebd 6f17 c43d
00000190: 8c7c 5dbb 634d 70bd 42f1 03be 1bc6 303d
000001a0: aa0d ab3d 3b97 15bd ad75 013e f495 7cbb
000001b0: a711 0f3d 5b9c 703e ea3c 4c3d 7bb3 0b3d
000001c0: de79 963c cb0a 603e 9e44 85bd cbb7 173e
000001d0: 57a9 5e3c f9ca 0e3b b3a3 95bd be35 4b3d
000001e0: 3797 b9bc c527 83bd a8b3 04bd 998f b03d
000001f0: 889c bfbd b258 823d 686a c9bd 7bd3 143d
0.21735373 0.12472698 0.03557044 0.0383462 0.07173794 0.11311009 0.11010338 0.048465516
0.056530017 0.16557378 0.0018049981 0.061480656 -0.15192148 0.02279288 -0.016585074 -0.13167289
0.1332531 -0.015952129 -0.028293267 0.030899163 0.0014279694 -0.026360812 -0.03970979 0.0153156
0.11111041 0.029873997 -0.013708539 -0.009045615 -0.05519865 -0.046599545 -0.065247595 0.106291264
0.084634826 0.0738847 -0.062078714 0.045802485 0.100787744 0.020633606 -0.04485277 -0.06893343
0.033082657 0.107157744 0.024905814 0.07396363 0.040472038 -0.0005001336 0.16935489 -0.02119073
-0.020445384 -0.052175116 0.15890785 0.08381091 -0.046041347 -0.020030532 0.083015114 -0.1056205
-0.05309662 0.060829625 0.040921137 0.08538518 -0.042642612 0.085438676 0.066053115 0.034505613
0.09489 -0.07894749 0.05246299 -0.020353828 0.040337637 -0.037562337 -0.103668734 -0.07597207
-0.019706454 0.012759499 -0.06802448 0.0778712 0.035032537 0.09280838 -0.015943108 -0.012985436
-0.006178745 -0.043292496 0.056791164 0.05671196 -0.08692633 -0.13526514 0.007827298 -0.045875285
0.087079234 0.05342241 0.086107194 0.04207865 -0.052031886 0.03718286 -0.11297409 -0.059743855
-0.028987238 0.06577472 -0.08542273 0.09574782 -0.003379616 -0.05866755 -0.12885001 0.043157678
0.083522156 -0.036521178 0.12642546 -0.0038541527 0.034928944 0.23497145 0.04986278 0.034106713
0.018368658 0.21879117 -0.06507228 0.14816205 0.013590178 0.0021788462 -0.07306614 0.0496118
-0.022655113 -0.0640407 -0.032397896 0.08621139 -0.09356028 0.063645735 -0.098347485 0.036334496

fc3.weight f4 [4, 128]
00000000: be07 6d3e d899 023f 1e5e e3be d1af 37bd
00000010: f8bf c53e e02e aabd ac3d 87be ec12 61be
00000020: d936 c1bd c079 bdbe 89f7 96be 94c4 3ebe
00000030: 4d3a 5cbe db00 62be fb6f 503e b874 40bd
00000040: 21f6 6bbe a28d 7c3d 4c2d 2abe 7946 7ebe
00000050: fda0 003e 6571 9d3d 0cae d6be 8b6d 383e
00000060: 307a 143f 8ced 553b a6ea 863e 691d 1fbf
00000070: fe2c 7c3f 8fc7 d8be fe70 8b3e 7324 28be
00000080: 82ac 6dbd b887 3abf f55c 95bd d843 be3c
00000090: 1cfe 1cbe 55cb 96be 0324 4dbe f1f8 81be
000000a0: 4e59 3fbd b1cd ebbd 4f72 7dbd 5831 68be
000000b0: b0af 6f3e afcf 2fbd c63a 82be ea10 aa3c
000000c0: 2456 e93d 8799 69bd e689 70bd 6094 df3e
000000d0: 9ce2 d13d 2e7b f03b 315c 57bd b0ae d13e
000000e0: e84a 23bc 650f 66be 2203 563f 4e40 e2be
000000f0: dda9 473f f94d 9bbc 3121 d9bc 67aa 2ebd
00000100: 3523 37be 7243 06bf 501f 023e 469f ddbd
00000110: 72d9 c83e 2cfd fc3e 06a1 ebbd 898f a43e
00000120: bea5 9cbe 22a5 d4bd 7a80 80be 2a3f 36bd
00000130: 611e 06bf 40f3 c6bc 6cb1 bf3e a37a 0ebe
00000140: eae0 7d3e 8292 e43d 02fd 0d3e cce9 ecbd
00000150: 823f d9ba 115f 2e3f a263 01be 29f9 f23b
00000160: 39a9 9e3e 1574 ebbe 6c33 033e ccb1 053e
00000170: b0d3 fcbd 9413 11bd 3087 89bc 0c5b 293e
00000180: 08a8 9dbe 05ad f3bd b664 683e d93c 82bd
00000190: 9033 bf3e 773c f4bd 5492 64bd f17c b93e
000001a0: 530b 693e 3704 973e 58da 4f3e 7067 99bc
000001b0: c252 953d 3d88 8dbc 1767 0b3e 222a 6e3e
000001c0: 5a4b cebe 58b7 4d3e 79b9 80be ccbc a6be
000001d0: 1039 8a3c 517f 5c3d 13d8 00be 0474 c73e
000001e0: c6b9 c03e d15d e8bd dab4 a5be 4363 afbe
000001f0: 58e7 d8bc cae8 2c3e 0bb7 343d 43b1 3f3e
00000200: cc86 8f3c 4617 85be 6758 2ebe ce61 7fbc
00000210: d8a4 7abe 118a 573e 35e7 6dbb 7eaf 083c
00000220: 59a7 2cbd 1f90 9fbe 9865 fbbe 24be 2bbe
00000230: 848d 07bf a74e 233e f70b be3d 4bf4 f3bd
00000240: a597 003d 3d49 603e e6f1 123e 7308 aabc
00000250: 5f28 563e 7f37 a4bc e936 25bf aa29 403e
00000260: db17 e63c 3feb 0d3d 726c 5ebe e2d8 99be
00000270: 35f3 bb3e 7a61 873d fb09 f0be fabd 13bf
00000280: 5815 af3d 7ad5 0ebf 1135 673e 02bc 073e
00000290: 6d28 0d3d 803c f5be 9f98 903c 61b9 e9be
000002a0: f0d3 ae3d d27a 043c d485 c5be 0bca 8a3e
000002b0: 7f46 58be 68fd 70bc 69f1 6e3e ebc3 a8be
000002c0: a32e 9f3e d075 a6bc 6bb7 fc3d b92a 0f3e
000002d0: 11c5 c6bd 6923 1b3e 209e 543c 8c09 54be
000002e0: 48b1 12bf 1bda 1cbe b253 6bbe ee26 adbd
000002f0: 4be1 993d afa2 f83d 4f15 fb3d 1968 113d
00000300: fe1c f739 906a b33e 999f 053e 7f31 abbc
00000310: 0540 263e 5372 45be 0507 abbe 28a5 ec3d
00000320: d444 82be 451e 543e 2212 373e e68b d03d
00000330: c4d8 56be 5170 033e 562d 053e 5e43 54bf
00000340: 4495 e9bc 6785 0c3d 61fc bbbd bce8 30bf
00000350: 6ab4 0e3f 2f23 3cbd b84b 673d 6c8f b8be
00000360: a7ed 373d 1d1d a9be cd1b 52be 5ffd eebe
00000370: ed6b 5e3e 8590 bdbe a2ba bd3c 0447 94be
00000380: a174 703e a0e7 0c3e 13c2 7cbe 4df5 fe3d
00000390: 6974 043e 41e4 c63b a1eb ba3d 436a 903e
000003a0: 998c e8bd 1ac4 873d b495 113e 616c 693e
000003b0: 1339 943d 6046 483e f2f7 fe3d 85ae 773e
000003c0: 18f7 1ebe 06b9 5c3a e5a4 d0bd d4d0 4f3d
000003d0: 60f0 ce3d 33f2 fcbe be19 843d 7e27 163e
000003e0: 5a2e 273e 4133 273e 9360 d0be 3b64 c53c
000003f0: f343 31be f085 0fbf bfb9 af3d 7efa 943c
0.23147485 0.51015997 -0.44407743 -0.044845406 0.38623023 -0.08309722 -0.2641424 -0.21979874
-0.094342895 -0.3700695 -0.2948573 -0.18629676 -0.21506615 -0.22070639 0.20355217 -0.04698631
-0.2304311 0.06165851 -0.16618842 -0.2483157 0.12561412 0.07687644 -0.41929662 0.18010537
0.57998943 0.003264281 0.26350898 -0.6215425 0.9850615 -0.4233975 0.27234644 -0.16420154
-0.058025844 -0.7286334 -0.07293121 0.02322571 -0.1533131 -0.29452005 -0.20033269 -0.2538524
-0.046716027 -0.11513842 -0.06187659 -0.22675073 0.23406863 -0.042922672 -0.25435466 0.020760018
0.11393383 -0.05703118 -0.05872526 0.4366789 0.102483004 0.007338903 -0.052578155 0.40953588
-0.0099665895 -0.2246681 0.8359853 -0.44189686 0.77993566 -0.018958079 -0.026505085 -0.042642977
-0.17884524 -0.52446663 0.12707257 -0.108213946 0.39228398 0.49411905 -0.11505322 0.3214076
-0.305952 -0.10383059 -0.2509802 -0.04449383 -0.52390105 -0.024285913 0.3744005 -0.1391397
0.24792829 0.11160757 0.13866046 -0.11568031 -0.0016574713 0.6811381 -0.12635663 0.007414956
0.30988482 -0.45987 0.12812585 0.13056105 -0.12345064 -0.03541906 -0.016788095 0.16538638
-0.3079226 -0.11898235 0.22694668 -0.06359262 0.37344027 -0.11925595 -0.055803612 0.36228135
0.22758226 0.29495403 0.20298135 -0.01872608 0.072911754 -0.017276878 0.13613544 0.2325826
-0.40291864 0.20089471 -0.25141504 -0.32565916 0.016872913 0.053832356 -0.12582426 0.389557
0.37641734 -0.11346019 -0.3236454 -0.34255418 -0.0264775 0.16885677 0.044119876 0.18719964
0.01752033 -0.2599432 -0.1702591 -0.015587283 -0.24476945 0.21048762 -0.003630114 0.008342622
-0.042151783 -0.31164643 -0.49100947 -0.16771752 -0.5295031 0.15947972 0.09279626 -0.119118296
0.03139462 0.21902938 0.1435009 -0.020755982 0.20913838 -0.020045994 -0.6453691 0.18765894
0.028087547 0.034648176 -0.21721056 -0.3004828 0.3670899 0.06610389 -0.46882614 -0.57711756
0.08548993 -0.5579449 0.22578837 0.13255313 0.03446238 -0.4789772 0.0176509 -0.45649245
0.085365176 0.008085923 -0.38578665 0.27107272 -0.21120642 -0.014708854 0.23334278 -0.32961974
0.31090268 -0.02031985 0.12339672 0.13981141 -0.09705556 0.15150227 0.012977153 -0.20706767
-0.5730176 -0.15317576 -0.22981146 -0.08454691 0.07513674 0.121404044 0.12259924 0.035499666
0.00047133112 0.35042238 0.13049163 -0.020897625 0.16235359 -0.19281892 -0.33403793 0.115549386
-0.25443137 0.20714672 0.17878011 0.101829335 -0.20981127 0.12835814 0.13005576 -0.82915294
-0.028513558 0.03430691 -0.09178997 -0.69105124 0.5574404 -0.04593199 0.056468695 -0.36046922
0.044904377 -0.33030024 -0.20518418 -0.46677682 0.21720858 -0.37024322 0.023160283 -0.2896043
0.2348199 0.13760233 -0.24683408 0.12449131 0.12935032 0.0060696905 0.09126974 0.2820607
-0.11354942 0.066292 0.14217263 0.2279525 0.072374485 0.19558096 0.124496356 0.24187668
-0.15523946 0.00084199046 -0.10187701 0.050736263 0.10104442 -0.49403533 0.064502224 0.14663503
0.16326275 0.16328146 -0.4069868 0.024095645 -0.17311077 -0.5606375 0.0858035 0.01818585

fc3.bias f4 [4]
00000000: 5702 d2bd 9990 4a3e f084 90bd 3b32 c33c
-0.102543525 0.19781722 -0.07056606 0.023827663
