checkpoint_actor_final.pth (torch, 87909 bytes, 6 tensors)

fc1.weight f4 [128, 33]
0	0x3dec5bd1	0.1154095
1	0x3d27b41a	0.040943243
2	0x3c76b8c4	0.0150587
3	0x3dfbb9e6	0.12291317
4	0xbde07aee	-0.10960947
5	0x3d1e75bb	0.038686495
6	0xbe9effa6	-0.3105442
7	0x3d20a281	0.039217476
8	0x3e84f572	0.2596851
9	0x3e247138	0.16058815
10	0x3d01dff8	0.031707734
11	0x3dd71c7d	0.105034806
12	0xbe1f1336	-0.15534672
13	0xbeca0b9c	-0.39461982
14	0xbd868c1f	-0.06569695
15	0x3e2eee36	0.17083058
16	0xbd16ac5f	-0.03678548
17	0xbd4079bc	-0.046991095
18	0x3c258916	0.010103485
19	0x3d948338	0.072515905
20	0x3e023045	0.12713726
21	0xbd06d37b	-0.032916527
22	0x3dccf16a	0.100069836
23	0xbe2f9718	-0.17147481
24	0xbdd3deea	-0.10345252
25	0x3dcc3ad9	0.09972162
26	0xbd124b69	-0.035716448
27	0xbd7ff859	-0.062492702
28	0x3e3b0b74	0.18266088
29	0xbc41e9db	-0.011835541
30	0x3e16cf3d	0.14727493
31	0xbd602b2c	-0.054728672
32	0x3f54d0a4	0.8313086
33	0xbddeeb1f	-0.108846895
34	0xbd8f481e	-0.06996177
35	0xbe2d6921	-0.16934635
36	0x3b4388e4	0.0029836232
37	0xbd7bb18f	-0.06144863
38	0xbd0ecadc	-0.03486143
39	0xbc56c52a	-0.013108531
40	0xbd75a6c5	-0.059973497
41	0xbe8c47f3	-0.27398643
42	0xbe805bff	-0.25070187
43	0xbc5ed710	-0.01360108
44	0x3cc47c80	0.023985147
45	0xbd7d4d23	-0.06184114
46	0x3dda986b	0.10673603
47	0xb99c3326	-0.00029792747
48	0x3e0f2a85	0.13981064
49	0xbdc146da	-0.09437342
50	0xbbf27b87	-0.0073999795
51	0x3d27f1d3	0.041002106
52	0xbd9b3dc2	-0.07580139
53	0x3d935ff0	0.07196033
54	0xbc551d89	-0.01300753
55	0x3cd5dc03	0.026105886
56	0x3d0a9f9c	0.03384362
57	0xbaaa8729	-0.0013010252
58	0x3d700da2	0.05860675
59	0xbe423a09	-0.18967451
60	0xbdae6c26	-0.085167214
61	0xbe304449	-0.17213549
62	0xbd7714d2	-0.06032259
63	0x3dc1cf85	0.09463409
64	0xbd0d47d9	-0.034492347
65	0x3fe70670	1.804884
66	0x3d4b799d	0.049676526
67	0xbdccf5ab	-0.10007795
68	0x3c995d9e	0.018721398
69	0xbd223582	-0.03960181
70	0xbd84633b	-0.06464239
71	0xbcb6ebe2	-0.022329275
72	0x3ba5ba2d	0.0050575943
73	0xbc5dc1bb	-0.0135349585
74	0x3df5041b	0.11963674
75	0x3cbf92d4	0.023385443
76	0xbcff411b	-0.031158974
77	0xbcdeca2c	-0.027196012
78	0xbe122b23	-0.14274268
79	0xbde939c6	-0.113879725
80	0xbd314192	-0.043275423
81	0xbe751ee6	-0.23937568
82	0xbc049a2c	-0.008093398
83	0x3d2c921d	0.042131532
84	0xbd09dc06	-0.033657096
85	0xbd8ff72d	-0.07029567
86	0x3dabb4ed	0.08384118
87	0x3c9cd437	0.01914416
88	0x3c6e1d90	0.014533415
89	0x3bfaf678	0.007658776
90	0x3cd6b581	0.026209595
91	0xbe0d1ffb	-0.13781731
92	0xbda72d97	-0.081629924
93	0xbdeb088d	-0.1147624
94	0xbdeb75c1	-0.11497069
95	0xbd7e9f5e	-0.062163703
96	0x3df9c4ea	0.121957615
97	0x3daae35f	0.08344149
98	0xbf541361	-0.8284207
99	0x3cc15083	0.023597961
100	0xbe4feef1	-0.20305993
101	0x3e4f6137	0.20251928
102	0x3d48d842	0.049034365
103	0xbcb3a9cf	-0.021931557
104	0xbdb50ea6	-0.088406846
105	0x3d43068a	0.047613658
106	0xbd894787	-0.06703096
107	0x3e2a7ea5	0.16649874
108	0x3d0ad4ac	0.033894226
109	0xbe7420bb	-0.2384061
110	0xbd384b29	-0.044993553
111	0x3d04afab	0.032394093
112	0x3d9698ce	0.07353364
113	0x3e736a74	0.23771077
114	0xbe90479b	-0.2817963
115	0x3dc901c3	0.09814789
116	0x3d578ed0	0.05262643
117	0xbd8882cf	-0.06665575
118	0xbd783d0e	-0.0606051
119	0x3d3cbd65	0.04607906
120	0xbe12cf83	-0.14336972
121	0x3ccf8c9e	0.025335606
122	0x3e4b8356	0.1987432
123	0x3e36dafb	0.17856972
124	0xbd1baece	-0.038008504
125	0x3dbffe9b	0.09374734
126	0xbe496eed	-0.19671221
127	0x3e4f21c7	0.20227729
128	0xbc23f8b0	-0.010008022
129	0x3e86ac53	0.26303348
130	0x3b1674fd	0.0022957914
131	0xbe86a770	-0.2629962
132	0x3cc658b1	0.024212213
133	0x3de97755	0.11399714
134	0xbdec9474	-0.11551753
135	0x3e04630f	0.12928413
136	0x3d06e55c	0.032933578
137	0x3d8b1867	0.06791764
138	0xbda0e9e3	-0.0785711
139	0x3e111e10	0.14171624
140	0xbe51df67	-0.20495377
141	0x3dd5d69e	0.104413256
142	0xbdce797c	-0.10081765
143	0xbe3d2d39	-0.18474282
144	0x3d7f7da3	0.062375676
145	0x3d74ee34	0.05979748
146	0xbcf2b174	-0.029625632
147	0x3d8a59c7	0.06755405
148	0x3d6bc08e	0.05755668
149	0x3d072c26	0.033001088
150	0xba6a481c	-0.0008937137
151	0xbc96c05c	-0.018402271
152	0xbdfe3306	-0.12412076
153	0xbd2ea8c3	-0.042641412
154	0xbe061367	-0.13093339
155	0xbd9185be	-0.071055874
156	0xbc763d13	-0.01502921
157	0xbccbe6c9	-0.02489032
158	0x3e2de5c9	0.16982187
159	0x3da8650e	0.082224
160	0x3cc0b433	0.023523426
161	0x3d93a86b	0.072098576
162	0x3d17e8fe	0.037087433
163	0xbb214e54	-0.0024613338
164	0xbfa84fe3	-1.314938
165	0x3cc23778	0.02370809
166	0xbe8450bd	-0.25842848
167	0x3d74f463	0.059803378
168	0x3d377b33	0.044795226
169	0x3b52769c	0.0032114154
170	0xbdfc50fd	-0.12320135
171	0xbcb9178b	-0.022594234
172	0xbe5f2816	-0.21792635
173	0xbd2179af	-0.039422687
174	0xbe547f40	-0.20751667
175	0xbe84b39d	-0.25918284
176	0xbd008231	-0.03137416
177	0xbdac0321	-0.08399034
178	0xbcad12bf	-0.021127103
179	0x3e02bacc	0.1276657
180	0xbdf985ff	-0.12183761
181	0xbd25d26c	-0.040483877
182	0xbd29ce73	-0.04145665
183	0xbda41376	-0.080115244
184	0xbe24a78a	-0.16079536
185	0xbe1c0d7d	-0.1523952
186	0xbd772d6f	-0.060346063
187	0x3da23c39	0.07921643
188	0xbe4af907	-0.19821559
189	0x3d486aab	0.04892985
190	0x3dec53a2	0.11539389
191	0x3ddcf050	0.107880235
192	0xbe185d76	-0.14879403
193	0x3dc5ad55	0.09652201
194	0xbd303e27	-0.043028023
195	0x3e25a4ae	0.16176102
196	0xbcf81ab7	-0.030286176
197	0xbe0289d8	-0.12747896
198	0xbe1fd8d6	-0.1561006
199	0xbe1e7bcd	-0.15476914
200	0xbbea4a86	-0.007149997
201	0x3d3c9fe8	0.046050936
202	0x3d7c90cb	0.061661523
203	0xbcbb1556	-0.022837322
204	0x3ddc7293	0.10764041
205	0xbd576f69	-0.052596483
206	0xbd5e59d0	-0.05428487
207	0xbbb31c71	-0.005466037
208	0x3d3f2537	0.04666635
209	0xbc0f8877	-0.008760563
210	0x3c7edc38	0.015555434
211	0x3eb2e877	0.34942982
212	0x3a9f80b9	0.00121691
213	0xbdebcce4	-0.11513689
214	0xbb5339f4	-0.0032230588
215	0x3aa1a910	0.001233371
216	0x3d75b580	0.059987545
217	0x3ccba7a8	0.024860218
218	0x3d2b4dc2	0.041822203
219	0xbdb73a8a	-0.08946712
220	0x3b1c9d1e	0.002389736
221	0x3dbf1028	0.093292534
222	0x3d86a0b6	0.06573622
223	0xbc1e1eda	-0.00965091
224	0xbe9eb9dd	-0.31001177
225	0xbde9bded	-0.114131786
226	0x3db6ce45	0.089260615
227	0xbcba74ef	-0.022760836
228	0x3ddfc1f2	0.10925664
229	0xbc6ca95a	-0.014444673
230	0xbdc405d0	-0.09571421
231	0xbe7ba34e	-0.24574015
232	0xbce151db	-0.027504852
233	0x3e56031d	0.20899625
234	0xbdbefb40	-0.09325266
235	0xbe00415a	-0.1252493
236	0xbccf517b	-0.025307408
237	0x3dd7944b	0.105263315
238	0xbd97fd86	-0.07421403
239	0x3cd3a02a	0.025833208
240	0x3d8572ca	0.06516035
241	0xbe0141f5	-0.12622817
242	0xbeb68e52	-0.35655457
243	0x3dfd0308	0.12354094
244	0x3c7d0cbc	0.015444931
245	0xbdea95da	-0.11454363
246	0x3bbae327	0.005703348
247	0x3d284609	0.041082416
248	0x3c2b3ba5	0.010451232
249	0x398dcd2c	0.0002704648
250	0x3d66c275	0.056337792
251	0xbe566abd	-0.20939155
252	0x3e20b8d7	0.15695511
253	0xbd898182	-0.06714155
254	0xbc7450bd	-0.014911828
255	0xbd7c3160	-0.061570525

fc1.bias f4 [128]
0	0xbcf89219	-0.030343102
1	0xbba5f87a	-0.005065021
2	0x3e773397	0.24140774
3	0x3e845ca9	0.25851944
4	0xbc2f732f	-0.010708614
5	0xbd53cf0e	-0.051711135
6	0x3e8666a6	0.2625019
7	0xbe944bd8	-0.28964114
8	0xbdef6121	-0.11688448
9	0x3c826fba	0.015922416
10	0x3e0be6d3	0.13662271
11	0x3e0cdcff	0.13756178
12	0x3d82c6ed	0.06385598
13	0xbd677cca	-0.056515492
14	0x3d4c8651	0.04993278
15	0xbeafaf81	-0.34313586
16	0x3e4dbf87	0.20092593
17	0xbd72bb33	-0.05926056
18	0x3bcb8bce	0.0062117344
19	0x3daede05	0.085384406
20	0x3ddc09cd	0.10744057
21	0x3daa8bcc	0.083274454
22	0x3e8d7687	0.27629492
23	0xbd3acdab	-0.045606297
24	0x3e11437e	0.14185902
25	0xbcb57bf9	-0.022153841
26	0xbda5a235	-0.08087579
27	0x3e7b2360	0.24525213
28	0xbd3a38ac	-0.045464203
29	0x3ec772ee	0.38954872
30	0x39be29f5	0.00036270884
31	0xbd94bd4f	-0.0726267
32	0x3e1cc879	0.15310849
33	0x3e839d4b	0.25705943
34	0x3e32d321	0.17463352
35	0x3e92d2c4	0.28676426
36	0x3e023e61	0.12719108
37	0xbe8143da	-0.2524708
38	0xbd43fd0c	-0.047848746
39	0x3d671d40	0.05642438
40	0x3d804053	0.06262269
41	0x3cfcd4e1	0.030863227
42	0xbe00c7dd	-0.12576242
43	0x3e99b754	0.3002268
44	0xbe02b094	-0.12762672
45	0x3d8d2c5a	0.06893225
46	0x3e672d97	0.22575985
47	0x3d724e8a	0.059156932
48	0xbc6657a5	-0.014058982
49	0xbe64281f	-0.2228093
50	0xbd502539	-0.05081675
51	0x3d844a33	0.06459465
52	0x3eb31d37	0.34983227
53	0x3e07c0f8	0.13257205
54	0xbdef24cb	-0.116769396
55	0x3e92f84e	0.28705066
56	0xbdbce712	-0.09223761
57	0xbc2ba162	-0.010475488
58	0x3e0f8f63	0.14019541
59	0xbde91bc1	-0.11382247
60	0x3e6b15d6	0.22957548
61	0xba2865ad	-0.0006423842
62	0x3e3c2c68	0.18376315
63	0x3e2705d4	0.16310817
64	0x3b006b51	0.0019595216
65	0xbdf79628	-0.12089187
66	0x3da4da99	0.08049507
67	0x3e7b4966	0.24539718
68	0x3c46e5e0	0.012139767
69	0xbd759059	-0.059952114
70	0x3d512326	0.05105891
71	0xbe2745db	-0.16335241
72	0x3de0b59b	0.109721385
73	0x3e9044b5	0.2817742
74	0xbd707e08	-0.058713943
75	0x3e04ba20	0.12961626
76	0x3cddd07b	0.02707695
77	0x3c334d36	0.0109437015
78	0xbca61762	-0.020274822
79	0xbce16afc	-0.027516834
80	0x3df86651	0.1212889
81	0xbdd104d1	-0.10205997
82	0x3dc52a4b	0.09627207
83	0xbb8b20d4	-0.004245857
84	0x3e3901de	0.18067119
85	0xbe8ecfd9	-0.2789295
86	0x3d9fb674	0.07798472
87	0xbe5898d0	-0.21152043
88	0xbdb5488d	-0.088517286
89	0x3e5dc211	0.21656062
90	0xbdf90eb5	-0.12161008
91	0xbdb3c216	-0.08777253
92	0xbe1582c6	-0.14600667
93	0x3e9f362f	0.31096026
94	0xbe83b036	-0.25720376
95	0x3d71fa15	0.059076387
96	0x3dd23682	0.10264303
97	0x3dd24829	0.1026767
98	0x3e024663	0.12722163
99	0x3e9edbe3	0.31027135
100	0x3e1214ee	0.14265797
101	0x3e3e3383	0.18574338
102	0x3c2e780f	0.010648741
103	0xbdc471c1	-0.09592009
104	0x3dcfff83	0.10156157
105	0x3e561ef2	0.20910242
106	0xbdf1c145	-0.11804441
107	0xbd84e0b0	-0.06488168
108	0x3e605109	0.21905912
109	0x3e4db8c7	0.20090018
110	0x3db32a87	0.08748346
111	0x3d9b8af7	0.07594865
112	0xbd768ba4	-0.060191765
113	0x3d19e692	0.037573405
114	0x3e4316bc	0.19051641
115	0x3e99042c	0.29885995
116	0xbc9e68e1	-0.01933712
117	0xbc81fa77	-0.015866501
118	0x3e7b35d2	0.2453225
119	0x3c7c46eb	0.015397768
120	0x3e3c85ef	0.18410467
121	0x3e0d545d	0.13801713
122	0x3ddf4d6f	0.10903441
123	0x3e8be414	0.27322447
124	0xbd8bb538	-0.06821674
125	0x3d056466	0.03256645
126	0x3ced1a6f	0.028943269
127	0x3e14d560	0.14534521

fc2.weight f4 [128, 128]
0	0x3dea079c	0.114272326
1	0xbe2bd355	-0.16779836
2	0xbdf74a9c	-0.120747775
3	0x3da9efea	0.08297713
4	0x3d142f79	0.036178086
5	0xbd4e50a9	-0.050369892
6	0x3ca5e17e	0.020249125
7	0xbe2db87d	-0.16964908
8	0x3e453587	0.192587
9	0x3e54c11f	0.20776795
10	0x3e1f1504	0.1553536
11	0x3e8b0a40	0.27156258
12	0xbc5c9c80	-0.013465047
13	0xbea5c56e	-0.3237719
14	0xbee342e5	-0.44386974
15	0xbe67a7da	-0.22622624
16	0xbcc484dd	-0.023989135
17	0x3db31466	0.08744125
18	0xbe88cfc1	-0.26721004
19	0xba957b22	-0.0011404494
20	0x3e538159	0.20654811
21	0x3e0b0bc2	0.13578704
22	0xbcc816fb	-0.02442502
23	0xbd92b72d	-0.07163844
24	0xbd79d8bb	-0.060997706
25	0xbd282dad	-0.041059185
26	0x3ddd7cea	0.10814841
27	0x3e7e70f3	0.24847774
28	0xba2739e9	-0.0006379174
29	0x3dcd43bd	0.10022686
30	0x3cddc9e4	0.027073808
31	0xbe028c68	-0.12748873
32	0x3da85335	0.082189955
33	0x3dafbff5	0.08581535
34	0xbd831b31	-0.06401671
35	0x3e1d661c	0.15370983
36	0xbe181f0c	-0.14855593
37	0xbdf28cce	-0.118432626
38	0xbedb5c75	-0.42843977
39	0x3eb29aa0	0.34883595
40	0xbf02d65f	-0.51108354
41	0xbe1fc77e	-0.15603444
42	0xbe0b8797	-0.13625942
43	0x3e038436	0.12843403
44	0xbd20991a	-0.03920851
45	0xbcbd0474	-0.023073412
46	0xbe9e089d	-0.30865946
47	0x3d004855	0.03131898
48	0x3df7d06c	0.121003
49	0xbe8f705b	-0.28015408
50	0xbea2c529	-0.31791046
51	0x3e13ccb6	0.1443356
52	0xbe1e5404	-0.15461737
53	0x3e1e117e	0.1543636
54	0x3e2fcdf9	0.17168416
55	0x3d91b505	0.07114605
56	0xbe1516ec	-0.14559525
57	0x3e125a2b	0.14292209
58	0x3cfdfeb0	0.031005234
59	0xbdb13a23	-0.08653667
60	0x3e6273c4	0.22114474
61	0x3be0580b	0.006846433
62	0x3e4b1122	0.19830754
63	0x3e021326	0.12702617
64	0x3e4330fe	0.19061658
65	0x3d8f6fb9	0.07003731
66	0x3ea1c929	0.31598786
67	0x3abf2093	0.0014581851
68	0x3e32b4c2	0.17451766
69	0x3df7286b	0.12068256
70	0xbbf440d9	-0.0074540195
71	0x3cf1d259	0.029519247
72	0xbd29c0da	-0.041443683
73	0xbda6af5d	-0.08138917
74	0xbde70cfb	-0.11281773
75	0x3d945a16	0.07243745
76	0x3e1ea50f	0.15492652
77	0x3bd7ed28	0.0065895505
78	0x3e0e90b5	0.13922389
79	0xbca6aeb6	-0.02034698
80	0x3c884479	0.016634213
81	0xbe06ac94	-0.13151771
82	0x3ec1479f	0.37749955
83	0xbe08984c	-0.13339347
84	0xbe4a1ad5	-0.19736798
85	0x3ed3e3f1	0.41384843
86	0xbdae92ae	-0.08524071
87	0x3e7ed8f2	0.24887446
88	0xbe21bf6b	-0.15795676
89	0xbd9840ec	-0.07434258
90	0xbf219fa8	-0.6313424
91	0x3d1adb18	0.0378066
92	0xbe334521	-0.1750684
93	0xbecd89e9	-0.4014428
94	0x3f09dc89	0.53852135
95	0x3db2049a	0.08692284
96	0x3da140f9	0.07873721
97	0x3de04374	0.10950366
98	0xbe2c9923	-0.16855292
99	0x3dd195a7	0.10233622
100	0x3e0e6d2b	0.13908832
101	0xbeb4d6a9	-0.35320023
102	0xbee24b9c	-0.4419831
103	0x3e133c25	0.14378412
104	0x3e15e157	0.14636742
105	0xbeba385b	-0.3637112
106	0xbf1b7044	-0.6071818
107	0x3e447b5e	0.19187686
108	0xbc4f3422	-0.012646707
109	0xbdec546b	-0.11539539
110	0x3dbf61df	0.09344839
111	0xbe1bbb36	-0.15208134
112	0x3d788ae8	0.060679346
113	0xbe364119	-0.1779827
114	0x3d9e48fb	0.07728764
115	0x3e5083c6	0.20362768
116	0xbf46170d	-0.7737892
117	0x3e127095	0.14300759
118	0xbe17cef4	-0.1482504
119	0x3df65231	0.120273955
120	0x3db70c24	0.089378625
121	0x3ec1e09d	0.3786668
122	0x3d822f70	0.06356704
123	0xbe3af11d	-0.1825604
124	0xbf32481f	-0.696413
125	0xbe0c0e5b	-0.13677351
126	0xbd86f318	-0.06589335
127	0xbe02e213	-0.12781553
128	0xbf032aaa	-0.51236975
129	0xbcb05a2f	-0.021527378
130	0xbd62d502	-0.05537892
131	0xbe2aa4b7	-0.16664396
132	0x3c7c3722	0.015394004
133	0xbdc04903	-0.09388926
134	0xbd9f916f	-0.07791411
135	0x3c3f5deb	0.011680107
136	0xbe086074	-0.13318044
137	0xbe10cb71	-0.14140107
138	0x3d856743	0.06513836
139	0xbdcc75fc	-0.09983441
140	0xbdc1bc34	-0.09459725
141	0x3e5efaa1	0.21775295
142	0xbd7d4fbc	-0.06184362
143	0xbe314222	-0.17310384
144	0xbcf39618	-0.029734656
145	0x3deaa9e8	0.11458188
146	0xbd0f11f9	-0.03492925
147	0xbd9af075	-0.07565395
148	0x3c774c83	0.015093925
149	0xbe2b3c60	-0.1672225
150	0xbd916e88	-0.0710116
151	0xbe3ffb1c	-0.18748134
152	0x3e4b5dd7	0.19860016
153	0xbda46fc1	-0.08029128
154	0x3ebd65b2	0.3699165
155	0xbd921b8d	-0.07134161
156	0x3dc3de8a	0.0956393
157	0x3de832e0	0.11337829
158	0x3ec6b477	0.3880956
159	0x3d895350	0.06705344
160	0xbd89a268	-0.0672043
161	0xbdf0dc18	-0.117607296
162	0x3d153850	0.036430657
163	0xbebf10f8	-0.37317634
164	0xbde79860	-0.1130836
165	0xbbb38aa3	-0.0054791733
166	0x3e7a7f83	0.24462704
167	0xbe89c88c	-0.26910818
168	0x3d19fb6a	0.037593283
169	0x3e909f70	0.2824664
170	0x3e4808ff	0.19534682
171	0xbe5de593	-0.21669607
172	0x3e2a37ef	0.166229
173	0x3c8407b0	0.016116947
174	0xbe025f6f	-0.12731718
175	0xbe1032e5	-0.14081915
176	0x3e367eda	0.17821828
177	0x3e04513f	0.12921618
178	0x3e5e4d3b	0.21709149
179	0xbe7aeaa9	-0.24503578
180	0x3ddd51ab	0.108065926
181	0x3ea45ddb	0.32102856
182	0xbce3e162	-0.027817432
183	0x3eee22f4	0.46511042
184	0x3a3f4753	0.00072967
185	0xbdbc6ad8	-0.09200066
186	0x3c94caf4	0.018163182
187	0x3e2e15c9	0.17000498
188	0x3a651c5f	0.00087398844
189	0xbe4ae6bc	-0.1981458
190	0xbae21589	-0.001724885
191	0xbd7c74be	-0.06163477
192	0xbd0c1c8b	-0.03420691
193	0xbe065d66	-0.13121566
194	0x3e4cc95f	0.19998692
195	0xbef320f1	-0.4748607
196	0xbc12b13b	-0.008953388
197	0xbe348806	-0.17630014
198	0x3e5eb08d	0.21747036
199	0xbdf7b739	-0.12095494
200	0x3e0acf63	0.13555674
201	0x3b8c7b47	0.0042871567
202	0xbe317f80	-0.17333794
203	0x3d8277b9	0.063704915
204	0x3ceb3298	0.028710648
205	0x3cb18ca1	0.021673502
206	0xbe337d45	-0.17528255
207	0xbce5ed1e	-0.028067168
208	0xbd97ddf5	-0.07415382
209	0x3dbe37af	0.092879646
210	0xbf7f8783	-0.9981615
211	0xbe298d18	-0.16557729
212	0xbe9601bc	-0.29298198
213	0xbe29a1ff	-0.16565703
214	0x3dd1bb0b	0.10240754
215	0x3e224e16	0.158501
216	0x3d47b1f6	0.0487537
217	0xbd5186c1	-0.051153902
218	0x3d94d5a9	0.07267315
219	0x3e103bb0	0.14085269
220	0x3e756de4	0.23967701
221	0x3ed176af	0.4091086
222	0xbf7562a6	-0.9585365
223	0x3e1025c9	0.14076914
224	0xbe4483b5	-0.19190867
225	0x3db967d2	0.09053005
226	0x3e654571	0.22389771
227	0xbe8dda26	-0.27705497
228	0x3cd8f003	0.026481634
229	0x3e2b8085	0.16748245
230	0xbe1bcf57	-0.15215813
231	0xbea2885a	-0.31744653
232	0xbe5d255c	-0.21596283
233	0x3c762da9	0.015025535
234	0x3d30087a	0.042976834
235	0xbdc7c6fe	-0.097547516
236	0x3e9538fc	0.29145038
237	0xbd45602d	-0.048187423
238	0x3e933b8d	0.2875637
239	0xbcaf2d94	-0.021384038
240	0xbe64a367	-0.22327958
241	0x3d8e0c8a	0.069359854
242	0x3e0ad34b	0.13557164
243	0xbe3b1dd4	-0.18273097
244	0x3ec8eecd	0.3924469
245	0x3deb7c8a	0.11498363
246	0x3d828229	0.06372482
247	0xbca0de96	-0.019637387
248	0xbe7511d5	-0.23932584
249	0xbe02a589	-0.12758459
250	0x3e72935c	0.23689026
251	0xbd608850	-0.054817498
252	0x3e82778e	0.25481838
253	0xbc887069	-0.016655164
254	0x3e119ff9	0.14221181
255	0xbe6c7eec	-0.23095292

fc2.bias f4 [128]
0	0x3e9598c3	0.2921811
1	0x3dc61343	0.09671643
2	0x3d3bf186	0.04588463
3	0x3cc666a6	0.024218868
4	0x3def2d94	0.11678615
5	0x3de1b780	0.11021328
6	0x3cf2b991	0.0296295
7	0x3d13a0cf	0.03604203
8	0x3ce9f939	0.028561221
9	0x3e3023ae	0.1720111
10	0x3d79ece4	0.061016932
11	0xba53838f	-0.0008068615
12	0xbdaa91eb	-0.08328613
13	0x3d297581	0.041371826
14	0x3cd402f5	0.025880316
15	0xbd055c5a	-0.032558776
16	0x3e2050f2	0.15655878
17	0xbd2ad11a	-0.04170332
18	0x3d24a234	0.04019375
19	0x3ca34c44	0.019933827
20	0x3be44628	0.006966371
21	0xbd66f9fe	-0.056390755
22	0xbdeb9ef3	-0.115049265
23	0xbb9769cb	-0.004620766
24	0x3e0dc86d	0.13845988
25	0x3d9b1398	0.075720966
26	0xbd4c7018	-0.04991159
27	0x3d0f2fe8	0.034957796
28	0xbca03901	-0.019558432
29	0xbd3bfcc6	-0.04589536
30	0xbc08c387	-0.008347399
31	0x3dc3aea4	0.095547944
32	0x3db3a4c4	0.08771661
33	0x3afc44cb	0.0019246576
34	0xbc160aee	-0.009157879
35	0x3d3464a1	0.04404128
36	0x3dbbb501	0.09165383
37	0xb9df65b5	-0.00042609652
38	0xbd9c9a86	-0.076466605
39	0xbd450870	-0.04810375
40	0x3caf026a	0.021363456
41	0x3dce85f1	0.10084141
42	0x3c73796d	0.014860493
43	0x3e03befb	0.12865822
44	0x3d2fef34	0.04295273
45	0xbb250e69	-0.002518559
46	0x3df3afaa	0.1189874
47	0xbc8d16f5	-0.01722286
48	0x3d934fb1	0.07192934
49	0xbd9a8e5f	-0.075466864
50	0x3e1da1fc	0.15393823
51	0x3d8679ef	0.06566226
52	0xbd7f1b0d	-0.062281657
53	0xbd06098e	-0.032723956
54	0x3d54eb59	0.051982258
55	0xbdc4d09e	-0.09610103
56	0xbbaf0b40	-0.0053419173
57	0x3c59a5e7	0.013284183
58	0x3d91e96e	0.07124601
59	0x3d6246af	0.05524319
60	0x3c9c1f98	0.019058034
61	0x3dabbcb4	0.08385602
62	0x3ddf69b6	0.10908835
63	0x3d3ca434	0.046055034
64	0x3dfe46b8	0.12415832
65	0xbe0445c8	-0.12917244
66	0x3d84a805	0.0647736
67	0xba198509	-0.00058563106
68	0x3bcd1dbe	0.006259649
69	0xbd787865	-0.060661692
70	0xbd980bb8	-0.0742411
71	0xbd8d9d8b	-0.069148146
72	0xbd4953df	-0.04915225
73	0x3db582a5	0.08862809
74	0xbce44583	-0.027865177
75	0x3d8bd9ea	0.06828673
76	0xbd3d7bc0	-0.046260595
77	0x3dbd8245	0.092533626
78	0xbccbaece	-0.024863627
79	0xbb54b336	-0.003245545
80	0x3c86d58c	0.016459249
81	0x3b7f1d51	0.0038927386
82	0x3d64744d	0.055774976
83	0x3da9acb3	0.08284893
84	0xbdf688c5	-0.120378055
85	0xbdb68aa8	-0.08913165
86	0xbb39c5e1	-0.0028346705
87	0xbdac19cd	-0.084033586
88	0x3c8b6afc	0.017018788
89	0x3db2a5c6	0.08723025
90	0x3dde54c1	0.10856009
91	0xbba0965e	-0.0049007377
92	0xbc9f4a80	-0.019444704
93	0x38a24277	7.737142e-05
94	0xbdff19a2	-0.12456061
95	0xbb41180b	-0.0029463794
96	0xbd40e5f0	-0.047094285
97	0x3d22baee	0.03972905
98	0xbda83a2f	-0.08214223
99	0x3dbd3bfb	0.09239956
100	0xbc04cea2	-0.008105906
101	0xbcae0389	-0.02124192
102	0xbe384141	-0.17993642
103	0x3d5ed0e3	0.05439843
104	0x3d5cd5ec	0.05391495
105	0x3b0267ac	0.001989822
106	0x3e1e7305	0.15473564
107	0xbba4b668	-0.0050266273
108	0xbcf95810	-0.0304375
109	0x3e89927a	0.26869565
110	0x3d7c4e51	0.061598126
111	0x3cf1f3d6	0.029535215
112	0x3ca76262	0.020432655
113	0x3e8d5229	0.27601746
114	0xbdc91824	-0.098190576
115	0x3dffd231	0.12491263
116	0x3d687e8d	0.056761313
117	0x3d75ea20	0.060037732
118	0xbd74c566	-0.059758566
119	0x3da34c35	0.0797352
120	0xbda3ed80	-0.08004284
121	0xbaba583f	-0.0014216973
122	0xbd81a514	-0.06330314
123	0x3da3080c	0.07960519
124	0xbdcd992f	-0.10038983
125	0x3ddeac15	0.10872666
126	0xbd7a654f	-0.06113177
127	0x3d544536	0.051823817

fc3.weight f4 [4, 128]
0	0x3ecc73a7	0.39931986
1	0x3f360c11	0.7111216
2	0xbf066724	-0.5250113
3	0xbebf2282	-0.37331015
4	0x3ecbffe0	0.39843655
5	0xbd94a5c0	-0.07258177
6	0xbf0220c6	-0.5083126
7	0xbe7b2c0b	-0.2452852
8	0xbeaaca6f	-0.3335757
9	0xbf0ddc97	-0.5541472
10	0xbf12fed8	-0.5742011
11	0xbe8c693c	-0.27424037
12	0xbecc79e6	-0.3993675
13	0xbeafd97d	-0.34345618
14	0x3ec51990	0.38496065
15	0x3bdeba68	0.0067971237
16	0xbe859b23	-0.26094922
17	0xbc94767a	-0.0181229
18	0xbcb27704	-0.021785267
19	0xbe81a01f	-0.25317475
20	0x3e002dd4	0.12517482
21	0x3f1e9f67	0.6196198
22	0xbec3afb1	-0.3821998
23	0x3e2de81c	0.16983074
24	0x3f1b8f55	0.6076558
25	0xbc1175e1	-0.008878202
26	0x3d28d117	0.04121503
27	0xbf3801e3	-0.7187788
28	0x3f83f4bc	1.0309062
29	0xbed009ea	-0.40632564
30	0x3e9e50de	0.30921072
31	0xbe656cd5	-0.22404797
32	0x3d5c8162	0.053834327
33	0xbf554153	-0.833028
34	0xbbd25f8f	-0.006420083
35	0x3c9ef16e	0.019402232
36	0xbe269b1f	-0.16270112
37	0xbe466816	-0.19375643
38	0xbf0fa0c8	-0.5610471
39	0xbe83f1b4	-0.25770342
40	0xbd5a199f	-0.05324709
41	0xbece3e14	-0.40281737
42	0x393ea27b	0.0001818034
43	0xbe5ba29e	-0.21448752
44	0x3e71ebbd	0.23625083
45	0x3e0fc6a1	0.14040615
46	0xbe996dc0	-0.29966545
47	0x3c8512ac	0.016244255
48	0xbda9ca8e	-0.08290587
49	0xbd3ad209	-0.04561046
50	0xbd87a729	-0.0662368
51	0x3f20becc	0.6279113
52	0x3de1a96d	0.110186435
53	0x3d1ca94f	0.038247403
54	0xbdd8edac	-0.10592207
55	0x3f0e8aa4	0.556803
56	0xbeee1ca6	-0.46506232
57	0xbee94d3a	-0.45566732
58	0x3f85a3c4	1.0440602
59	0xbf09bf83	-0.5380785
60	0x3f766db3	0.9626114
61	0xba520dcc	-0.000801292
62	0xbe01bb19	-0.12669028
63	0xbdaa05f4	-0.08301917
64	0xbe65b0c7	-0.22430716
65	0xbf2cb09c	-0.67456985
66	0x3e242b65	0.16032179
67	0xbe195af0	-0.14976096
68	0x3f448950	0.7677202
69	0x3f2b489d	0.66907674
70	0xbdc3c59b	-0.095591746
71	0x3e72126b	0.23639838
72	0xbec0e7eb	-0.3767694
73	0xbd3ac187	-0.04559472
74	0xbeff2a8d	-0.4983715
75	0xbd5e1465	-0.05421867
76	0xbf56d0e1	-0.83912474
77	0xbc82aa05	-0.015950212
78	0x3f1cab6b	0.61199063
79	0xbe20cd81	-0.15703394
80	0x3e86f23d	0.26356688
81	0x3e310a4e	0.17289087
82	0x3e171559	0.14754237
83	0xbe446cec	-0.19182175
84	0x3d4c4a77	0.049875703
85	0x3f1510d8	0.58228827
86	0xbe13a070	-0.14416671
87	0xbce72daf	-0.028220026
88	0x3ef0e17f	0.4704704
89	0xbf075d49	-0.52876717
90	0x3e2df3ec	0.1698758
91	0x3b22644b	0.0024779018
92	0xbdda30a8	-0.10653812
93	0xbba32952	-0.004979291
94	0xbd939b15	-0.07207314
95	0x3e4034d7	0.18770157
96	0xbeb89150	-0.36048365
97	0xbd0f3b72	-0.0349688
98	0x3ea582da	0.32326394
99	0xbd89e4e5	-0.06733111
100	0x3ed84c10	0.4224553
101	0xbe5224b7	-0.20521818
102	0x3ddd6f1c	0.10812208
103	0x3ecf3f33	0.40477905
104	0x3e431e42	0.19054511
105	0x3f15d711	0.5853129
106	0x3e895081	0.26819232
107	0x3e2129ba	0.15738574
108	0xbd981a29	-0.07426865
109	0x3c332981	0.010935188
110	0x3e38337d	0.17988391
111	0x3e7fbc88	0.24974263
112	0xbf38549f	-0.7200412
113	0x3e90865a	0.28227502
114	0xbf243492	-0.64142716
115	0xbef923a6	-0.4866001
116	0x3e58adbe	0.21160027
117	0x3e397354	0.181104
118	0xbf04884f	-0.5177049
119	0x3f07407c	0.5283277
120	0x3f3475ca	0.7049223
121	0x3e53683d	0.20645232
122	0xbef0fa1e	-0.47065824
123	0xbea8b339	-0.32949236
124	0xbd8b6bec	-0.06807694
125	0x3e49d3ed	0.1970975
126	0x3ea3b4fe	0.31974024
127	0x3f0b134c	0.5432632
128	0xbe458b12	-0.19291332
129	0xbed7be8f	-0.42137572
130	0xbdd4c4e2	-0.10389115
131	0x3e21e900	0.15811539
132	0xbe6b4d6e	-0.22978756
133	0x3e46056e	0.19338009
134	0x3de66e64	0.11251524
135	0x3d0f04a7	0.034916546
136	0xbd1db2f8	-0.038500756
137	0xbe772d9c	-0.24138492
138	0xbf072a2e	-0.52798736
139	0xbf060faf	-0.5236768
140	0xbeefaa60	-0.46809673
141	0x3e728f62	0.23687509
142	0x3dbe29d6	0.09285323
143	0xbda07627	-0.07835036
144	0xbcffa274	-0.031205393
145	0x3ec1d5ef	0.3785853
146	0x3e161d1e	0.14659545
147	0x3d8931b8	0.06698936
148	0x3e5d7efb	0.2163047
149	0xbd6626cd	-0.056189347
150	0xbf1e4b2c	-0.61833453
151	0x3ebecde7	0.37266466
152	0x3d1fd52f	0.039021667
153	0x3dca7616	0.09885804
154	0xbd5f61b2	-0.05453653
155	0xbe8956c4	-0.2682401
156	0x3ec79056	0.38977307
157	0x3d80fd08	0.06298262
158	0xbeeb8aca	-0.46004325
159	0xbf0ec339	-0.55766636
160	0x3d578a7b	0.0526223
161	0xbea91ec2	-0.3303128
162	0x3ec7357d	0.38907996
163	0x3e04d7b6	0.12972912
164	0x3d206799	0.0391613
165	0xbef4cfd2	-0.47814804
166	0x3deec385	0.11658386
167	0xbedda25c	-0.43287933
168	0x3dad9f5e	0.084776625
169	0x3e6750b3	0.22589378
170	0xbf0514a0	-0.51984596
171	0x3e81eaf3	0.25374565
172	0xbe1918f4	-0.14950925
173	0xbe9e259c	-0.3088807
174	0x3e7d99e8	0.24765742
175	0xbe8d41c5	-0.2758924
176	0x3ea1074b	0.31450877
177	0x3e1d4c67	0.15361176
178	0x3e0cc212	0.13745907
179	0x3e6461f0	0.22302985
180	0xbbe13606	-0.006872895
181	0x3e1c2fd0	0.15252614
182	0x3e990a6a	0.29890758
183	0x3d90f441	0.07077838
184	0xbf0d7fa4	-0.5527289
185	0xbe3abcc7	-0.18236075
186	0xbded62a2	-0.11591078
187	0xbda4a438	-0.08039135
188	0x3d51ddac	0.051236793
189	0x3dfaed4f	0.12252294
190	0x3ebc906a	0.3682893
191	0x3d89d0e7	0.06729298
192	0x3d8fc325	0.07019643
193	0x3edf9915	0.4367148
194	0x3e16da5c	0.14731735
195	0xbc719725	-0.014745508
196	0xbbe45243	-0.006967814
197	0xbd432e7d	-0.047651757
198	0xbea18075	-0.31543317
199	0x3e6ae0a7	0.2293726
200	0xbe84ef8d	-0.25964013
201	0x3e8c52f7	0.27407047
202	0x3e37b3b2	0.17939642
203	0x3dda971e	0.106733546
204	0x3d07e698	0.033178896
205	0x3e04a9fa	0.12955466
206	0xbe0e47c5	-0.13894565
207	0xbf434e9d	-0.7629183
208	0xbc6009d2	-0.013674216
209	0xbc9fec53	-0.019521868
210	0xbdc44cdc	-0.09584972
211	0xbf47c1e7	-0.78030246
212	0x3f09cde7	0.5382981
213	0xbd381da3	-0.04495014
214	0x3d71bebf	0.0590198
215	0xbeb70c8c	-0.3575176
216	0x3e75d3e5	0.24006613
217	0xbebf0296	-0.3730666
218	0xbe4642b4	-0.19361383
219	0xbeda31c8	-0.42616105
220	0x3e1a74a6	0.1508356
221	0xbec77a9a	-0.38960725
222	0x3e6eb9fa	0.23313132
223	0xbe8ae4bf	-0.27127644
224	0x3ee4922a	0.44642764
225	0x3e1e2128	0.15442336
226	0xbe5bfcac	-0.21483105
227	0x3e0851ff	0.13312529
228	0x3dbfa06b	0.09356769
229	0x3d7bd361	0.061480884
230	0x3da799b7	0.08183616
231	0x3d759b34	0.059962466
232	0xbe6ecb78	-0.23319805
233	0x3d4ebe16	0.05047425
234	0x3e4793f9	0.19490041
235	0x3e0ee2dc	0.13953727
236	0x3e2ac98b	0.16678445
237	0x3e71d988	0.23618138
238	0x3dd6f9f1	0.10496891
239	0x3e7f6f53	0.2494481
240	0xbe5fa8ca	-0.21841732
241	0xbdd0af17	-0.10189646
242	0xbe2c6c8d	-0.16838284
243	0x3d99d9be	0.07512234
244	0x3e83aaab	0.25716147
245	0xbedc9975	-0.43085828
246	0x3e39c3b8	0.18141067
247	0x3cbc2265	0.02296562
248	0x3e1203ce	0.14259264
249	0x3d6f5854	0.058433846
250	0xbef003d2	-0.46877915
251	0x3cc7bca3	0.024381941
252	0xbe0d05eb	-0.13771789
253	0xbefea19f	-0.49732682
254	0x3cd58cf9	0.026068198
255	0x3bb6a59e	0.0055739423

fc3.bias f4 [4]
0	0xbdb3fcfc	-0.08788487
1	0x3e5e1982	0.21689418
2	0xbdc8048e	-0.09766494
3	0x3c243e37	0.010024599
