checkpoint_critic_1.pth (torch, 88357 bytes, 5 tensors)

fcs1.weight f4 [128, 33]
-0.016441781 0.005519795 0.05790795 0.08663328 0.04417931 0.009860726 -0.0019215022 0.06346076
-0.061108492 -0.057831593 0.013178012 0.056409944 0.03323253 0.024791906 0.027451608 -0.019457037
-0.019464947 0.011118149 0.017562585 -0.02808891 -0.07630366 -0.006432651 -0.02937955 0.07026099
-0.028318837 -0.0131848445 0.044270124 -0.05372899 -0.09064802 0.0015037153 0.086081326 0.0013395216
-0.19326364 0.08341249 0.04364017 -0.037643544 0.026498616 -0.024762884 -0.060894683 -0.01572719
-0.010673261 -0.06676702 -0.013325054 0.04331637 -0.011585864 0.0048824362 0.00985024 -0.07513713
-0.029125908 0.0049438784 -0.015980924 0.038752507 -0.044747747 0.03227422 -0.01339608 0.03835809
0.05089236 -0.04882843 0.051133826 0.084527135 -0.109678924 0.0669197 -0.026265135 0.15115404
-0.02673167 -0.06556867 -0.013960666 0.0052789967 -0.03386587 0.040051077 0.050388835 -0.007199448
0.027239544 -0.026171947 -0.10110285 -0.10188227 -0.000114024086 -0.034877528 -0.01953086 -0.0067122537
-0.10045299 0.025211222 0.02165652 -0.0012053882 0.0100222 0.026173031 0.037156858 -0.030938052
-0.024466688 -0.027138399 0.0006053486 0.0193108 0.0976433 0.06845176 -0.0670564 0.07275382
-0.07079777 -0.029444072 -0.11625384 0.021244504 0.11777142 -0.16697522 0.024604974 0.022311578
-0.04279825 -0.041731954 0.021488847 0.08812601 0.08926409 -0.101147816 0.01317774 -0.11532612
-0.03849767 0.03967744 0.022718448 -0.043591082 0.04173752 0.04749408 -0.009178106 0.00253349
0.068999186 -0.036117703 0.058500838 -0.02465555 0.03774221 0.09102094 0.09113976 0.010514584
0.07260551 -0.09901287 0.06993937 0.012149683 -0.013596768 -0.24299872 0.0016638443 -0.03607271
-0.0564246 -0.015401061 -0.031319574 -0.056114454 0.117102474 0.1748672 -0.026458772 -0.07000453
-0.003298783 0.01066343 0.14270872 0.0789546 -0.07337907 0.008283899 -0.01323253 -0.037484244
0.0036049292 -0.03166569 -0.043111525 0.08327318 -0.019820781 0.068055615 0.043766797 -0.027706105
-0.06928127 -0.019509058 -0.050055746 0.037644014 0.46422625 -0.04934081 0.03507234 -0.007126666
-0.016777309 0.044594657 0.027707873 0.01289265 0.016691286 -0.026534779 0.058046747 0.0024283386
0.0121346535 -0.008817689 0.050280523 -0.039988205 -0.0047505563 -0.026858138 -0.013785182 -0.041493006
0.009024852 0.006783568 -0.0051596346 0.015115577 -0.015931776 -0.0043750494 -0.0022146131 -0.12929069
-0.056476653 -0.029716663 -0.042432457 0.038553305 -0.040599257 1.2159405 0.10422292 -0.0528473
0.07421293 0.038403165 0.015351672 0.024538403 -0.07618662 0.011689546 0.00307265 0.021166295
-0.027740065 -0.02417627 0.025273005 -0.037370376 -0.06050831 -0.043679174 -0.003980915 -0.029647456
-0.049460705 -0.01077051 0.003967596 0.014192471 0.01733233 -0.054519244 0.0034873686 -0.075729564
-0.15592426 -0.10544377 -0.107188486 0.071302876 0.051154826 0.07018002 -0.032989383 0.14979346
-0.056357935 -0.015550505 -0.028969396 0.13604946 0.02627865 -0.0019740583 0.032422163 0.10316616
-0.12644653 0.016958961 0.0717723 -0.047458712 -0.20256126 0.12660633 -0.030420216 -0.047791135
-0.019830838 -0.035864234 0.00018833696 -0.010163043 0.019049507 -0.03515529 -0.060695138 0.013107322
00000000: eab0 86bc 66df b43b e330 6d3d ca6c b13d
00000010: 5df5 343d e28e 213c eada fbba b7f7 813d
00000020: e64c 7abd d2e0 6cbd 97e8 573c 1d0e 673d
00000030: d51e 083d 6518 cb3c 32e2 e03c 5d64 9fbc
00000040: f474 9fbc e628 363c 69df 8f3c b71a e6bc
00000050: 1845 9cbd fdc8 d2bb 62ad f0bc fee4 8f3d
00000060: e8fc e7bc 3f05 58bc 9754 353d ee12 5cbd
00000070: aba5 b9bd 5018 c53a 684b b03d e392 af3a
00000080: e7e6 45be 2bd4 aa3d 09c0 323d 1e30 1abd
00000090: a013 d93c 88db cabc b46c 79bd 4fd6 80bc
000000a0: e7de 2ebc 26bd 88bd 5451 5abc 826c 313d
000000b0: a3d2 3dbc d8fc 9f3b e762 213c 7fe1 99bd
000000c0: 7599 eebc 4200 a23b 6dea 82bc f3ba 1e3d
000000d0: 6a49 37bd f931 043d 3b7b 5bbc 5f1d 1d3d
000000e0: 8274 503d 5200 48bd b471 513d 901c ad3d
000000f0: 589f e0bd 320d 893d fb29 d7bc 20c8 1a3e
00000100: 60fc dabc de48 86bd 47bb 64bc 6ffb ac3b
00000110: f0b6 0abd 990c 243d 8664 4e3d 59e9 ebbb
00000120: 7725 df3c 8d66 d6bc 030f cfbd a7a7 d0bd
00000130: 3720 efb8 bddb 0ebd 2fff 9fbc 77f2 dbbb
00000140: 4cba cdbd c487 ce3c 0469 b13c 1efe 9dba
00000150: 2734 243c d368 d63c ca31 183d cc71 fdbc
00000160: 5d6e c8bc 5951 debc 42b0 1e3a af31 9e3c
00000170: 36f9 c73d 7030 8c3d de54 89bd f4ff 943d
00000180: 6cfe 90bd b234 f1bc 7e16 eebd f408 ae3c
00000190: 2432 f13d 8dfb 2abe 5f90 c93c c5c6 b63c
000001a0: 384d 2fbd 20ef 2abd 6109 b03c 697b b43d
000001b0: 17d0 b63d 9626 cfbd 73e7 573c 1a30 ecbd
000001c0: bcaf 1dbd d084 223d 0a1c ba3c 908c 32bd
000001d0: f6f4 2a3d 2789 423d c45f 16bc e908 263b
000001e0: 724f 8d3d 28f0 13bd 939e 6f3d 70fa c9bc
000001f0: 9397 1a3d 3069 ba3d 7ca7 ba3d 5d45 2c3c
00000200: 33b2 943d 42c7 cabd 5f3c 8f3d 770f 473c
00000210: fac4 5ebc a8d4 78be 5a15 da3a fac0 13bd
00000220: 7b1d 67bd bb54 7cbc f448 00bd 45d8 65bd
00000230: 6cd3 ef3d 6310 333e 11c0 d8bc 895e 8fbd
00000240: 6530 58bb abb5 2e3c 3c22 123e f3b2 a13d
00000250: c447 96bd 31b9 073c 41cd 58bc 1489 19bd
00000260: ad40 6c3b e2b3 01bd b695 30bd 218b aa3d
00000270: 315f a2bc be60 8b3d d044 333d eaf7 e2bc
00000280: 57e3 8dbd 76d1 9fbc 4107 4dbd 9c30 1a3d
00000290: 10af ed3e 9719 4abd 04a8 0f3d cf86 e9bb
000002a0: 9170 89bc e3a8 363d 9ffb e23c b23b 533c
000002b0: 2abc 883c 775f d9bc 6dc2 6d3d c324 1f3b
000002c0: 6dd0 463c 1178 10bc f3f2 4d3d acca 23bd
000002d0: 8eaa 9bbb 9905 dcbc 3edb 61bc 92f4 29bd
000002e0: f9dc 133c b148 de3b 2712 a9bb 53a7 773c
000002f0: 5b83 82bc 935c 8fbb 0b23 11bb c764 04be
00000300: 1054 67bd 5c70 f3bc a8cd 2dbd 12ea 1d3d
00000310: 684b 26bd f0a3 9b3f d472 d53d 6976 58bd
00000320: f3fc 973d a34c 1d3d 9485 7b3c c304 c93c
00000330: bb07 9cbd 8285 3f3c 835e 493b f064 ad3c
00000340: 223f e3bc 500d c6bc 5509 cf3c ae11 19bd
00000350: 90d7 77bd efe8 32bd 5672 82bb 39df f2bc
00000360: 4f97 4abd cb76 30bc 9c02 823b 8a87 683c
00000370: 88fc 8d3c 924f 5fbd 568c 643b 1a18 9bbd
00000380: 9caa 1fbe e7f2 d7bd a385 dbbd 3e07 923d
00000390: b987 513d 8bba 8f3d e01f 07bd 7563 193e
000003a0: 94d7 66bd 8cc7 7ebc 3a51 edbc 8d50 0b3e
000003b0: 5346 d73c 345f 01bb 1acd 043d c848 d33d
000003c0: 337b 01be 85ed 8a3c 5bfd 923d 1164 42bd
000003d0: 386c 4fbe 17a5 013e d133 f9bc a3c0 43bd
000003e0: 4874 a2bc 60e6 12bd 517c 4539 e482 26bc
000003f0: b60d 9c3c fefe 0fbd 779b 78bd 18c0 563c

fcs1.bias f4 [128]
-0.07898187 -0.0645149 0.113849424 -0.04082748 -0.05603554 -0.085207276 0.20493525 -0.10562132
0.090657346 -0.07483417 0.06661891 0.078808084 -0.056243837 -0.15844762 0.15631916 -0.12828067
0.07559962 -0.0550652 -0.15413697 0.06733031 0.10983906 -0.14161997 0.11343654 -0.07990849
-0.033873275 -0.1684234 0.18976326 0.09030117 -0.029003415 0.019899832 -0.025765976 -0.048334014
0.090364955 0.15186387 0.015919482 0.21830358 -0.03836809 -0.054473706 -0.10624559 0.10970412
-0.026831212 0.08772483 -0.22626762 0.11620463 -0.15110482 0.09713627 0.022096476 -0.0037962294
-0.1220498 -0.23832536 -0.058289524 -0.1748308 0.12572594 -0.041198395 0.023183683 0.20229414
0.075519584 -0.12262999 -0.008524208 0.014812081 0.094770096 0.019923732 -0.021922505 0.0019711647
0.040199134 0.04185922 -0.02663066 0.048766807 -0.04330722 -0.026160777 -0.09843512 -0.1746886
-0.058187574 0.17464271 -0.18939967 -0.08126195 -0.05710573 -0.04056731 -0.04421558 0.035657525
-0.17954485 0.10209511 -0.076736204 -0.06295575 0.17420276 -0.1102608 -0.014109451 0.015712088
-0.1703717 0.06949871 -0.16020967 -0.05486802 -0.12791723 0.19244719 0.108182825 -0.18667752
0.15508002 0.011284179 0.050536375 0.07068933 -0.1935358 0.14867768 -0.026868865 -0.015211021
0.034211785 0.13706407 0.0056631346 -0.0527921 -0.1387535 0.06554733 -0.12121675 -0.022184042
-0.13717501 -0.14561759 -0.038361236 -0.046495825 0.076197125 0.21858008 0.076216236 -0.035392724
0.038066268 0.14270861 -0.13066019 0.037474297 -0.14345375 0.14062199 -0.110256106 -0.01552962
00000000: 3fc1 a1bd 6320 84bd e329 e93d b73a 27bd
00000010: 8685 65bd 2781 aebd 8cda 513e fe4f d8bd
00000020: 8faa b93d a842 99bd 7f6f 883d 2266 a13d
00000030: f05f 66bd 1840 22be 2112 203e 025c 03be
00000040: f9d3 9a3d 0c8c 61bd 15d6 1dbe 79e4 893d
00000050: 4df3 e03d d304 11be 6b51 e83d 10a7 a3bd
00000060: b4be 0abd 2f77 2cbe 4d51 423e d2ef b83d
00000070: 9298 edbc f904 a33c 2b13 d3bc e3f9 45bd
00000080: 4311 b93d 3482 1b3e 9369 823c f98a 5f3e
00000090: dc27 1dbd d21f 5fbd 4a97 d9bd 8eac e03d
000000a0: 21cd dbbc 13a9 b33d b3b2 67be b1fc ed3d
000000b0: 39bb 1abe 61ef c63d ab03 b53c 29ca 78bb
000000c0: 3ff5 f9bd 900b 74be ffc0 6ebd d806 33be
000000d0: 4dbe 003e a6bf 28bd b5eb bd3c 3226 4f3e
000000e0: 03aa 9a3d 6f25 fbbd 1fa9 0bbc 5fae 723c
000000f0: d316 c23d 1837 a33c d396 b3bc a82e 013b
00000100: d9a7 243d 9374 2b3d 8b28 dabc b4bf 473d
00000110: e962 31bd 204f d6bc 5a98 c9bd 91e1 32be
00000120: 1856 6ebd 8ad5 323e fdf1 41be aa6c a6bd
00000130: b3e7 69bd e829 26bd 651b 35bd a00d 123d
00000140: 9bda 37be 3e17 d13d df27 9dbd f2ee 80bd
00000150: 3562 323e 6ad0 e1bd 542b 67bc a3b6 803c
00000160: eb75 2ebe 5755 8e3d 010e 24be 4abd 60bd
00000170: bcfc 02be e010 453e f58e dd3d 6428 3fbe
00000180: 4ccd 1e3e 47e1 383c 3bff 4e3d 91c5 903d
00000190: 402e 46be f63e 183e 181c dcbc a537 79bc
000001a0: a821 0c3d 865a 0c3e d191 b93b 873c 58bd
000001b0: 6615 0ebe ae3d 863d 7d40 f8bd 4fbb b5bc
000001c0: 9b77 0cbe c71c 15be ac20 1dbd 6872 3ebd
000001d0: 3d0d 9c3d 75d3 5f3e 4217 9c3d f6f7 10bd
000001e0: 60eb 1b3d 3522 123e c9cb 05be a67e 193d
000001f0: 8ae5 12be 36ff 0f3e f4cd e1bd f36f 7ebc

fc2.weight f4 [128, 132]
0.00593406 0.02465597 -0.050930128 0.0077867564 0.10038056 0.123038515 -0.10716319 -0.016518591
0.025918638 -0.08216088 0.05969277 0.027578015 0.075648196 0.07934709 -0.02502735 -0.12819867
0.007825958 -0.04529913 -0.14784381 -0.29957783 0.04745918 -0.12041634 -0.06581447 -0.08015312
-0.048005518 0.080876805 0.043779932 -0.003313766 0.0041725882 0.034922015 0.088851385 -0.00735032
-0.02988524 0.055760276 0.03850493 0.00812181 -0.03346769 -0.014181028 0.0036611287 -0.08433828
0.06790527 0.01320045 -0.061034925 0.022372287 0.034659553 0.020286182 0.06274222 -0.049198084
-0.10105192 0.048530508 0.09217639 0.039271034 0.121586874 -0.07779631 -0.007830048 0.014590355
-0.06434429 0.0358599 0.014227581 -0.06448553 0.027138468 -0.046893947 0.037171207 -0.0019144682
-0.050288156 -0.07987192 -0.04076127 -0.09740145 0.07028724 -0.15241274 -0.015748933 0.048374284
-0.061299723 0.08162283 -0.059636973 0.19709302 0.011586795 -0.021519542 -0.25082707 0.014369066
0.084662065 0.16421375 0.002850417 -0.05830308 -0.06750096 -0.09809252 0.13856274 -0.08160038
-0.0072279447 0.104378685 0.15167208 0.0061710197 -0.05109819 0.05631189 0.06774706 -0.05295433
-0.057421174 0.09541498 -0.03896233 -0.071241856 0.043475322 0.04581768 0.03582321 0.022365542
-0.28522065 -0.062069427 0.0075118057 -0.029478302 -0.04277285 -0.019650375 0.119808845 0.10833347
-0.043056414 0.07721165 -0.07621002 -0.47122037 -0.085098155 -0.04061336 0.014004207 0.099329636
0.001582876 0.03262291 0.0037729642 -0.015415105 -0.106877044 0.05157587 -0.096135 -0.05214688
-0.043428723 0.009416674 -0.0011929332 0.10442533 -0.0010139636 -0.03517461 0.011964087 0.1001739
0.03910267 0.23141158 -0.059283894 0.03860978 -0.12579873 0.06202738 0.067528024 0.042325083
0.06631775 -0.07255093 -0.005418697 0.016493626 0.04860197 -0.1693757 0.02338677 -0.16775769
0.1366301 0.058253422 -0.10456446 -0.048312996 -0.026900157 0.039966922 0.06863868 0.003035725
0.010043316 0.016820153 -0.037771188 0.04486705 -0.002709976 -0.018709823 -0.01593777 0.015943103
0.040677708 0.045162342 0.027823169 -0.058366716 -0.06130532 0.015534171 0.055478644 -0.0396114
-0.010525322 -0.0032591356 0.03628467 0.0016246046 0.036121994 0.16529901 0.05179833 -0.024331162
0.18842852 -0.010294754 0.021849869 -0.029695038 0.047769386 0.04145144 0.06943475 -0.029978232
-0.01627519 -0.13394202 0.012396708 0.12912859 -0.036064003 0.049541473 -0.03541232 0.021184508
-0.09587857 -0.3057798 0.09204925 -0.16881658 -0.18786946 0.0140799405 0.03497421 0.14952852
-0.04810367 0.08176028 -0.46932453 -0.072924756 -0.07790652 -0.00027220207 0.0068903705 -0.0026865867
-0.013358714 0.124332435 -0.0028855235 -0.013257927 0.03709115 0.06743253 -0.050806224 0.052143093
0.12476981 -0.039675556 0.03308363 -0.15076298 -0.20583963 0.066590905 -0.06281672 -0.041341227
0.11888471 -0.0027362776 -0.05826681 -0.021484021 -0.17012016 0.0043854797 0.07860497 -0.023130715
0.00010174142 0.0042527327 -0.012597324 0.06493451 0.031187098 -0.008318319 -0.024157587 0.074631274
0.060114667 -0.1115656 -0.06497651 0.13265903 -0.03533838 0.0066733267 0.011430625 0.027621185
00000000: 8172 c23b 51fb c93c 1c9c 50bd 0c28 ff3b
00000010: 5394 cd3d 9efb fb3d 6078 dbbd ff51 87bc
00000020: 5353 d43c f743 a8bd 6880 743d 4aeb e13c
00000030: 71ed 9a3d ba80 a23d 2806 cdbc 8346 03be
00000040: 7238 003c 958b 39bd 5e64 17be 4462 99be
00000050: 8f64 423d d89c f6bd bdc9 86bd 5227 a4bd
00000060: 6fa1 44bd bda2 a53d 9652 333d c52b 59bb
00000070: 35ba 883b 630a 0f3d b7f7 b53d f4da f0bb
00000080: e4d1 f4bc e364 643d 58b7 1d3d 5711 053c
00000090: 6b15 09bd 8b57 68bc 8cef 6f3b 8cb9 acbd
000000a0: eb11 8b3d b346 583c c2ff 79bd 1646 b73c
000000b0: 2df7 0d3d 352f a63c fe7e 803d ee83 49bd
000000c0: 4ff4 cebd edc7 463d fac6 bc3d aada 203d
000000d0: 8a02 f93d ac53 9fbd 9a49 00bc 620c 6f3c
000000e0: f0c6 83bd d5e1 123d cd1a 693c fd10 84bd
000000f0: 7e51 de3c de13 40bd d640 183d e5ee faba
00000100: f4fa 4dbd e493 a3bd 4af5 26bd 697a c7bd
00000110: c2f2 8f3d 1612 1cbe e803 81bc 1d24 463d
00000120: 6b15 7bbd df29 a73d e645 74bd c1d2 493e
00000130: 8ad6 3d3c c049 b0bc 686c 80be 3b6c 6b3c
00000140: 4e63 ad3d a627 283e 10ce 3a3b 36cf 6ebd
00000150: f13d 8abd bbe4 c8bd 64e3 0d3e 1a1e a7bd
00000160: 65d8 ecbb 7ec4 d53d ed4f 1b3e 4436 ca3b
00000170: 564c 51bd 4ca7 663d f8be 8a3d a4e6 58bd
00000180: 7732 6bbd ee68 c33d f796 1fbd 40e7 91bd
00000190: 2e13 323d 52ab 3b3d 5cbb 123d f137 b73c
000001a0: 7108 92be 833c 7ebd 9825 f63b 7b7c f1bc
000001b0: 9532 2fbd d3f9 a0bc 575e f53d f0dd dd3d
000001c0: ec5b 30bd 2421 9e3d 0014 9cbd cc43 f1be
000001d0: f147 aebd 325a 26bd e771 653c 566d cb3d
000001e0: 8178 cf3a 9a9f 053d d643 773b a38f 7cbc
000001f0: 5ae2 dabd 3841 533d 6de2 c4bd f897 55bd
00000200: 51e2 31bd 6548 1a3c 325c 9cba f3dc d53d
00000210: f9e6 84ba 4013 10bd 0505 443c f927 cd3d
00000220: 1f2a 203d 28f7 6c3e abd3 72bd 4a25 1e3d
00000230: 62d1 00be 6c10 7e3d 224c 8a3d 115d 2d3d
00000240: 9ad1 873d 9595 94bd 538f b1bb a41d 873c
00000250: dc12 473d d370 2dbe 9d95 bf3c acc8 2bbe
00000260: c3e8 0b3e 249b 6e3d e425 d6bd d9e3 45bd
00000270: b85d dcbc 5bb4 233d 7092 8c3d 04f3 463b
00000280: b88c 243c 6bca 893c f6b5 1abd 83c6 373d
00000290: da99 31bb 5845 99bc ed8f 82bc 1c9b 823c
000002a0: ab9d 263d 26fc 383d 6aed e33c f011 6fbd
000002b0: 4a1b 7bbd 0983 7e3c 933d 633d 903f 22bd
000002c0: 6672 2cbc 3997 55bb 3c9f 143d aff0 d43a
000002d0: a8f4 133d 2544 293e 7c2a 543d 2552 c7bc
000002e0: 68f3 403e 54ab 28bc 7ffe b23c 0243 f3bc
000002f0: d5a9 433d fcc8 293d ce33 8e3d e994 f5bc
00000300: 8c53 85bc 1928 09be 901b 4b3c 493a 043e
00000310: d9b7 13bd 00ec 4a3d 820c 11bd 228b ad3c
00000320: fc5b c4bd 2c8f 9cbe 5184 bc3d 41de 2cbe
00000330: da60 40be 8daf 663c 1e41 0f3d 011e 193e
00000340: 5b08 45bd ef71 a73d 4e4b f0be 9359 95bd
00000350: 748d 9fbd 58b6 8eb9 9ec8 e13b 7211 30bb
00000360: 82de 5abc 01a2 fe3d 0d1b 3dbb c737 59bc
00000370: e4ec 173d 111a 8a3d 301a 50bd ff93 553d
00000380: 5087 ff3d d682 22bd b382 073d 9c61 1abe
00000390: a0c7 52be d060 883d 0da6 80bd 6b55 29bd
000003a0: d479 f33d 1f53 33bb 2ea9 6ebd 42ff afbc
000003b0: fb33 2ebe 12b4 8f3b a4fb a03d a07c bdbc
000003c0: 025e d538 825a 8b3b 0265 4ebc 62fc 843d
000003d0: 167c ff3c 8f49 08bc 22e6 c5bc 48d8 983d
000003e0: cc3a 763d 817c e4bd 6812 85bd c5d7 073e
000003f0: fabe 10bd ecab da3b 8447 3b3c d345 e23c

fc2.bias f4 [128]
0.03554185 -0.044777233 -0.081254475 -0.059210293 -0.015162783 0.070578806 0.080630764 0.06435517
-0.08636858 -0.08729219 0.047865074 0.067941785 0.015805474 -0.062044162 -0.03412057 0.13426113
-0.16405188 0.0738804 -0.08121894 -0.017757693 -0.010662075 -0.024979508 -0.075613156 0.13970666
0.034945235 0.073940046 0.16087386 0.035665207 0.033866085 -0.038945537 0.06036672 0.040931143
-0.058146875 -0.07200214 0.19060108 -0.106063284 0.15329596 0.10146478 0.02327672 -0.105257675
0.0066479314 0.079450786 0.15374838 -0.13389874 -0.107812874 0.023328114 -0.056596026 0.07749557
-0.16476426 0.14793421 0.118312694 -0.098804764 0.112103365 -0.07214436 0.09124308 0.12045783
-0.10405664 0.07547472 0.13994424 0.0519773 0.16902135 0.17381346 0.17083277 0.10895128
0.091907665 0.07728993 0.1281557 -0.019077333 0.094347656 -0.13975924 -7.3134805e-05 -0.07456448
0.037581917 0.064151 -0.103657596 0.053237155 0.14675555 -0.15539835 0.12105309 -0.059702646
0.006929392 -0.051092535 -0.08077975 0.07132856 0.023146082 -0.12430428 0.010095423 0.09979513
-0.07826622 -0.029174797 -0.060010824 -0.12998533 0.10812506 0.10460385 0.012508474 0.07710795
0.07671681 0.11977692 -0.016661199 -0.109431416 -0.024420856 -0.028647758 0.10101584 0.05977046
-0.16129625 0.18412012 0.027687034 -0.12788936 -0.16026647 0.093180075 -0.017787198 -0.03473603
0.024692195 0.031306755 -0.17628689 0.027019298 0.16539653 0.14713898 0.019537054 -0.03144475
0.10194638 0.0020782333 0.08734992 -0.11523379 0.0907075 0.007341991 0.036084253 -0.054703597
00000000: 5594 113d 5568 37bd bf68 a6bd 7e86 72bd
00000010: 526d 78bc 9f8b 903d be21 a53d a5cc 833d
00000020: 03e2 b0bd 3fc6 b2bd 2b0e 443d 1025 8b3d
00000030: 7b7a 813c 0522 7ebd 03c2 0bbd c07b 093e
00000040: 37fd 27be 9b4e 973d 1e56 a6bd 9578 91bc
00000050: fcaf 2ebc d3a1 ccbc 12db 9abd 430f 0f3e
00000060: bc22 0f3d e16d 973d 1ebc 243e ae15 123d
00000070: 2ab7 0a3d 5b85 1fbd 1843 773d 6aa7 273d
00000080: 6b2b 6ebd dc75 93bd ee2c 433e b537 d9bd
00000090: 9ef9 1c3e c4cc cf3d d2ae be3c 5691 d7bd
000000a0: e4d6 d93b 18b7 a23d 3770 1d3e c01c 09be
000000b0: ffcc dcbd 9a1a bf3c 3cd1 67bd ffb5 9e3d
000000c0: f6b7 28be 117c 173e ed4d f23d 275a cabd
000000d0: 7396 e53d 6cc0 93bd a7dd ba3d 98b2 f63d
000000e0: a61b d5bd 7d92 9a3d 8b4d 0f3e 26e6 543d
000000f0: ef13 2d3e 28fc 313e c9ee 2e3e d921 df3d
00000100: 163a bc3d 2f4a 9e3d 3f3b 033e 1148 9cbc
00000110: 5839 c13d 0c1d 0fbe f35f 99b8 43b5 98bd
00000120: 7fef 193d 9961 833d 6f4a d4bd 340f 5a3d
00000130: 1647 163e bf20 1fbe afea f73d c38a 74bd
00000140: f40f e33b 6846 51bd db6f a5bd b514 923d
00000150: da9c bd3c 3e93 febd 4667 253c 6461 cc3d
00000160: 0a4a a0bd fcff eebc e9cd 75bd e01a 05be
00000170: ac70 dd3d 8b3a d63d 58f0 4c3c c6ea 9d3d
00000180: b41d 9d3d 9a4d f53d 117d 88bc 941d e0bd
00000190: 3f0e c8bc b4ae eabc 65e1 ce3d dfd1 743d
000001a0: d82a 25be fc89 3c3e ebcf e23c 6ef5 02be
000001b0: e51c 24be 32d5 be3d 75b6 91bc 5e47 0ebd
000001c0: 4947 ca3c 833b 003d 8d84 34be 9357 dd3c
000001d0: b55d 293e 9aab 163e 2c0c a03c 36cc 00bd
000001e0: 44c9 d03d f832 083b 84e4 b23d b1ff ebbd
000001f0: dbc4 b93d 1695 f03b 15cd 133d e110 60bd

fc3.weight f4 [1, 128]
0.11276772 -0.218362 -0.20008846 -0.18976888 -0.15988378 0.2814956 0.10909771 0.12718205
-0.38128757 -0.21803473 0.1261102 0.1088563 0.19333576 0.14048778 0.10944672 0.15156423
-0.1132375 -0.14477886 -0.07826851 -0.11038083 0.2501001 -0.04543742 -0.083776236 0.15357158
-0.18712455 0.24320748 0.095581725 0.2707206 0.18535697 -0.096604355 -0.42947236 -0.28218633
-0.109437294 -0.058760665 0.14142548 -0.2777504 0.09581218 0.07341159 -0.07524715 -0.13608992
-0.18281433 0.23893443 0.2671331 -0.20562965 -0.23071235 0.14460333 0.20120649 0.23352854
-0.13515705 0.10063504 0.21094193 -0.14326951 0.12826583 -0.1244351 0.27948985 0.17578658
-0.122181036 0.104392625 0.12777488 0.14491919 0.14060657 0.12472128 0.088962056 0.18266967
0.10955579 0.20197652 0.19571623 0.20498833 0.096441515 -0.15993784 -0.264572 -0.120045684
0.2304546 -0.13721016 -0.11159487 -0.43262997 0.13532168 -0.0927733 0.11293843 -0.09390015
-0.185904 -0.14187221 -0.07043635 0.2260136 -0.11623761 -0.0629551 -0.10301095 0.18855329
-0.10180271 -0.1533871 -0.24367619 -0.09618701 0.11848061 0.14896585 0.15372063 0.13640316
0.23321204 0.13815957 -0.30768326 -0.23688382 -0.20011571 -0.08731109 0.15845643 -0.2905915
-0.15158924 0.10302991 0.13040644 -0.113849066 -0.11882654 0.072516635 0.10698454 0.13126591
-0.2810544 -0.22922482 -0.07401832 0.31585968 0.097667895 0.104098506 0.08204988 -0.07494475
0.23166507 -0.17637144 0.0954422 -0.26351845 0.18838494 -0.08590885 0.071056366 -0.10200447
00000000: c3f2 e63d 4a9a 5fbe fde3 4cbe c652 42be
00000010: 93b8 23be 3120 903e 9f6e df3d 033c 023e
00000020: 2038 c3be 7f44 5fbe 0823 013e 0df0 de3d
00000030: cff9 453e 07dc 0f3e 9a25 e03d a733 1b3e
00000040: 10e9 e7bd e940 14be 3e4b a0bd 580f e2bd
00000050: 1f0d 803e 971c 3abd e092 abbd de41 1d3e
00000060: 949d 3fbe 620b 793e 5ac0 c33d e49b 8a3e
00000070: 38ce 3d3e 81d8 c5bd cde3 dbbe ba7a 90be
00000080: a920 e0bd 06af 70bd d7d1 103e 4d35 8ebe
00000090: 2d39 c43d d158 963d 2e1b 9abd 285b 0bbe
000000a0: ae33 3bbe 3aab 743e abc5 883e 9490 52be
000000b0: dc3f 6cbe e512 143e 1309 4e3e 1b22 6f3e
000000c0: 9c66 0abe be19 ce3d 2901 583e 3eb5 12be
000000d0: 1e58 033e d4d7 febd 4b19 8f3e 6601 343e
000000e0: 0d3a fabd cdcb d53d 6bd7 023e b265 143e
000000f0: 2bfb 0f3e df6d ff3d bd31 b63d c20d 3b3e
00000100: c95e e03d efd2 4e3e d669 483e 76e8 513e
00000110: 2183 c53d bfc6 23be fb75 87be 83da f5bd
00000120: 4afc 6b3e d280 0cbe da8b e4bd ad81 ddbe
00000130: c491 0a3e eeff bdbd 434c e73d b94e c0bd
00000140: 9e5d 3ebe f346 11be ef40 90bd 1c70 673e
00000150: fc0d eebd 9aee 80bd 68f7 d2bd 1d14 413e
00000160: f07d d0bd 8211 1dbe 4086 79be b2fd c4bd
00000170: f6a5 f23d 818a 183e f168 1d3e 45ad 0b3e
00000180: 23cf 6e3e b479 0d3e a988 9dbe ac91 72be
00000190: 22eb 4cbe 28d0 b2bd 6742 223e 69c8 94be
000001a0: 363a 1bbe 5801 d33d 4489 053e b329 e9bd
000001b0: 545b f3bd 9a83 943d b61a db3d 926a 063e
000001c0: 5de6 8fbe e9b9 6abe eb96 97bd 5cb8 a13e
000001d0: 1b06 c83d 9931 d53d c409 a83d a27c 99bd
000001e0: 9c39 6d3e b79a 34be 3377 c33d e4eb 86be
000001f0: fbe7 403e fbf0 afbd 0086 913d b8e7 d0bd
