checkpoint_actor_1.pth (torch, 87845 bytes, 6 tensors)

fc1.weight f4 [128, 33]
00000000: b6ef d93d 7806 733c bace 68bd 61cd f63d
00000010: 4bd0 ce3c dc00 043d d254 80bd 34b1 60bc
00000020: b8bf 5c3e a405 963d db35 373c 5f4b 33bd
00000030: 9aa2 a73d bd69 81be 311a 79bd 7fc0 f13d
00000040: d031 4fbd d4bb f1bd bc0f ac3d bda1 cabd
00000050: dc46 5dbc 0a93 183d b0fd b23b 34d9 bdbd
00000060: 5a42 a5bd 3ced 413d de1b 843e 191d 0cbe
00000070: 1e00 243e dbe9 41bc 6cee 623e 2c2b 60bd
00000080: 3dab b53d 076c 883d 599a 173e 7b95 893d
00000090: 2c09 283e 9526 5dbd 98ea c63c 2a51 8a3d
000000a0: 26b8 6cbd 7702 69bc 5941 5abd 16f8 613d
000000b0: 4e2e fcbb a172 a93d f02c d23c e236 593e
000000c0: 9f4c 5d3e 149c 8fbd c453 e03d deef 5a3d
000000d0: 468c b33c 3045 3d3b 5ed0 64bd a34b 763d
000000e0: da87 db3d 8ad4 8dbc d0fc 93bd 381b 3cbe
000000f0: e1ae 8abc 6f85 56be d214 77bd dd3c d83c
00000100: d947 0dbd 31b1 4b3e cb7f c5bd 233f 153e
00000110: a099 66bc 58b8 c23d a2d5 91bd c88c debb
00000120: 327c 83bc 5a64 d03a fb52 b93d 9c58 24be
00000130: 4114 d6bd a2e1 05bb acaa c6bd 5b73 4bbc
00000140: db1d 263d 2c2e 22bd 0093 04bd 4d5d a4bc
00000150: f1a3 8e3d b3f4 dabd c9cf d9ba acec 35bc
00000160: 66dc 8cbd d300 193d e226 403d 6f50 d1bb
00000170: 8732 7b3e 2f70 e23b d4f4 d3bd 5e9f 7ebd
00000180: 1c8c 9539 5fe3 aa3d 7ae1 e23d 6b71 d63d
00000190: d124 c1bd 7700 63bd c004 233c 8725 2dbe
000001a0: 79fd a53c 6e37 f2bc 6965 80bc d897 0abd
000001b0: bfb6 f73d e715 51be e439 0cbe 91a6 b73d
000001c0: 82d0 583b 8b89 b43d 8cbc 19be 89d6 8d3d
000001d0: d745 bfbc 0224 ad3c 410a ea3d 46ab 94ba
000001e0: cc12 b73d 6486 e23d 64c8 5bbe 7643 083c
000001f0: 02a2 393c df4d 103d 561e 45bd 5659 d53d
00000200: b0f8 23bc 7361 ea3d fd74 163b ea14 093e
00000210: 3137 323d 7526 6fbd f87d 24be b211 33bc
00000220: 4c76 9d3d 30a2 14bb 5852 dbbd 7337 7a3d
00000230: 9336 12be f2c2 a6bc f5d9 ebbc e401 55bd
00000240: 5df3 28bd 71a7 74bc e0be c3bd d853 75bc
00000250: 8060 ff3b 7b1e 22bd f70d 96bb 6d4c 8c3c
00000260: 09b2 37bd 8844 e0bc 6534 bebd 5249 ad3c
00000270: f72c 963d 423d 703c a7bc 273e 8c8d 8fba
00000280: c825 e53d 6ba8 933d 0798 f63d 544e 21bb
00000290: f308 1abe 113b 1a3d 422c 5c3e 2c22 a5bd
000002a0: 3f0c ee3c 9451 3cbc fb84 a03d 9985 993d
000002b0: 0c6f cebd 7002 4e3b 35bd 843d 7379 04be
000002c0: 3b87 e03d 7750 1abe ffb3 c6bc b119 543e
000002d0: 8f30 e7bd 7e90 8d3c 516e 513c bac8 10bd
000002e0: 4516 b63d 1cbd ff3b b8de 38bd 3ea0 c7bb
000002f0: ceb4 e53c cccc 5abd 062f 123d cb63 85bd
00000300: b987 1bbe c987 a43d 273e 30bd afce 283e
00000310: b71a f8bc 967f 90bc 32f1 1fbc d0c4 a93b
00000320: 41af 433d 5151 f9bc 1edb d43d 34e5 90bc
00000330: d19f df3c b482 10be 165a 87bd 2fa1 8f3e
00000340: ce7c f03c eb21 6abd 4f20 2f3d 6b95 7f3e
00000350: 0783 c2bc acd2 3e3d f29b e4bd cbbf bd3d
00000360: 4a03 613c 99ab 093b cebc 983c d150 e8bd
00000370: 1156 c53d fb49 bb3c afcc cebd f85e d6bc
00000380: c9cd 40be 424d 9fbb 0cbb 223e ef74 babc
00000390: 2a39 62b7 5aa9 6cbc 00d4 f93d 5ef7 723d
000003a0: 98f6 aabd 1a5f 54bd aaa0 2d3d 5ff9 17bd
000003b0: 0abc 383d ce2f f7bb 687d f6bd 0ba9 ca3c
000003c0: 4bb3 553d 37d8 3cbe 117d c7bd 1402 0d3d
000003d0: 226b 07bd 91bb 36be 2bcb 9ebd 6b4c 763d
000003e0: e4b8 90bc 1ee4 813d 7b91 933c 92bc 5ebe
000003f0: fc3d 453e 3a84 cd3d cc78 54bc 9228 e03b
0.10641424 0.014833085 -0.056837775 0.12050892 0.025245806 0.032227382 -0.06266178 -0.0137141235
0.2155751 0.073252946 0.011182274 -0.04377305 0.08185311 -0.25275984 -0.060815994 0.11804294
-0.050584614 -0.118034035 0.084014386 -0.098941304 -0.013505664 0.037249602 0.005462371 -0.09269944
-0.08069296 0.047345385 0.2580251 -0.13682975 0.1601567 -0.011835541 0.22161263 -0.054728672
0.08870552 0.066612296 0.14804973 0.06717964 0.16409749 -0.053991873 0.024281785 0.06753762
-0.057792805 -0.014221779 -0.053284977 0.055168234 -0.0076959496 0.08273817 0.025656193 0.21212342
0.2161126 -0.070121914 0.10953477 0.05345141 0.021917474 0.002888035 -0.055862777 0.060130727
0.10719271 -0.01731326 -0.072259545 -0.18369758 -0.016929092 -0.20949338 -0.06032259 0.02639621
-0.034492347 0.19891812 -0.09643515 0.14574866 -0.014074713 0.09507817 -0.07120825 -0.006791685
-0.016050432 0.0015899048 0.090490304 -0.16049427 -0.10453082 -0.0020428677 -0.09700522 -0.01241764
0.040555816 -0.039594814 -0.032366753 -0.02006402 0.06964863 -0.10691204 -0.0016617711 -0.01110379
-0.06877975 0.0373543 0.04691208 -0.0063877623 0.24530993 0.006910346 -0.10349432 -0.062163703
0.00028523884 0.08344149 0.110781625 0.104708515 -0.0943085 -0.055420365 0.009949863 -0.16908847
0.020262467 -0.029567447 -0.015673356 -0.033836216 0.12095403 -0.20418511 -0.13693959 0.08967317
0.0033083265 0.08815297 -0.15013331 0.06925685 -0.023348732 0.021135334 0.11427737 -0.0011342547
0.08939132 0.11060789 -0.21463162 0.008316865 0.01133013 0.035230514 -0.048124634 0.1041743
-0.010008022 0.11444368 0.0022957914 0.13386884 0.043509666 -0.058386285 -0.16063678 -0.010929512
0.07688579 -0.002267968 -0.10709065 0.061088037 -0.14278631 -0.020356629 -0.028790453 -0.052003756
-0.041247714 -0.014932499 -0.09557891 -0.014973603 0.007793486 -0.03957985 -0.0045793015 0.017126286
-0.044847522 -0.027376428 -0.09287337 0.021153126 0.07332795 0.0146630425 0.16380559 -0.0010952218
0.11188847 0.072098576 0.12040716 -0.0024613338 -0.15042476 0.037653986 0.21501258 -0.080631584
0.029058574 -0.011494059 0.07837864 0.07496185 -0.10079774 0.0031434558 0.06481401 -0.12936954
0.10963293 -0.15069757 -0.02425575 0.20712925 -0.11288559 0.017280813 0.012782649 -0.035347678
0.08890966 0.007804526 -0.045134276 -0.0060921004 0.028040316 -0.053417966 0.035689376 -0.065131746
-0.15188493 0.080337115 -0.043028023 0.16485094 -0.030286176 -0.017638963 -0.009762095 0.0051809326
0.047774557 -0.030434282 0.10393356 -0.017687418 0.027297886 -0.1411236 -0.066089794 0.2805266
0.029356387 -0.057161253 0.04275542 0.24959342 -0.02374412 0.04658763 -0.11162557 0.09265097
0.013733694 0.0021006821 0.018644717 -0.113435395 0.096355565 0.022862425 -0.10097634 -0.026168332
-0.18828501 -0.004861505 0.15891665 -0.022760836 -1.3483959e-05 -0.014444673 0.12198639 0.05931794
-0.08347815 -0.05184851 0.04238955 -0.037103053 0.045101203 -0.0075435406 -0.12035638 0.02473881
0.05217294 -0.18441854 -0.097406514 0.03442581 -0.033061154 -0.17844988 -0.07753595 0.06013147
-0.017666288 0.06342338 0.018013706 -0.21751621 0.19261926 0.10034986 -0.012968253 0.006840774

fc1.bias f4 [128]
00000000: 6e36 343d 931f 96bd c435 f53d 9922 e13d
00000010: 01b4 943d 4b26 47bd 64e8 1c3e 6251 2bbe
00000020: b594 713d efe9 73bb 49c1 2f3d 393f 4ebc
00000030: b476 caba 39cd 29be c4d0 d03c a87d 54be
00000040: 62ec 1e3e 52b8 fbbc 17a2 2d3d f257 8b3d
00000050: d18e 753d 94f4 ebbc f9d0 693e 4873 79bd
00000060: 400e 2d3e adab e6bc 1199 263e e896 f83d
00000070: d19d 62bc 187f 283e e285 79bd 2cc0 03bd
00000080: ca06 f13d b1ce 3a3e dbb0 3f3d d368 7a3e
00000090: a4d9 843d cad6 45be 6e63 fb3c e5ad 5b3e
000000a0: d09a 61bd be25 f03d d066 7abd 553c 1d3c
000000b0: 7d16 16be b1c7 c73a b5d1 2f3e 8d27 123e
000000c0: 88b4 1fbd 6182 fabd c1e7 33be 322e 25bd
000000d0: 75a5 703e cccb 733c c2c6 98bc 0ff4 663e
000000e0: 64f9 e03d 618a debd 171d f93d 55a6 debc
000000f0: 562a 9a3d 77da 593d 50a0 213e f486 543e
00000100: 3817 863c 3aad 1e3c 235b 38bd 8ea0 453e
00000110: 1491 733d 5767 46bc 36b6 c13c 8a46 cebd
00000120: 438a e93d f3b5 7d3e ab86 dcbd 7baa b53c
00000130: 019e 1a3e aff6 543d 1661 b13b 6365 bdbd
00000140: 6903 b4bd e75e 003e 36b6 a93d ba1c bcbb
00000150: f1c3 ba3d 1fe7 7abe 3281 423c 213b b7bb
00000160: 313b e1bc 29cd bb3d c667 b4bd 7c10 0c3b
00000170: 8c4b c23c 5a16 9a3e 6354 e83c 8c0e a13c
00000180: 2004 0b3e 7582 b93d 10b6 0b3e ba2d f93d
00000190: 6195 29bc d1b0 813d 7a1f bc3d 86b0 c7bc
000001a0: e4d2 073e e070 1f3e 5953 1e3c 1e8b 1ebe
000001b0: 31b1 833d 71fa 583e af91 25bd 44e3 0f3d
000001c0: 880d 40be 5a99 41bd 56df 843d cb97 2c3e
000001d0: 2cb3 00be 7ee1 173e ae95 5b3e c477 3cbc
000001e0: 6934 1f3e 0968 eb3d ea83 41bd ab3f 0a3e
000001f0: 1aea c0bc 5dd3 f83d 9cea 95bd a8e7 37bc
0.04399722 -0.07330241 0.119731456 0.10992927 0.072608955 -0.048620503 0.15323025 -0.16730264
0.05897971 -0.0037218293 0.04290894 -0.012588316 -0.0015446753 -0.16582192 0.025490172 -0.20751059
0.1551986 -0.03072754 0.04239091 0.068038836 0.059950653 -0.028803147 0.22833623 -0.060900956
0.16899967 -0.028158033 0.16269328 0.12138158 -0.013831572 0.16454732 -0.060918696 -0.03216569
0.11768873 0.18242909 0.046799522 0.2445405 0.06486824 -0.19320217 0.03068706 0.21453054
-0.05507928 0.11725949 -0.061133206 0.009596904 -0.14657016 0.0015242008 0.1716984 0.142729
-0.038990527 -0.12231899 -0.17568876 -0.04032726 0.23500617 0.014880132 -0.018649463 0.22554038
0.109850675 -0.108662374 0.121637516 -0.027178923 0.07527606 0.05318686 0.1578381 0.20754606
0.016368493 0.009684855 -0.04500879 0.19299528 0.05946453 -0.012109599 0.023646455 -0.10072048
0.114033245 0.2477644 -0.107678734 0.022176018 0.15099336 0.05199307 0.005413185 -0.092478536
-0.08789713 0.12536202 0.08286707 -0.005740729 0.09119404 -0.24502228 0.011871623 -0.0055917655
-0.027494045 0.091699906 -0.08808856 0.002137213 0.023717664 0.30095178 0.028360551 0.019660257
0.13575792 0.09058086 0.1364367 0.12166925 -0.010350556 0.06332553 0.09185691 -0.024376165
0.13264042 0.15570402 0.009663426 -0.15482756 0.06430281 0.21189286 -0.040422138 0.035128847
-0.18755162 -0.047265388 0.064879104 0.1685478 -0.12568349 0.14832112 0.21443817 -0.011503164
0.15547337 0.114944525 -0.047244944 0.1350085 -0.023549128 0.12149689 -0.07320139 -0.011224665

fc2.weight f4 [128, 128]
00000000: e08c 333d 5b37 1ebe 21fb c33d 418f 323e
00000010: 19a9 77bb 8b4f efbd eaee 80bd 8c3b 433d
00000020: e117 c43c 79de 8f3d f72e fe3c 4474 d23d
00000030: 87f0 463d ceb7 70bd 6e93 febb e6ce c5bd
00000040: c51c 64bc 8966 163d f20b 41bd b5df 813d
00000050: c5d7 2abe 5e79 99bd ba49 92bd 00f1 69bd
00000060: 6dbf 1bbe b2be 2f3d c31a 463e 242e 36bd
00000070: e953 f1bb 5810 f03a 0c27 7b3c 40f1 28be
00000080: 7d1d 0a3c 3db6 6c3d 307d 0dbe 24eb 4d3d
00000090: c8c4 8cbc cb8a c8bd 96d5 92bd 7676 893b
000000a0: d49b 4abe bb95 72bd 45af 76bd 7239 503e
000000b0: 0141 b8bc 229a b13d 33e1 90bd bc74 d5bd
000000c0: 9c7b 51bd bc52 03be 9a6f 5cbe d233 a23d
000000d0: 868d f1bd 8417 283e da8d 24be e300 f83a
000000e0: 248c cd3d 053c 033d 87bd ef3d 1cf1 cd3d
000000f0: 9b56 5a3d a6bc c4bd 8d80 2e3e c285 61bd
00000100: 40aa 303e 7107 1c3e 8c07 7c3a c745 043c
00000110: d835 363d b4dc 02be 3295 a7bc 5bba b23d
00000120: 9f28 a7bd f299 2abe c7f2 d03b 8e35 ab3d
00000130: 21a7 a13d 353a 22bd f729 19bc 4793 23bc
00000140: 8331 1fbd b163 273d 284e 5a3d b7de 363c
00000150: 25f9 f1bd a8a7 353e 802b adbd a89f 313e
00000160: b7d9 a43d 2dad 80bd 7096 0cbe b85e 89bc
00000170: e1b0 f43c 10e3 0b3d c7c3 a83d 8551 da3d
00000180: e40a 1e3e 994b 64bb afde 11be 66cc b13d
00000190: 4063 a73d 565a 95bd 22e0 0ebe d6eb 81bd
000001a0: 0d02 e23d fd8f efbc 71cd 33be a1cb 513d
000001b0: 416d e53c beab 393e bd9e 8d3d 1e56 5fbe
000001c0: fa1c aa3d 724a 9dbe dacd a83d af24 863d
000001d0: fcb5 82bb 1017 a63d 2b94 febb 2069 ce3d
000001e0: 5d25 813d 1f32 043e 0157 a83d a6de 5fbd
000001f0: c718 dbbd 2f01 d5bd 9ee2 b1bd e83d 16bd
00000200: 72e7 e1be b59c 783d fc7f 28bc a784 84be
00000210: b4ab abbc cee1 81bd 364c 49be 5241 c43d
00000220: b536 223e f801 1dbe a0ce 573d c27d 5d3e
00000230: 78fb 1ebe 5c75 003c b546 86bd dcf7 803d
00000240: 6e51 08bd b376 6a3d d062 5abd 5860 193e
00000250: e532 253e 32ab c6bd c796 7cbd a5f5 273e
00000260: a81b 843d e5ea 1abe 3e0b 46bd b2e3 8e3d
00000270: 363e 30be 5a9f de3d 5275 a43d 71d2 c53d
00000280: af83 82bd cfe7 25be d292 3dbe 14b3 78be
00000290: 1572 113e c0e4 df3d 7a15 093e f706 d7bc
000002a0: 2839 663c 6619 a3bd 6b28 203e 84a5 98be
000002b0: 6528 843d 3914 0d3e cd79 7d3c 89cf 3fbe
000002c0: acd0 1e3e 0fcf 013e d9eb 9e3b f982 25be
000002d0: 218c c43d dd44 b63d 7f6c acbd 74d2 523e
000002e0: 0a3e 8fbd e1a4 153d 28a2 033d fd29 173e
000002f0: 6761 c3bd 2672 1d3e 0bf1 d8bd b56c 0fbe
00000300: 7836 a6bd f87e 66be 2731 24bd 451d 53bd
00000310: 7ee2 5b3a bc96 8dbd 68ca c93d 2d53 cdbc
00000320: 012a 183e 8f9a 953c 1c5b 4dbd 1e0b b23d
00000330: 85be df3a 93d7 91bc 1297 9fbd cf6d 6cbd
00000340: 3b93 fe3b 7239 563d 5f7a 64be 9c53 653d
00000350: ed08 c2bd 6d47 423d 069c 6f3d 72ee 90bb
00000360: 9f9d 0a3c 9332 83bd 105c 533e a104 303e
00000370: 8c47 2fbd e630 8e3e 7a67 d6bc e8dd 2b3e
00000380: c061 07be 17b1 843d 0f79 003e 302d ecbc
00000390: 5de8 fabd 6d45 343e ab43 013e f299 0abe
000003a0: 846b d4bd 3841 133d c50b 9c3d 8d7b 46bc
000003b0: 9ff5 633e 88f9 2abe 37fb d03d 99da 893b
000003c0: 61a3 9bbe dd9c 63bd aeaf fa3d 5f84 393b
000003d0: aaa0 b03d a8e3 903d 4cae f33d dfe2 6dbd
000003e0: 6c72 4cbd 4ab0 d2bd 475e 833d 0511 e4bd
000003f0: 3596 503e 94d4 d7bc 1193 093e d968 3b3c
0.04383552 -0.15450804 0.095693834 0.1743746 -0.003779 -0.116850935 -0.06295569 0.04766421
0.023937168 0.07024855 0.031028254 0.10276082 0.04856923 -0.05876904 -0.00776904 -0.09658603
-0.013922875 0.03671888 -0.047130533 0.06341497 -0.16683872 -0.07493852 -0.071429685 -0.0571146
-0.15209742 0.04290647 0.19346146 -0.044477597 -0.007364739 0.0018315418 0.015329134 -0.1649828
0.008429882 0.057790983 -0.13817286 0.050273076 -0.017183676 -0.09792098 -0.071696445 0.00419503
-0.19786006 -0.059224825 -0.060225744 0.20334414 -0.022491934 0.086719766 -0.07074203 -0.10422656
-0.051143274 -0.1282453 -0.21526948 0.0792004 -0.117945716 0.1641522 -0.16069737 0.0018921163
0.10036495 0.03203966 0.11706071 0.100557536 0.05330525 -0.09606294 0.17041226 -0.055059202
0.17252445 0.15237214 0.00096141617 0.008073277 0.044484943 -0.12779504 -0.020456884 0.08726951
-0.08162045 -0.16660288 0.0063765976 0.08359824 0.078932054 -0.03960629 -0.009348384 -0.009983844
-0.038865577 0.040866558 0.05329719 0.011161498 -0.11815099 0.17739737 -0.084555626 0.1734606
0.08049338 -0.06283031 -0.13729262 -0.016768798 0.029869499 0.03415209 0.082404666 0.1066008
0.15433842 -0.0034835099 -0.14245103 0.08681564 0.08173227 -0.07292621 -0.13952687 -0.0634381
0.110355474 -0.029243464 -0.17558838 0.051219586 0.028006198 0.1813192 0.069150425 -0.21810195
0.08306308 -0.3072086 0.08242388 0.065499656 -0.0039889794 0.081098676 -0.007769128 0.10078645
0.063059546 0.12909745 0.0821972 -0.054655693 -0.10698085 -0.104006164 -0.08685802 -0.036680132
-0.4412189 0.060696322 -0.01028442 -0.25882456 -0.020955898 -0.06341897 -0.19657978 0.09582771
0.15841182 -0.15332782 0.052687287 0.21630004 -0.15525615 0.007840481 -0.06556455 0.062972754
-0.033280782 0.057242107 -0.05331689 0.14978158 0.16132696 -0.09700622 -0.06166723 0.164023
0.064505875 -0.15128668 -0.048350565 0.06977023 -0.17211232 0.10870238 0.080301896 0.09659279
-0.06372773 -0.16201709 -0.18513039 -0.24287063 0.14203675 0.109323025 0.13387099 -0.026248438
0.014051713 -0.07963829 0.15640418 -0.29813778 0.06453017 0.13777246 0.015470934 -0.18731512
0.1550929 0.12676643 0.0048498926 -0.16163243 0.0959704 0.088998534 -0.084191315 0.20588094
-0.06994255 0.036534194 0.032137066 0.14762111 -0.095400624 0.15375575 -0.1059285 -0.14006312
-0.08115858 -0.22509372 -0.040085938 -0.051541585 0.0008387937 -0.06913516 0.09853059 -0.025064075
0.14859773 0.018262176 -0.050135717 0.08693527 0.0017070329 -0.01780299 -0.07792486 -0.05772191
0.007769016 0.052300878 -0.22312306 0.05598794 -0.09474359 0.0474314 0.058498405 -0.004422956
0.008460431 -0.06406131 0.20640588 0.17189266 -0.04279284 0.27771682 -0.026172388 0.1678387
-0.13220882 0.0647909 0.1254618 -0.02883014 -0.12251351 0.17604609 0.1262347 -0.13535288
-0.103720695 0.03595087 0.07619432 -0.012114418 0.22261666 -0.16696751 0.102041654 0.004206967
-0.30398086 -0.05556952 0.122405395 0.002830766 0.08624394 0.07074672 0.11898479 -0.05807769
-0.04991381 -0.10287531 0.06414466 -0.11136059 0.203698 -0.026346482 0.13435008 0.011438572

fc2.bias f4 [128]
00000000: 4a94 413e 9540 b23d b22e 9839 fcde bf3d
00000010: 74ef d0bc c96a a43d c401 bc3d ebb0 003d
00000020: 134a 043d a148 013e b35e a53c 1fcf c13d
00000030: 87c3 f1bd 3abf 4f3d 6088 eabc 8dc9 02be
00000040: 7a28 e53d 9e38 e9b9 05ea c13c b5f5 023c
00000050: 8563 a03c 9925 dfbb 3368 b8bc 5623 5c3d
00000060: 348a 693d 4f75 f03c db66 03bd bfb6 31bb
00000070: c149 aebd e5cb 1cbd 3ec5 2bbd 14ab 423d
00000080: ee83 e73c 6cf9 c73d 4776 e9bc 4fa9 133d
00000090: da54 ad3d 173b e33c 0768 7dbc b370 babd
000000a0: 5da3 e53c a496 a83d 31e9 903c 57c8 113e
000000b0: c32f 893d 3eae 3f3c d822 e33d e878 57bd
000000c0: d673 143d 8bcc 6abd 829e 123e 80e2 553d
000000d0: d8d4 debd a777 9b3d f621 413c 11a0 b4bd
000000e0: c140 88bd d18c 773c 3059 e73d 6549 403d
000000f0: d2f8 6c3a c5fc a83d 5f00 f33d 39c7 923c
00000100: 8429 e83d b56d 8ebd 9602 1cbb c208 033b
00000110: 79cd 4e3d b61d 06bd dd3a d4bd eae7 cfbd
00000120: eb8c 76bd c860 6e3d 972e 36bd 9428 893d
00000130: b7f9 003e e6d1 aa3d 2612 84bc 0305 d33c
00000140: 0e50 24bd c6d0 a3bc 26cf 213d 9467 08bc
00000150: 6a4b 5dbd 0af7 31bd 75df b8bb 9df3 8cbd
00000160: 6099 783d 657e 463d a783 753d fcd7 543c
00000170: 0170 273c 428a c03c 5cf2 a5bd 0999 16bd
00000180: 3c5b 193d b67d cf3d a53d 77bd b7e1 ac3d
00000190: 72e1 5bbb 0a9d 15bd 0ac5 09be d154 ec3c
000001a0: 32a4 9d3d d106 5bbd 7fee c53d d314 423d
000001b0: 5e1a f33c d61f 4f3e 7232 623d 9140 b73c
000001c0: 1949 e03c 68c0 5e3e cdeb 72bd 3231 d53d
000001d0: 6367 653d a960 a0bc aae6 d7bc f957 b23d
000001e0: 8aab 1cbc 69ca d53c cc9a babc 6d61 cf3d
000001f0: 8417 c4bd d496 bebb 1bfa 4fbd 4f58 b13d
0.18904224 0.08703724 0.0002902649 0.09368703 -0.025504805 0.0802818 0.09180024 0.031418722
0.032297205 0.12625362 0.020186758 0.09463333 -0.11804872 0.050719477 -0.028629482 -0.12772198
0.11189361 -0.00044483406 0.02367116 0.007993151 0.019578705 -0.006809902 -0.022510624 0.053744636
0.057016566 0.029352812 -0.032080512 -0.0027116982 -0.08510161 -0.038280386 -0.04193615 0.047526434
0.028261151 0.0976437 -0.028498782 0.036050137 0.0846345 0.027738137 -0.015466697 -0.09103527
0.028032 0.082318574 0.01768932 0.1423658 0.06698563 0.011699257 0.1109063 -0.05260554
0.036243282 -0.057323974 0.14318278 0.05221796 -0.108804405 0.07591181 0.011787882 -0.08819593
-0.06652976 0.015109257 0.11296308 0.046944994 0.00090397627 0.08251337 0.11865305 0.017917262
0.113360435 -0.06954519 -0.0023805252 0.0019994234 0.050488923 -0.03274318 -0.1036279 -0.10151656
-0.060192984 0.058197767 -0.044478025 0.06697193 0.12595259 0.08340816 -0.016121935 0.025759226
-0.04011541 -0.019997012 0.039504193 -0.008325476 -0.054027 -0.043448485 -0.0056418725 -0.06882403
0.060693145 0.048460383 0.059940007 0.012990948 0.010219575 0.023503426 -0.08102867 -0.03676704
0.037440524 0.10131399 -0.060361523 0.08441489 -0.0033551124 -0.036526717 -0.1345407 0.028849037
0.076973334 -0.053473298 0.0966463 0.04738314 0.029675659 0.20226988 0.05522389 0.022369655
0.027378606 0.21753085 -0.05930691 0.10409774 0.0560068 -0.019577341 -0.026355106 0.08708186
-0.0095623825 0.026097493 -0.022778891 0.10126004 -0.09574798 -0.00581632 -0.05077563 0.08659422

fc3.weight f4 [4, 128]
00000000: 3985 e5bd e724 953e 72ad 60be 5739 b13d
00000010: 1221 613d a145 91bd ac04 0cbe 22bc 32be
00000020: 9b6f 32bb 51a8 ddbd af0d 89bc 8cfe debd
00000030: 2ba8 45bd ed26 c3bd ec8d 3d3e f670 cbbc
00000040: 700c 20be dc15 96bd 70bf 1fbe acfe 00be
00000050: db2b 1d3e b5d7 9f3d c3ca 0bbc 6a38 4d3e
00000060: 1121 1e3e 3ee4 0bbd 6065 3d3e e9a1 ccbd
00000070: 5132 1c3e c52b b0be 540b 0a3e 2406 36bd
00000080: fe01 4dbd 9c20 05be 030b 7b3c 2a0f 4f3d
00000090: 9201 ccbd 1f0d 1cbe f60c 4cbd 74c0 12bd
000000a0: 4e55 bd3a 7ce6 f5bd ae3e df3d 81ff 11be
000000b0: e5c0 3d3e f7ba d8bd b486 55be 1ed3 103a
000000c0: a42e 283e 4372 d4bc 56ca 81bd c188 383e
000000d0: f123 c83d 0c5a 40bd d12b 58bd c12a 543e
000000e0: d304 e23c fb4e 0abe baed 6e3e 61f7 45be
000000f0: e4a1 623e 73a7 9cbc 4de6 b6bd 220a 083e
00000100: 088d 9cbd 10c8 dfbd a421 b03c 280a e7bd
00000110: 0140 853e a3c3 103e fb05 9a3c def0 143e
00000120: 1f20 f5bd 65d2 53bd 9d66 77bd a68d a2bc
00000130: 2f17 99bd cbc3 92bc 1b61 963d 4f57 153e
00000140: 5f8c 223e f96f 80bc 9707 00be 2dc4 fa3c
00000150: 337b 7ebd ea4d 103e 8c60 adbd e1a3 2c3d
00000160: 29af 043e 320e f6bd 1017 173e ebdf 273d
00000170: a79e e0bd a444 8cb9 a662 12bd 2dfd c73c
00000180: 5992 b7bd 1302 d9bd 9781 c53c f7c4 4bbd
00000190: 017a 833e df13 64bb 4f08 50ba 18e7 fc3c
000001a0: d82a 5b3d dd79 9f3d 51f2 9c3b 67ad 32bd
000001b0: ac2d b23d 0df7 48bd 2c40 3b3e 479e 133e
000001c0: 68a9 c1bb fb8a 543c 9dab 02be 81cc 63be
000001d0: 2d9c 003d 9ff0 dabc 512d cf3d 988a 4c3e
000001e0: a1e4 a33d 543c f6bd 21e7 8fbd d7f6 94bd
000001f0: 4543 063e 9da7 4a3e 520c 043b e623 563e
00000200: 3634 27bc f22b 75be 1bef e0bc 91a0 a8bd
00000210: 0007 83be d8e7 df3d 9d7f 2ebc 2eef 313c
00000220: 3c71 04be 088a a4bd 5df1 5abe 8e47 a9bc
00000230: cb6a 8dbe 3f06 203e 3eb0 b73c 77c3 abbd
00000240: ed71 453d 2327 fe3d f347 3c3d ca8e 5abb
00000250: ddb5 393e 7d01 b7bd aed4 babe 5359 bc3d
00000260: 6091 16bd 2a3f 94bc db5d 05be 983e 2fbe
00000270: a315 5dbd d29a a43c 1ec2 bebe e607 89be
00000280: a425 a33c b2dc 81bc dea5 40bd a9e8 243e
00000290: b85d b53c 1845 46be f106 bdbd 9e10 d2be
000002a0: ee9d d33d 847b a93d f244 83be b3c5 eb3d
000002b0: 5441 f1bd 5164 8a3c dc3d f83d e3eb 89be
000002c0: ba2a 67bc 5602 11bd bc4d 0f3e c3f3 44bd
000002d0: 6e97 4dbe 9d7e 193c de8b a5bb 51ef 41ba
000002e0: 8f3c 04bf 3270 f4bd 8a58 ebbd d4e9 12bd
000002f0: 526b 43be 0db7 103e aa04 9a3d dd02 183c
00000300: 6620 c8bc ee80 56bc edb3 04bd e365 91bd
00000310: 68ca f43d 115d f2bd 11bd 8ebe 5bb4 2ebc
00000320: daa2 18be c54f 2d3e 9f7a 1dbd 67ec 093e
00000330: a123 31bd 0910 153e 986b e23d cb13 8bbe
00000340: 8d5a 69bd 600c 193d 7d01 4b3d 0b9b 83be
00000350: 22ca d8bc 12a1 6ebe 005c 993d 90fb 9abe
00000360: 6740 06bd 3fc3 8abe d056 55be 0337 aebe
00000370: e186 df3d 8e31 19be c601 e4ba 5bb8 82be
00000380: f481 303d ee5f 5c3c 4b39 92bd f808 0d3e
00000390: a43c c03d 6fed 14bd 7023 27bc 1ae5 fc3d
000003a0: 8d0f 25be eb9f 053d 79fe a9bc 0116 833c
000003b0: 3999 b939 fac1 d33c 84d2 ed3d 81bb 5c3d
000003c0: e4dd 14be 885f 9e3d 803e c7bd 2770 3f3d
000003d0: 8718 c03d 55c5 8abe 6d5c 8bbd 3556 3f3d
000003e0: f428 703d 124d 6f3d 230f 78be 4101 81bc
000003f0: bca3 25be 3cce a6be dd4b cfbc acc8 55bd
-0.11207051 0.29129717 -0.21941164 0.08653515 0.05496318 -0.07093359 -0.13673657 -0.1745458
-0.0027227167 -0.108231194 -0.016730158 -0.10888395 -0.04825608 -0.09528909 0.1851117 -0.024834137
-0.15629745 -0.07328388 -0.15600371 -0.1259715 0.15348761 0.07804815 -0.008532229 0.20041052
0.15442301 -0.034153216 0.18495703 -0.099918194 0.15253569 -0.34408394 0.13480884 -0.04443945
-0.050050728 -0.1300072 0.01532245 0.05055157 -0.09961237 -0.1523938 -0.049817048 -0.03582807
0.0014444978 -0.12006852 0.10900627 -0.14257623 0.18530615 -0.10582536 -0.20852166 0.0005524623
0.16424042 -0.02593339 -0.06337421 0.18020917 0.0977248 -0.046960875 -0.05277616 0.20719434
0.027590191 -0.13506691 0.23332873 -0.19332649 0.22132069 -0.019122815 -0.08930645 0.13285115
-0.07644087 -0.10926831 0.021500416 -0.11281234 0.26025394 0.1413713 0.01880168 0.14545009
-0.11969017 -0.05171432 -0.060400594 -0.019842934 -0.07475125 -0.017915627 0.0734274 0.14584087
0.1587386 -0.015678393 -0.12502895 0.030611122 -0.06212921 0.14092222 -0.084656805 0.042148475
0.12957443 -0.12014426 0.14754891 0.04098503 -0.109677605 -0.00026754022 -0.03573861 0.024412716
-0.089634605 -0.10596099 0.024109645 -0.049748387 0.2567902 -0.0034801883 -0.00079358084 0.030871913
0.053507656 0.077869155 0.0047896286 -0.0436224 0.087001175 -0.04906373 0.18286198 0.14415847
-0.0059100874 0.012972589 -0.12760778 -0.22245981 0.03139894 -0.026726065 0.10116065 0.19974744
0.08002592 -0.120232254 -0.07026506 -0.072736435 0.13111599 0.19790502 0.0020148945 0.20912132
-0.010205319 -0.23942545 -0.027457764 -0.082337506 -0.25591278 0.109328926 -0.010650543 0.010860248
-0.1293382 -0.0803414 -0.21381135 -0.020664003 -0.2762054 0.15627383 0.022422906 -0.08386891
0.04820435 0.124098085 0.045967054 -0.003334927 0.18135782 -0.08935831 -0.36490387 0.09196725
-0.036759734 -0.018096525 -0.13024084 -0.17113721 -0.053975713 0.020093355 -0.37257475 -0.2676384
0.01991541 -0.015852306 -0.047033183 0.16104378 0.022139415 -0.19362295 -0.092298396 -0.41028303
0.10332857 0.08275512 -0.2563854 0.115123175 -0.117800385 0.016893538 0.12121174 -0.2693778
-0.014109308 -0.03540262 0.13994497 -0.04808403 -0.20077297 0.009368566 -0.005052074 -0.00073980266
-0.51654905 -0.11935462 -0.11491497 -0.035867527 -0.19083908 0.14132328 0.07520421 0.009278026
-0.024429511 -0.013092263 -0.032398153 -0.070995115 0.119526684 -0.11834157 -0.2787862 -0.010663117
-0.14905873 0.16924961 -0.03844702 0.13469087 -0.04324687 0.14556898 0.11055678 -0.27163538
-0.05697112 0.037365317 0.049561966 -0.25704226 -0.026463572 -0.23303631 0.07488251 -0.30270052
-0.032776263 -0.27102086 -0.20833898 -0.34026346 0.10914398 -0.1496031 -0.0017395548 -0.25531277
0.043092683 0.013450606 -0.07139834 0.13772953 0.09386566 -0.036359247 -0.01020132 0.12348385
-0.16119213 0.032623213 -0.020751225 0.016001703 0.0003540011 0.025849331 0.11612418 0.053889755
-0.1453777 0.07733065 -0.09728718 0.046737816 0.09379678 -0.27103677 -0.06804738 0.046713073
0.058632806 0.05842311 -0.24224524 -0.015747668 -0.16175741 -0.3257922 -0.02530473 -0.05219333

fc3.bias f4 [4]
00000000: 03e2 adbd c1c5 2f3e 4190 5bbd a698 6d3d
-0.08490374 0.17165281 -0.053604368 0.058006905
