checkpoint_critic_final.pth (torch, 88421 bytes, 5 tensors)

fcs1.weight f4 [128, 33]
00000000: f7eb b1bd 3c38 3c3d 371b 283e 9e0b 683b
00000010: bdad 0b3d 937b 593d df76 5a3d 7fb1 9e3d
00000020: a06a 393e 3ae7 febd e14c 27bc e3a8 c33d
00000030: 23b7 773c 95f5 5d3d e87e 12bd 988f 85bd
00000040: ffe7 3abd 4c55 613c f103 01bc f11a 60bd
00000050: 786e 80bc 8ba6 b7bd d9ad 003c df7a 0dbd
00000060: d7fa 093c f71c 62bd 86ab 4ebd a75f 15bc
00000070: c790 a7bd 5018 c53a 65dc 293d e392 af3a
00000080: 5daa b03d 43e6 803d 05bb fc3d 6f14 5a3d
00000090: f9cf 2b3d 3fe7 ce3b c66c 743d 4736 313d
000000a0: d03f 17bc 6fdc d53d a5d0 c13d 0500 5e3d
000000b0: 015d ec3c 2117 ae3c 3f4d aabd c223 05be
000000c0: 4740 e8bd c2e3 7cbd 2c5c 903c 333b 5ebc
000000d0: 4659 cdbc f7f9 073c 82fa a6bd 148f 813c
000000e0: 99fe f13c 9d11 c6bc fe0f 28bd 9992 883d
000000f0: 1e52 04bd 5620 2b3d fb29 d7bc e41c 973d
00000100: 60fc dabc fdd9 8f3d 8ffd 42bd 73e4 60bd
00000110: c85b 003d 87c9 a23c 3630 993c 386b 363d
00000120: 121a ec3d 93d3 adbc 46b0 d03d 9507 fcbc
00000130: 4fc5 ae3c 1d19 c0bb e73b a8bc 2604 1a3c
00000140: c8d1 a1bd 7796 413d 4f96 773d 87b4 093d
00000150: 26ce efbc 25c9 8abc 52b7 fd3b ddb1 1bbc
00000160: 913f 053d 5f8c 07bc 4384 44bd 7e0c 8abc
00000170: d989 363e 91de e23c 760d a9bd f4ff 943d
00000180: b616 f6bc b234 f1bc 1746 c83d a69d cd3c
00000190: 6977 abbd 355c 1bbe c244 653d b533 e43b
000001a0: e2d6 393d 6c48 543c 96f6 83bd 83fc f33d
000001b0: 762c 4ebd d3ac cebd c9e1 24bd fd15 a43c
000001c0: 9e73 553d 597a fa3c 1501 afbb 984f 263c
000001d0: 338d fabc 4427 553c 39df e7bb 5366 023b
000001e0: 7a08 f13c 6653 56bd 6e62 b4bc c5bb c4bc
000001f0: 5895 90bd 2779 9c3d 9277 e83b 8711 c93b
00000200: 33b2 943d b038 75bc 5f3c 8f3d 7d04 c0be
00000210: a170 3d3e edb7 e0bd 938a a6bc af5d 36bd
00000220: ad3d 7e3a 42d1 a73d 918b 863d c143 55bb
00000230: 9ca1 b53b b889 913b 31d1 adbb 9008 8fbb
00000240: 7704 31bd bf35 30bc 1239 133e 048f 5c3d
00000250: 8077 44bb 5757 c2bc f1e9 b6bc c804 e7bc
00000260: 3ef4 4cbc 8e5a ecbd af29 d2bd 54e9 e43c
00000270: 7a86 883c c5b2 713d 1e08 afbd 0028 aabd
00000280: 377d b0bd 76d1 9fbc f96b ae3b 9c30 1a3d
00000290: 5818 9f3b 9215 babd 6a43 b4bc d2f1 a8bd
000002a0: e16d 9ebc c7b0 cf3b 6223 eb3a 57a8 b4bc
000002b0: 10be 0d3b ec84 0f3a 0255 5ebb c1dc 1fbc
000002c0: 03a4 98bb 97d9 b2bb 03a6 333d db82 b5bc
000002d0: decc c33c 0e79 26bc c2d4 243c ac47 d33b
000002e0: cdb5 443d 74eb a5b9 3b73 42bb 1fe0 04bb
000002f0: b328 b23c 293f 423b d800 bcbb 8b61 83bd
00000300: ce5f 543d af62 bfbb a8cd 2dbd dee4 8ebd
00000310: 684b 26bd 7403 3a3f c62f 0bbb 2d4e bcbd
00000320: b8cd 2c3d a0e5 80bc 95ea d4bc 550f 673d
00000330: fbcc 68bc 2d8f 5e3c 220b 86bb 3ec9 5bbc
00000340: bcdb 1d3b e1aa 8abc b66e ce3c be70 063d
00000350: 088e 29bd 8018 96bd 3b09 7dbd bb3f 9bbd
00000360: fd65 d3bb 3687 ac3c 1cb8 2a3d accf 3d3d
00000370: d96a bdbc d1df 7b3c 65ff 65bc 164e 98bb
00000380: 44d9 a9bd e4f8 ecbd c121 69bd 3e07 923d
00000390: b291 7b3d 8bba 8f3d f2ec 65be 4e16 23be
000003a0: a9e3 1bbb 0185 c43c c579 8fbb 5a4b e13d
000003b0: 23ff 84bc b6ed 37bd 618b 53bd 7b7c f43d
000003c0: 1b5d 2dbe 352c 0bbe c269 1b3d 34dc 053d
000003d0: ebbe c5bb f169 17bd 4bbb 24bd 1dcf 82bb
000003e0: 6deb cdbb feaa 3f3d 47e7 77bc ac9a dbbb
000003f0: 902f a73d f388 4fbd 93ad 893d 780f 4e3b
-0.08687585 0.045952067 0.16416632 0.0035407315 0.034101237 0.053096365 0.05333602 0.077486984
0.1810708 -0.12446447 -0.0102112 0.09553697 0.015119347 0.054189283 -0.03576556 -0.06521529
-0.045631405 0.0137532465 -0.007874475 -0.054713193 -0.015677676 -0.089673124 0.0078539485 -0.034541007
0.008421621 -0.055203404 -0.050456546 -0.009117044 -0.08181911 0.0015037153 0.04146995 0.0013395216
0.08626244 0.06293919 0.12340359 0.053242143 0.041946385 0.006314188 0.059674047 0.043264654
-0.009231523 0.10442435 0.09463624 0.054199237 0.028852941 0.021251263 -0.08315515 -0.13001922
-0.11340385 -0.061740644 0.017622076 -0.013563919 -0.025066983 0.008299342 -0.08153249 0.015815295
0.029540347 -0.02417832 -0.041030876 0.06668586 -0.032304876 0.041778885 -0.026265135 0.07378557
-0.02673167 0.07024 -0.047605094 -0.054905366 0.03133753 0.019871486 0.018699747 0.044535846
0.1152841 -0.02121905 0.101898715 -0.030765334 0.021334318 -0.0058623687 -0.020536376 0.009400403
-0.07901341 0.047262635 0.06044608 0.03361943 -0.029273104 -0.016941616 0.0077428007 -0.009502855
0.032531325 -0.008273213 -0.047977697 -0.01685166 0.17826022 0.027694019 -0.082545206 0.07275382
-0.030040126 -0.029444072 0.097789936 0.025099587 -0.08372385 -0.15171893 0.055973776 0.006964172
0.045370944 0.01295672 -0.06443517 0.11913397 -0.05033537 -0.10091557 -0.040254388 0.020030016
0.052112214 0.030575918 -0.005340705 0.010150813 -0.030584907 0.01300985 -0.0070761708 0.0019897416
0.029422987 -0.05232563 -0.022019591 -0.024015317 -0.07059735 0.076402955 0.007094332 0.0061361226
0.07260551 -0.014967129 0.06993937 -0.37503424 0.18499996 -0.10972581 -0.02032975 -0.044522937
0.00096985215 0.0819421 0.06569589 -0.0032541605 0.005542947 0.004441466 -0.0053044786 -0.0043650344
-0.04321715 -0.010755002 0.1437724 0.053847328 -0.0029978454 -0.023723288 -0.022328349 -0.028200522
-0.012509404 -0.115407094 -0.10261857 0.02794329 0.016665686 0.05900838 -0.0854647 -0.08308411
-0.08617633 -0.019509058 0.00532293 0.037644014 0.004855197 -0.090861455 -0.022004802 -0.082492486
-0.019339504 0.006338212 0.0017939622 -0.022052927 0.0021628179 0.0005474824 -0.003392518 -0.009757222
-0.0046582236 -0.0054580676 0.043859493 -0.022157123 0.0239014 -0.010160698 0.010060491 0.006447753
0.04802494 -0.0003164668 -0.0029670733 -0.0020275188 0.021747923 0.0029639697 -0.0057374053 -0.06415089
0.05184918 -0.0058406214 -0.042432457 -0.06977247 -0.040599257 0.7266152 -0.0021238192 -0.09194598
0.042188376 -0.015734494 -0.025990764 0.056411106 -0.014209027 0.01358394 -0.0040906826 -0.013414679
0.002408727 -0.016927185 0.025199275 0.032822363 -0.041395217 -0.07328892 -0.06177638 -0.07580515
-0.006451367 0.021060567 0.041679487 0.04634063 -0.023122238 0.015373186 -0.014037942 -0.0046479804
-0.08293393 -0.115709096 -0.056916956 0.071302876 0.061418243 0.07018002 -0.22453669 -0.15926477
-0.002378682 0.023989202 -0.0043785297 0.110007 -0.01623494 -0.044904433 -0.051646594 0.11937805
-0.16930048 -0.13591082 0.037942655 0.032680705 -0.006034722 -0.036966268 -0.04021768 -0.003991975
-0.0062841685 0.04679393 -0.015130824 -0.006701788 0.08163369 -0.050667714 0.0672256 0.0031442326

fcs1.bias f4 [128]
00000000: 881e fdbd ea4a 11be 5151 1e3e 8205 313d
00000010: ef12 2cba e42d 46be ba5b 5c3e d935 ecbd
00000020: 8705 483e 4533 5abd 409c af3c a617 b93d
00000030: c786 4ebd 0f41 f0bc 9139 4b3e e159 0fbe
00000040: fc3e f63d 4333 3cbc 3cab cbbd af22 1d3d
00000050: a662 483c 5f99 1ebe f547 2e3e d049 95bd
00000060: b7b2 ab3d 8834 613b 5849 023e 403d 923d
00000070: 2fe1 ebbb 599d 013e 6bf7 e53c 59dc efbd
00000080: eabf 693d 70ae d73d db9a a3bc ba7e 073e
00000090: 2b37 abbc 0662 0fbe 0a4d cdbd 7cb9 463d
000000a0: ae9a 49bd af7d 5f3d 81c5 b4bd 8970 7ebc
000000b0: f26d c5bd ae64 d73d 523b 363e 639a a33d
000000c0: c52b 1fbc c010 1cbe d766 d6bd 662c e5bd
000000d0: ee80 d13d b93e 9ebd eafe b43d 84a7 c43d
000000e0: 49cb 2e3a 5c01 04be 06c7 90bd 8d3e 84bd
000000f0: f1e2 733d 04f4 c43d 0e3f 2b3c 1a91 283e
00000100: a4fa 413d e9f4 2e3c ab7c 51bd 5a4b ea3d
00000110: a4cf 35bd 3023 4cbd 1fb3 cd3c 3502 eabd
00000120: a5a7 063d a0f4 163e 911f cebd f0b2 d9bd
00000130: 5622 6b3c f5d9 aa3d a8ea 933b 7b72 213d
00000140: 5ad2 54bd aba2 cf3d 14de 59bb c40d f9bd
00000150: c2ca e73d 5a5e dbbd 69bb 6238 57ec 103d
00000160: edb5 95bd 179d 553d 0eeb 33be 6e07 15bd
00000170: 1633 d7bd 20e6 043e 17d5 b43d ed09 38be
00000180: acfb ba3d e9fe 6e3d e5fe 8a3d 874b 9f3d
00000190: 9fba 39be 8c9f 4f3e 4251 ef3b 419a 48bd
000001a0: 0019 973d b365 153e 8a87 023d 8772 69be
000001b0: 0dcb 51bd 9030 be3d 02d7 8f3c 76e1 14bd
000001c0: c323 17be b2a6 e8bd d63a 27bd c467 aa3d
000001d0: f14c a63d 7c1a 2d3e 11d7 1a3e 5552 2abd
000001e0: a190 c43d 5cab ef3d 252f b6bd 6e19 663d
000001f0: b06a b7bd 39b4 e33d 8060 e8bd de0b b13c
-0.12359339 -0.14188734 0.15460707 0.043218143 -0.00065641006 -0.19353443 0.21519366 -0.11533708
0.19533359 -0.05327155 0.02143681 0.09037714 -0.050421502 -0.029327897 0.19846179 -0.1399913
0.12023732 -0.011486831 -0.0994477 0.038363155 0.012230551 -0.15488194 0.17019637 -0.07289469
0.083836965 0.0034363586 0.12723291 0.07140589 -0.007198475 0.1265768 0.02807208 -0.1171195
0.05706779 0.10531318 -0.019971302 0.13231936 -0.02090033 -0.14002237 -0.1002446 0.048516735
-0.04921978 0.05456322 -0.088267334 -0.01552976 -0.09640111 0.1051725 0.17796066 0.07988431
-0.009715025 -0.15240765 -0.10468834 -0.11190109 0.102296695 -0.07726807 0.088376835 0.096022636
0.0006667865 -0.12891144 -0.07069211 -0.06457243 0.0595426 0.09616855 0.010452045 0.16461602
0.04735817 0.010678508 -0.051144283 0.114401534 -0.044387475 -0.049838245 0.025109826 -0.11426202
0.032874722 0.14741755 -0.100646146 -0.10629833 0.014351448 0.08342353 0.004514057 0.039415818
-0.05195842 0.10138448 -0.003324394 -0.12160829 0.1131797 -0.107113555 5.405714e-05 0.03538164
-0.0731009 0.052151766 -0.17570135 -0.03638404 -0.10507791 0.1297841 0.08829706 -0.17972536
0.09130034 0.05834857 0.067868985 0.077780776 -0.18137597 0.20275706 0.007303388 -0.048975233
0.07377815 0.14589576 0.03186754 -0.22797595 -0.051219035 0.09286606 0.017558578 -0.03634783
-0.14759736 -0.113599196 -0.040827595 0.08320573 0.08120144 0.16904634 0.15121104 -0.041582424
0.09597898 0.11702606 -0.08895711 0.056176595 -0.08955896 0.11118359 -0.11346531 0.021612104

fc2.weight f4 [128, 132]
00000000: b979 183c f4ce 75bd 0ce6 03bd 4f53 91bd
00000010: 63f7 9f3d d342 b43d 8e40 c7bd ebbd 45bc
00000020: 25f3 89bd 87f2 b73d cdbc 4f3d 1ef8 173d
00000030: 2b92 103d 0682 4d3d acc4 623d 0b3d 6abd
00000040: b19a e13d 0e60 ddbd 088d 0bbe 2cc1 e0bd
00000050: 5294 a23d 1fa7 11be 4b73 123d 5642 29be
00000060: 8d0b 943c 591b ecbc bf6e 9a3d eb21 a93d
00000070: 7cfc b5bc 7bc4 193c 5867 1e3d c2ac f9bd
00000080: 0204 b0bd a6f3 9ebd 5b2a 593d 8ca3 063b
00000090: 8540 06bd fe68 543c d632 60bd 9767 b3bd
000000a0: 13dd 4cbd fc96 203c 899d d9bc a025 ce3d
000000b0: d345 963d 0310 88bd bb78 6e3c 2e99 58bd
000000c0: bd16 1dbe d67d c7bd 8856 0abe 5c68 e13a
000000d0: 991a 4ebb 9acd 7cbd f0b2 efbc fcb4 4f3d
000000e0: 3939 71be 786e ad3c 8d36 2d3b a77f 83bd
000000f0: fb2d dabc 564e d8bb 9fc5 393d 524a febb
00000100: 8db6 47bd 30da f2bb 8b91 1a3d 0560 50bc
00000110: 8cd3 18bd af49 03bb d59f b83d 3067 d43b
00000120: ea4c 29bd c99b 0dbe 2ded 7f3d aad7 53bc
00000130: bed0 3cbd 8460 fbbd 1890 a1bc e292 66bd
00000140: edc8 643d 90bd 183d 0c1e 45bd 5247 b9be
00000150: e6c3 bd3c 238b 20bd c27c 503d e0e2 07bd
00000160: ef0b 71bc 2b2d ae3c 1763 48bc 038f e43d
00000170: f7b0 a2bd 86f3 953d 87dd e33c 5ad3 7d3d
00000180: 7a42 9d3d 1217 9e3d 8a13 81bd 2a4b 36bd
00000190: c0ab d3bd 40bc a63d 5665 a43d 0cd3 243d
000001a0: 409c bf3c 605d a73d c18a 8f3c f744 01be
000001b0: 51fc 883c 560b 313d 7602 18bd b07b 83bd
000001c0: a680 93bb f697 e43d b7e1 393c f7f6 18bd
000001d0: 618e a4bd f07a 60bd 6908 01be 6627 c8bb
000001e0: be0a 6f3d 419c 723d f392 8fbd a0c3 0b3d
000001f0: b0cd 59be 96c8 81bd f7cc c3bd 96b8 7bbe
00000200: 8b45 41bd 6cba 23bd 8be2 533d def4 46bc
00000210: 81fd b03d 916c 09bc c128 fc3b 328a 23bc
00000220: bab9 683d f74f a3bc b166 423c 5fa1 c3bc
00000230: 8860 e13b 0b87 95bd 8955 d13d dbc4 313d
00000240: bc05 a73c a749 bfba 6831 02be e2cd 99bd
00000250: eb64 773d 4c24 fabd b02d 98bc 2813 383d
00000260: 1aa3 813d edb8 4cbd 9a15 febd 4d7a 643e
00000270: c846 fdbd a251 573d ab07 60bd 2fd1 dc3c
00000280: ecd5 cb3c 9572 7ebd 420b 48bd 7f4b d2bd
00000290: b2f9 313c 1917 653d 487e 21bd 896e 60bb
000002a0: 0e75 68bd b07f 7c3d a6fd 833c 55bd 863d
000002b0: e6fb b4bd 1e80 c43d fd10 823d bd1b 7e3c
000002c0: c802 90bd 04ca be3d 70f0 ad3b 6f67 683d
000002d0: 0c5e d9bc 9b7e 163d e951 d53d 6695 8ebd
000002e0: 4087 853d 5bea c3bd 397d 093b 5294 9bbd
000002f0: 6963 053e 8226 9bbd 1c5c 263e e4a8 36bd
00000300: 8cbe 23bd 3a07 3ebe 826e 563c 51ab a83d
00000310: 0be6 2dbd 6903 ab3c c86d 993c f239 ee3c
00000320: fc7b 2e3d c160 fcbd 5045 51bd 11ef ccbd
00000330: 11f3 053d 3df4 bebd f230 443b a751 033e
00000340: 0a32 533b 47c1 773d 0a1a 50be 619e 1b3b
00000350: d8e3 e3bc cacd b6bd 4fc2 8cbd fc78 6abd
00000360: a83d 1bbe a93b c43c 9a9a 5dbe c08e 963d
00000370: db12 0c3d b7dc f03c 5b04 34bd d1d6 a63d
00000380: 21c7 083e 6faf c1bd c192 253d 616d 78bd
00000390: e64d 813d 537b 35bb 572e c33d 1990 0e3c
000003a0: b440 303b 4a66 3fbd f91d 99bb 0b3e 103e
000003b0: bb26 733d ea8a 22be 9fc0 c4bc 593b a6bd
000003c0: 04aa 953d 48c5 983c de7b f6bd 30aa b03d
000003d0: 0f83 c9bd 7b07 0d3e a725 0fbd da99 993d
000003e0: 2f85 59bc 9a5d 9cbc 46c7 ed3b 8345 8fbd
000003f0: 3948 a3bd a204 8fbd 8d39 1cbd 2ffb 183d
0.009306365 -0.06001182 -0.03220181 -0.07095968 0.07810857 0.08801808 -0.0972911 -0.012069206
-0.06735829 0.08981805 0.050717164 0.037101857 0.035295647 0.05017283 0.055363342 -0.05718712
0.11015833 -0.108093366 -0.13628018 -0.109743446 0.07938446 -0.14223908 0.035754483 -0.16529211
0.018071914 -0.028821634 0.075406544 0.082584225 -0.02221512 0.0093852235 0.038672775 -0.12191154
-0.085945144 -0.07761316 0.05301891 0.002054426 -0.032776374 0.012964485 -0.05473598 -0.087599926
-0.05001552 0.0098016225 -0.026564376 0.1006577 0.07337537 -0.06643679 0.014555152 -0.05288046
-0.15340705 -0.09740798 -0.13509572 0.0017197239 -0.003144896 -0.061719514 -0.029260129 0.05070971
-0.23556985 0.02117084 0.002643022 -0.06420832 -0.026633253 -0.0066011352 0.04535448 -0.0077603245
-0.04875808 -0.007411264 0.037736457 -0.012718205 -0.03731112 -0.0020032933 0.090148605 0.0064820275
-0.041333117 -0.13828959 0.062482048 -0.012929836 -0.04609751 -0.12274268 -0.01972203 -0.056292422
0.05585568 0.037290156 -0.048124358 -0.36187226 0.0231647 -0.03919519 0.05090023 -0.03317535
-0.014712318 0.021261772 -0.012230656 0.1116009 -0.079439096 0.07321839 0.027815593 0.06196914
0.07678695 0.07719244 -0.06302555 -0.044505276 -0.10335493 0.081413746 0.08027141 0.040240332
0.023389935 0.08172107 0.017522218 -0.12623964 0.016721876 0.0432237 -0.037111722 -0.06420076
-0.00450142 0.11161797 0.0113453185 -0.0373449 -0.08034969 -0.054804742 -0.12600864 -0.0061082123
0.058359854 0.059231047 -0.0701045 0.03412211 -0.2126987 -0.06337087 -0.09560578 -0.24582133
-0.047185462 -0.039972708 0.05172972 -0.012143342 0.08642102 -0.008387701 0.007695288 -0.009981679
0.056817748 -0.019935591 0.011865304 -0.023880659 0.0068779625 -0.07301148 0.10221393 0.043400627
0.020388477 -0.0014594094 -0.1271416 -0.07509972 0.060398977 -0.12213954 -0.018576473 0.044940144
0.06329937 -0.049981046 -0.12406464 0.22312279 -0.12367016 0.052568085 -0.054694813 0.026955215
0.02488228 -0.062120993 -0.04883886 -0.10268306 0.010862755 0.05593023 -0.03942707 -0.0034245572
-0.056752257 0.06164521 0.01611216 0.06579081 -0.08837108 0.09594749 0.063508965 0.015509543
-0.070317805 0.09315875 0.0053082034 0.056739267 -0.026534103 0.036741834 0.10416014 -0.06962089
0.065199375 -0.09566184 0.002097918 -0.07596649 0.13026203 -0.07575704 0.16246074 -0.04459466
-0.03997664 -0.18557444 0.013087871 0.08235801 -0.042455714 0.02087565 0.018729106 0.029080365
0.04259871 -0.12323142 -0.051091492 -0.10006536 0.03270251 -0.093239285 0.00299364 0.12824117
0.003222587 0.060487058 -0.20322433 0.0023745524 -0.027818605 -0.0892597 -0.06872999 -0.057244286
-0.15160239 0.02395423 -0.21641007 0.07351446 0.03419767 0.02940212 -0.043949466 0.08146442
0.13357212 -0.094572894 0.04042316 -0.060651187 0.06313686 -0.0027691915 0.09530323 0.008701348
0.0026894035 -0.04672841 -0.0046727625 0.14086168 0.059363108 -0.15873304 -0.02401763 -0.081167884
0.073078185 0.018648759 -0.120353445 0.08626211 -0.098394506 0.13772385 -0.034948017 0.07500048
-0.013276382 -0.019087601 0.0072564213 -0.0699568 -0.0797276 -0.069833055 -0.038140822 0.037348922

fc2.bias f4 [128]
00000000: f4b6 c63c 0542 78bc 24fb d23c b7ff cc3d
00000010: 582c e63c be3d 0a3e e74d af3d 3c14 cfbd
00000020: 083d b03c 7232 f4bc ff8f 473c 1346 fa3a
00000030: de77 9bbc 18dd 54bd 6ba4 e2bd 409a b83d
00000040: dab7 dabb 9d96 433d ede8 bbbd d44a 1d3d
00000050: 6356 a9bd ec28 e63c 2ddf f4bc ff68 a53d
00000060: 6350 893b d9be b93d ed1c 343c 278a 5dbb
00000070: b5db 4dbb 3c63 87bc cefa b73d 514e 423e
00000080: 2df5 04bd a540 25bc 1a55 2f3e f523 6abc
00000090: e562 e73d 9144 e13d 1466 643d dde1 573b
000000a0: fc03 293d 924e 6f3d 6014 0e3e 63d8 1dbe
000000b0: 436d 55bc e4e2 c33d 2845 febc c665 813d
000000c0: eaf2 e7bb 2540 203e 15b2 e03d 858f 18bc
000000d0: 261b e93c c5fc 253a f102 51bb 0590 fe3d
000000e0: 3412 10bd 9b5d 18bd 8c47 0f3a 5695 00be
000000f0: 0f98 c03d 2c82 853d 8f91 e93c ce69 8cbd
00000100: 6e36 e63d dd0c 0f3d 25d4 083d 61b6 85bd
00000110: 9bd2 a4bc fea7 0bbe 6c41 713c 6d46 1fbc
00000120: 0c6b 26bd 35e7 083e 101c 09be 8969 ed3d
00000130: 4e6f b33c f688 7abd dbcd 383c 6f1a 0fbd
00000140: b807 bc3b 02bb ccbc 653b d8bc cfed 183e
00000150: df70 e23d 8642 5dbd f2d5 453d cc92 083d
00000160: 68ab 60bd 4b58 e2bc 1db8 c5bd 93f9 06be
00000170: 2c54 c33d 1aff 0b3e c241 1abc 13c6 ae3b
00000180: 959e 673d e859 fb3d efd1 d0bd 979f 0dbe
00000190: 671f 80bc 518a 433d 4db7 963d 9623 0a3e
000001a0: 0398 01bd 871c bcbc aa15 89bd d60a 0cbd
000001b0: 1e87 09bd 026d 083d 2eb6 1dbe d19d afbc
000001c0: 17a5 f03c 58ec 183e ae46 50bd ea14 273c
000001d0: 6551 e63c 5ee1 bdbb 3b1d 183d 46c5 b1bc
000001e0: f2b0 463d 8cff 5d3a d6db 793c 7b45 babc
000001f0: e38e 71bc f604 913d d849 57bd 1a16 6fbc
0.02425716 -0.015152459 0.025754519 0.10009711 0.028097317 0.13500115 0.085597806 -0.10111281
0.021513477 -0.02980921 0.012180327 0.001909437 -0.018978056 -0.051968664 -0.110665165 0.09013796
-0.006674749 0.047751058 -0.091752864 0.03840144 -0.0826843 0.028095685 -0.029891575 0.08076667
0.004190491 0.090696044 0.010993225 -0.003380427 -0.0031411473 -0.01652681 0.08983384 0.18975188
-0.03246038 -0.010086213 0.17122307 -0.014290799 0.112981595 0.10999406 0.05576141 0.0032941021
0.041263565 0.05842454 0.1387496 -0.15414576 -0.013026538 0.0956476 -0.031038836 0.0631824
-0.007078518 0.15649469 0.109714665 -0.0093115615 0.028455328 0.0006331916 -0.0031892622 0.12429813
-0.03517361 -0.037198644 0.00054656784 -0.12556967 0.09404003 0.06518969 0.02851179 -0.06856118
0.112408504 0.034924377 0.03340544 -0.06528927 -0.020119956 -0.13638303 0.01472507 -0.009721381
-0.04062943 0.13369448 -0.13389611 0.11592395 0.02190366 -0.061165772 0.0112795485 -0.03493732
0.005738225 -0.024991516 -0.026395509 0.14934467 0.11056685 -0.05401852 0.048299737 0.03334312
-0.054850966 -0.027629992 -0.096542574 -0.13181143 0.09537539 0.13671532 -0.009415092 0.005333671
0.05654772 0.12273008 -0.10196292 -0.1383041 -0.015639974 0.04773933 0.073591806 0.13490137
-0.03163911 -0.022962822 -0.06693585 -0.03419002 -0.033576123 0.033307083 -0.15401527 -0.021437557
0.029375596 0.14933908 -0.050848655 0.010197857 0.028114984 -0.005794688 0.03713725 -0.021700513
0.048508592 0.00084685604 0.015250167 -0.022738209 -0.0147435395 0.07081024 -0.052560657 -0.014592672

fc3.weight f4 [1, 128]
00000000: 56f0 0b3e 018b 01be c7e2 2c3e f22d b43d
00000010: c894 da3d 87f8 c73d 473a ac3d 4c16 4abe
00000020: 0284 873d a9c6 833e 6ef1 d63d e5de 683e
00000030: 798d 113e fd55 083e 6cd1 88be 1a65 ec3d
00000040: f171 503e cd7c 30be 8c9f c0bd c8c6 4dbe
00000050: 8d2d 2ebe c90f 0fbe 5228 bebd 3e48 e43d
00000060: 738e d7bd f6ad e13d 1125 9d3e 6a6e 0abe
00000070: 8d02 283e 74aa 3bbd b29e 2f3e f886 aa3d
00000080: 15c1 08be 4418 70be 86d6 893d c1d0 b63d
00000090: a7da bb3d 0416 df3d 9d6b 35be a0ea 483e
000000a0: 361d eabd f9a6 aa3e 481b 0b3e eec6 cdbd
000000b0: 4296 a03e 18fc 8f3d 6d80 413e 4364 083e
000000c0: 5a98 113e 413d ac3d 7ad0 3a3e cb87 02be
000000d0: a36a e8bd 826a 1cbe 0691 3dbe 866b b33d
000000e0: ad32 0a3e 97b9 353e 4b83 9bbe 6b04 98bd
000000f0: afdc 233e 4b7b db3d 0a38 e33d b309 5bbe
00000100: ad42 d73d f7f4 a13e 2de6 f7bd 7a8b 5bbe
00000110: 5f55 833e dadd cabd 4f89 0dbe f8f3 d73d
00000120: 9391 3fbe 48e4 c83d 0426 e5bd 434f e23e
00000130: 6772 21be 4429 4b3e 1a6d 57be fc87 eabd
00000140: cf3c 63be 13ed 11be 8fb0 97bd 4933 943d
00000150: c762 c13d 077f ddbd 5ee1 22be 8506 52be
00000160: 8e85 28be a171 33be d550 cfbd d942 06be
00000170: 901a 363e e6a7 b63d 7410 6c3d edf3 153e
00000180: b4f8 423e 1217 fb3d 89ce a8bd 9873 8ebd
00000190: fe20 c0bd 1da7 563e a03a b03d ee20 bd3d
000001a0: 3393 313e 190d 6ebe 69af 37be c4ad 3d3e
000001b0: cdf4 523e 40f6 f13d 4f41 80bd 70fc 6b3e
000001c0: 8dfa 13be 584f aa3d 3c4e 07be 0b15 253e
000001d0: 6525 bf3d 3e13 42be e816 7e3d 217d c0bd
000001e0: 1a4b d03d 33e6 11be c267 5f3e 3076 193e
000001f0: bf6c 48be 101f cfbe 7969 92bd 35d5 0bbe
0.136659 -0.12650682 0.16883384 0.08797826 0.10672909 0.097642 0.08409553 -0.19735068
0.06616975 0.25737503 0.10495268 0.22741278 0.14214124 0.13314052 -0.26722276 0.11542721
0.20355965 -0.17235108 -0.09405431 -0.2009536 -0.17009564 -0.13970865 -0.09285034 0.111465916
-0.10525217 0.110195085 0.30692342 -0.13518682 0.16407223 -0.045816854 0.17150381 0.083265245
-0.13354905 -0.23446757 0.0673037 0.089265354 0.09172564 0.10892871 -0.17716832 0.19620752
-0.11431353 0.33330515 0.13584626 -0.100477085 0.31364638 0.07030505 0.18896647 0.13319497
0.14218274 0.08410121 0.1824359 -0.12747113 -0.11348464 -0.15275005 -0.18512353 0.08760743
0.13495894 0.17746578 -0.30373606 -0.07422718 0.16002153 0.10716876 0.11094673 -0.21390419
0.10510764 0.31632206 -0.121044494 -0.21439925 0.2565107 -0.09905596 -0.1382191 0.1054458
-0.18707876 0.09809166 -0.111888915 0.44201097 -0.15766297 0.1983996 -0.21037713 -0.11451718
-0.22191165 -0.14250593 -0.07406723 0.07236344 0.094426684 -0.10815244 -0.15906283 -0.205103
-0.16457197 -0.17523815 -0.10122839 -0.13111438 0.1778357 0.08918743 0.05763288 0.14643832
0.19040185 0.1226026 -0.082425185 -0.069556415 -0.09381293 0.20962186 0.08604932 0.092347965
0.17341308 -0.23247184 -0.17938007 0.18523318 0.20601197 0.118145466 -0.062624566 0.23045516
-0.14451046 0.08315915 -0.13213438 0.16121309 0.09333304 -0.18952653 0.062033564 -0.093988664
0.101705745 -0.1424797 0.21816924 0.14986491 -0.19572733 -0.40453386 -0.071490236 -0.13655551
