checkpoint_critic_final.pth (torch, 88421 bytes, 5 tensors)

fcs1.weight f4 [128, 33]
000000 80 23 a2 bc 90 d2 10 3d ca 5a 4b 3e 61 45 be bd
       -0.019792318 0.035357058 0.19858852 -0.09290577
000010 98 c9 05 3e d9 35 d9 3d ef 2a 38 bd 29 6f 81 bd
       0.13065183 0.10605974 -0.04496282 -0.0632003
000020 f0 47 bc 3d c6 9e 9e bd bb 86 a6 3d da 96 dd 3d
       0.091934085 -0.077451274 0.081311665 0.10819788
000030 b1 b0 78 3d b4 b8 e5 3d 39 b7 6e bd 3b fa 18 bc
       0.06071538 0.1121687 -0.058280203 -0.009337003
000040 43 2d 5e bd 14 fe 2c bb 15 4d e9 bd 8a 98 04 3d
       -0.054242384 -0.002639656 -0.11391655 0.032372035
000050 34 0e 95 bd 59 59 be bc 46 60 56 bd d9 a5 94 3d
       -0.072781 -0.023235964 -0.052337907 0.072581954
000060 60 98 80 bd fe 31 5b bd 8f a4 50 bd bd fb ce bc
       -0.06279063 -0.053514473 -0.050938185 -0.025266523
000070 dd e3 a6 bd 50 18 c5 3a 31 03 6c 3d e3 92 af 3a
       -0.0814893 0.0015037153 0.05762023 0.0013395216
000080 bb b8 e5 3d 2f 2e b5 3d 29 69 2c 3e 1c cf 9b 3d
       0.11216875 0.088466994 0.1683699 0.07607862
000090 ef c6 71 bb 63 53 90 bc 1b bf c1 3d 93 7a 79 3d
       -0.0036892255 -0.017617887 0.094602786 0.06090791
0000a0 d2 0d c4 bb 56 43 ad 3d 93 ec 29 3d b3 f9 82 3c
       -0.005983093 0.08460109 0.04148538 0.015988206
0000b0 c9 16 a2 bc 0e 40 32 bb 6f d5 26 be 35 94 32 be
       -0.019786255 -0.0027198824 -0.16292356 -0.17439349
0000c0 c3 b5 f3 bd e0 0d 97 bc 13 f3 32 3c 19 29 59 3c
       -0.11899903 -0.018439233 0.010922211 0.013254427
0000d0 04 60 b2 3c 2d 1f e5 bb 2d cb 1e bb e9 40 37 3c
       0.0217743 -0.006992242 -0.002422999 0.011184909
0000e0 d1 58 38 bd a9 eb 76 bd 95 71 a2 bc f5 59 c1 3d
       -0.045006577 -0.060283337 -0.01982955 0.09440986
0000f0 57 ec 3c 3a bc 26 78 3d fb 29 d7 bc d7 f3 26 3d
       0.0007206848 0.060583815 -0.026265135 0.040759888
000100 60 fc da bc 63 06 02 3d 05 cb 29 bd f3 a6 34 bc
       -0.02673167 0.031744372 -0.04145338 -0.011026132
000110 fa 96 5d 3b 7f a0 53 3d 0c 83 15 3c 52 fc f4 3d
       0.0033811913 0.051666733 0.009125482 0.11962189
000120 2c 3e 65 3d 21 d0 bd bc 4e 00 83 3d af d2 04 bd
       0.055967495 -0.023170533 0.063965425 -0.032427486
000130 1f fb 11 3c 6f 4c 37 3c 24 02 ce ba 0a c6 88 3c
       0.00890997 0.011187657 -0.0015717191 0.016695995
000140 42 b0 df 3c de c5 fb bb 72 99 88 ba 7e 2b 4a bd
       0.027305726 -0.0076834997 -0.0010421707 -0.049357884
000150 26 c0 82 bd 76 1d 1f bd f8 6c 3c bb 14 b2 9d bc
       -0.06384306 -0.038846456 -0.0028751474 -0.019249953
000160 50 43 3b 39 82 25 a7 3d dd 67 22 3b a9 31 c6 3b
       0.00017858786 0.08161451 0.0024781146 0.0060484004
000170 bd bc 32 3e 95 eb de 3c 44 48 04 be f4 ff 94 3d
       0.1745481 0.027211944 -0.12918192 0.07275382
000180 35 23 f2 bc b2 34 f1 bc 60 91 9e 3d 42 28 26 3d
       -0.029557804 -0.029444072 0.07742572 0.040565737
000190 ba 43 d9 bd bd f3 fc bd 71 9b e3 3c 71 cb 12 bb
       -0.10608621 -0.12351177 0.027784081 -0.0022399093
0001a0 f7 9d d8 bc dc db 15 3e d5 34 00 3d d4 4d 24 3e
       -0.026442511 0.14634651 0.031300385 0.16045314
0001b0 f3 9b 0c 3c b8 1e 5e 3d 7c 7c 3f bd 4a c3 da 3c
       0.008582103 0.054228514 -0.046749577 0.02670445
0001c0 b3 f8 8c 3d a9 53 8a 3a b4 13 4c 3d 2f 59 cf 3c
       0.06883373 0.0010553497 0.049823478 0.02531108
0001d0 c5 c1 74 bd f3 cb c8 bc 1b cd 9d bc d0 e4 1b 3b
       -0.059755106 -0.024511313 -0.019262841 0.0023787506
0001e0 d5 7e f0 3c 18 8e 00 bd b4 10 24 3d 95 9a bd bc
       0.029357353 -0.03138551 0.04005499 -0.023145
0001f0 0a b1 11 3d 23 1f c7 3d 3b 59 41 bd dc 14 62 3d
       0.03556923 0.09722736 -0.047204237 0.055195674
000200 33 b2 94 3d bc 19 21 3d 5f 3c 8f 3d ef f4 a5 be
       0.07260551 0.039331183 0.06993937 -0.32413432
000210 92 ce 49 3e 2a dd 17 be c9 88 dd bc 19 5c 3c bd
       0.19707707 -0.14830461 -0.027042763 -0.04598627
000220 d2 a4 44 3d ee 0d e6 3d 5a 5f 24 3c 88 97 95 bb
       0.048008747 0.112331256 0.010032499 -0.004565183
000230 40 55 8a bc c0 4c 78 bd e0 e9 eb 3c 81 fd eb 3b
       -0.016886353 -0.06062007 0.028798044 0.007201851
000240 d8 64 77 bd dc bd 5c bd 77 bf 31 3e c8 57 13 3d
       -0.060398906 -0.053892 0.17358194 0.035972387
000250 be d9 04 3d 95 26 d1 3c e4 ec 10 3d fd 4b 97 bd
       0.032434218 0.025531093 0.035382167 -0.073875405
000260 fb c4 88 bc 83 cf 8a bc 45 8a d5 3b 5f 67 21 bc
       -0.01669549 -0.016944652 0.006516727 -0.009851306
000270 56 e1 e5 3c d4 2c 05 bd d5 47 a2 bd 05 1a 90 bd
       0.02806155 -0.032513455 -0.07923857 -0.07036213
000280 60 f3 19 be 76 d1 9f bc ef 7e f2 bb 9c 30 1a 3d
       -0.15034246 -0.019509058 -0.0074003856 0.037644014
000290 38 d4 88 bd db a0 1f 3a b7 90 2f bd 39 8e 8e bd
       -0.066811025 0.0006089338 -0.04286262 -0.069607206
0002a0 98 99 19 3c b5 e0 0f bc 0b 4b 7c 3d 87 2e 89 3c
       0.0093749985 -0.008781602 0.061595004 0.016745819
0002b0 ea 5a 92 3b db 98 2b bc f3 bd f9 bb 32 eb a3 bb
       0.004466404 -0.010473455 -0.0076215207 -0.0050024027
0002c0 63 e4 e9 bc 71 a8 f3 ba 7a 00 18 3d dd 26 d7 bc
       -0.028551286 -0.0018589628 0.03710983 -0.026263649
0002d0 a4 b8 49 3c de ba c4 bb a7 70 16 bd ad 27 1e 3d
       0.012312088 -0.0060037216 -0.036728527 0.038612057
0002e0 d9 c0 a9 bc c4 55 64 bc f4 12 57 3c 25 63 39 3c
       -0.02072184 -0.013936464 0.013127077 0.011315142
0002f0 0b 3c de 3c cb ee b1 bc 86 22 52 3c 25 78 00 3d
       0.02712824 -0.02172031 0.012825614 0.03136458
000300 c1 96 9d 3d 0c 73 06 bd a8 cd 2d bd 6b 4b c2 bd
       0.0769477 -0.03282456 -0.042432457 -0.09487041
000310 68 4b 26 bd ec 3a 6f 3f 88 78 b6 bb 19 1e 92 bd
       -0.040599257 0.9344928 -0.0055685677 -0.07134647
000320 81 66 2e 3d 05 76 67 3d a9 66 5b 3d 0b 19 e9 3d
       0.042578224 0.056509037 0.0535647 0.1138173
000330 8e cc 8b bd 1d e0 0d 3d dd e9 47 b9 d7 3d 05 bd
       -0.06826125 0.03463756 -0.0001906524 -0.03252968
000340 d4 d3 df bc bc 41 2b bc 41 62 d1 bc 43 1c 09 3d
       -0.027322687 -0.010452684 -0.025559546 0.033474218
000350 5e 91 45 bc 24 af dd bd 29 b6 39 bc f2 1b 86 bd
       -0.012058584 -0.10824421 -0.011334934 -0.06548299
000360 fb 42 4d 3b 1a d5 ac 3c c3 12 bf 3c 02 4d dd 3c
       0.003132044 0.021097708 0.023324376 0.02701426
000370 45 81 c0 3c 80 92 3f ba 2a 41 90 ba 15 60 7a bd
       0.02349914 -0.0007307902 -0.0011005749 -0.061126787
000380 5d fa 85 bd a1 55 12 be 65 0c cc bd 3e 07 92 3d
       -0.06541894 -0.14290477 -0.099633016 0.071302876
000390 f7 7b b5 3d 8b ba 8f 3d 20 e9 ac be ff 90 ed bd
       0.08861535 0.07018002 -0.3377161 -0.115999214
0003a0 d3 8a 51 3d 1d 88 e7 3d 49 7a 1a bd 8a 67 4a 3c
       0.051157784 0.113052584 -0.037714276 0.012353787
0003b0 9e c8 20 3e 84 72 61 bd e4 63 47 3c 8a 15 98 3d
       0.1570153 -0.05504085 0.012169812 0.07425983
0003c0 f2 73 92 be 3a 96 e7 bd 99 eb fc 3b 59 e0 35 3c
       -0.28604084 -0.1130795 0.007718515 0.011100852
0003d0 84 e2 b7 3b c3 fd 04 bd fb b7 51 3c 53 94 1e 3e
       0.0056117196 -0.03246857 0.012800212 0.15486269
0003e0 a0 b6 91 bd 70 8f 98 3d 19 4d b4 3d e3 b3 43 bd
       -0.07114911 0.074492335 0.08803768 -0.047778975
0003f0 44 0e 49 3e 74 9c 4f bd 25 dd 32 bd a2 30 de bd
       0.19634348 -0.050686315 -0.04366793 -0.1084912

fcs1.bias f4 [128]
000000 4c 0b dc bd 4b 1d 33 be 37 d0 1e 3e e7 b5 c7 3d
       -0.10744342 -0.17491643 0.15509115 0.09751492
000010 a3 37 5b bc 0a e2 5f be 5a 34 78 3e 6d 4a f8 bd
       -0.013379964 -0.21863571 0.2423872 -0.121235706
000020 bc 69 4c 3e 9b b0 82 bd 4b 7c 77 3d 25 48 0f 3e
       0.1996221 -0.06381341 0.06042127 0.13992365
000030 74 61 36 bd 38 06 69 3c 12 44 81 3e 8c 7c c7 bd
       -0.044526532 0.014222674 0.25247246 -0.09740552
000040 f8 90 c4 3d 8e 81 56 bd 2e 88 83 bd 83 2b ce bc
       0.09597963 -0.052369647 -0.064224586 -0.025167232
000050 78 79 8f 3c d4 fc 06 be f8 2c ca 3d 49 68 1e bd
       0.017513976 -0.13182384 0.09871858 -0.038673673
000060 c2 3a fb 3b dc 14 29 bd fe a4 b3 3d ec 45 8b 3d
       0.0076669166 -0.04127966 0.08771704 0.06800446
000070 17 b6 81 bd 5d 08 0d 3e 23 40 d7 3c 90 95 18 be
       -0.06333559 0.13772722 0.0262757 -0.14900804
000080 2b d9 cc 3d a5 8e 99 3d cf f7 16 3c b8 cf 06 3e
       0.10002359 0.074979104 0.009214356 0.13165176
000090 3a fa 51 bc 73 d4 39 be 65 b6 dc bd 10 80 81 3d
       -0.012816006 -0.18147449 -0.107769765 0.06323254
0000a0 74 c1 93 bc 4f 6b 90 3d e0 2d 14 be 80 12 90 bc
       -0.018036582 0.070517175 -0.14470625 -0.017586946
0000b0 6f a7 cb bc 12 75 d4 3d d4 0d 45 3e bd 41 ae 3d
       -0.024860112 0.10373892 0.19243556 0.08508632
0000c0 eb 3c 9b 3b c5 22 f4 bd c3 2d 07 be f7 74 e9 bd
       0.0047374866 -0.11920694 -0.1320105 -0.113992624
0000d0 f0 f0 a3 3b cf 0a 35 bd 70 fe fb 3d f1 3c 00 3e
       0.005003087 -0.04419976 0.123043895 0.12523247
0000e0 ce 59 65 bd 07 04 03 be 6b 9b a3 bd 0b 50 89 bd
       -0.055993848 -0.12794505 -0.07988628 -0.0670472
0000f0 c6 09 28 3c 4d 17 bf 3d 75 fd cb bc b4 04 63 3e
       0.010256236 0.09330616 -0.024901131 0.22169763
000100 17 e1 64 bb 59 29 a1 bd 1f 20 aa bd ca 72 26 3e
       -0.0034924203 -0.078692146 -0.08306908 0.16254726
000110 83 a0 91 bd 59 9b c5 bc 2c d6 1b 3d a5 db 81 bd
       -0.07110693 -0.024121927 0.038046047 -0.06340722
000120 4a 9e 0e bd b9 a0 0b 3e cc 5a 97 bd 4b a5 05 be
       -0.034818925 0.1363553 -0.07390365 -0.13051336
000130 43 50 90 bd db a5 dc 3d 41 35 00 3b 63 0a 1e bb
       -0.07046559 0.10773822 0.0019562992 -0.0024115078
000140 ee a5 2a bd 0d 26 a9 3d ba 0d ec bb 6f 4e 2c be
       -0.04166215 0.08259211 -0.007203785 -0.16826795
000150 ee ab 3b 3e e3 23 23 be 22 88 db bd 47 19 5c bd
       0.18327305 -0.15931658 -0.10719325 -0.053735044
000160 d5 95 de bd 1d ae ef 3c 7b 88 4f be f6 3a 11 3d
       -0.10868422 0.029257828 -0.20266907 0.03545662
000170 d3 50 cf bd 49 62 d3 3d da af 15 3e 78 b4 4f be
       -0.10122838 0.10321481 0.14617863 -0.20283687
000180 f4 b4 35 3e ff 10 12 3d 52 12 38 bc e4 a7 19 bd
       0.1774481 0.03566074 -0.011234837 -0.03751363
000190 9e 3b 39 be 59 79 47 3e 2e 6a 24 3d 28 cb ba bd
       -0.18089148 0.19479884 0.040140323 -0.0912078
0001a0 b3 3c 0b 3e eb 61 2a 3e 07 a4 3e 3d a6 ef 77 be
       0.13597374 0.16638915 0.046543147 -0.24212512
0001b0 47 52 49 be 29 95 5c 3d 05 28 1d bd 4d 76 53 bc
       -0.19660293 0.053853188 -0.038368244 -0.012906623
0001c0 22 55 6a be dd 11 29 be 37 27 48 3d 5c 6c 9a 3d
       -0.22884038 -0.1651072 0.048865523 0.07540199
0001d0 54 b8 76 3d f7 ed 3c 3e b5 91 1e 3e c8 d3 8a bd
       0.060234383 0.18450151 0.1548527 -0.06778675
0001e0 ec 9a e6 3c 52 1b 09 3e 52 02 88 bd 0e 39 05 3e
       0.028150044 0.13389328 -0.066410676 0.13010046
0001f0 9e 80 11 be c0 b4 1d 3d 2d ca 0b be 95 37 aa 3b
       -0.1420922 0.038502455 -0.13651343 0.005194614

fc2.weight f4 [128, 132]
000000 5b 4f 1c bd 2a 1f d4 bd cd 95 d0 bb f0 f0 b0 bd
       -0.038161617 -0.103575066 -0.006365514 -0.08639705
000010 26 28 78 3c b0 c0 70 3d 46 38 e8 bd 07 2b c3 bc
       0.015146291 0.05877751 -0.11338858 -0.023824228
000020 c0 59 b2 bd b2 8f e8 3c e2 a0 cd 3c 1c 90 13 3d
       -0.08708525 0.028388832 0.025101129 0.036026105
000030 c4 17 4f 3d a4 21 78 3c 13 e9 52 3a 57 ef 36 bd
       0.050559774 0.015144739 0.0008045595 -0.044661846
000040 03 30 00 3d fa 4c 1e be fa 72 33 bd cb 34 b6 3d
       0.031295788 -0.15459052 -0.043810822 0.08896788
000050 44 7f bf 3c b6 c3 6c be 2e 3d eb bd 59 9b ef bd
       0.023376115 -0.23121533 -0.114862785 -0.11699552
000060 e3 e3 28 3d 0d 66 d1 3c 48 62 23 3d 6e 82 3f 3d
       0.041232955 0.025561357 0.03988865 0.046755247
000070 2a c0 a5 3b 19 91 8c bc 20 93 95 3c 85 15 9e 3d
       0.005058308 -0.017159032 0.018258631 0.07718948
000080 1a e9 0f bd 62 45 09 bc 89 2a 0f bd 4e b1 4c 3d
       -0.035134412 -0.008378359 -0.034952674 0.04997378
000090 12 64 af 3c 3d ec ba 3d ea d3 19 bd 04 60 aa bd
       0.021410022 0.0912709 -0.037555613 -0.08319095
0000a0 c0 4e 8a 3c 54 d3 37 3d c4 4c 1b 3e 5d 2b 11 3e
       0.016883254 0.044879273 0.15166003 0.14176698
0000b0 27 36 8f 3d cc 11 b7 3c 59 00 44 3d a0 d5 e2 39
       0.069927506 0.022347353 0.047851894 0.00043265242
0000c0 e1 6d 33 be c1 2a c2 3a 5f 01 25 be 93 e3 4f 3c
       -0.17522384 0.0014813767 -0.16113804 0.012688535
0000d0 5a 58 4e 3d 47 0b c5 3d f2 fb 82 bc 9b 74 3e 3d
       0.050377227 0.096212916 -0.015989278 0.046497922
0000e0 4e 51 73 be a9 93 01 bd eb d8 21 3b 73 86 0e be
       -0.23761484 -0.03163496 0.0024695944 -0.13918476
0000f0 da 5a 2d be ba f9 b7 3c 13 76 39 3d 98 4b 55 3c
       -0.16929188 0.022457946 0.04527862 0.013018511
000100 d7 54 a2 bd 5f 08 09 3e d7 5b 26 3d f7 dd 15 bb
       -0.07926338 0.133821 0.04061493 -0.0022867897
000110 f5 b9 54 3d 4e b2 a5 bd 92 d8 ba 3d 14 4d 93 3c
       0.051935155 -0.080906495 0.09123339 0.01798109
000120 fb ff a8 bd a9 57 fb bd 44 a2 88 3d ce 85 d9 bd
       -0.082519494 -0.12272579 0.06671575 -0.10621224
000130 cd 07 64 be 09 b0 05 be 8d a7 a4 3d 85 2e 31 3d
       -0.22268601 -0.13055433 0.0803977 0.043257255
000140 ad 5b 99 3d dd be 86 bc 89 24 f6 bd b1 ad d6 be
       0.07488189 -0.016448433 -0.12018687 -0.4192939
000150 ae a5 32 3c 4e 94 21 bd ea 99 bf 3d ce 3b b9 3d
       0.010903759 -0.039448075 0.09355529 0.0904461
000160 7e 21 6e bb 50 f8 fd 3c 61 46 80 bc e2 1d c9 3d
       -0.003633588 0.031002194 -0.01565856 0.09820153
000170 72 f3 81 bd 4d c5 16 b8 1a ba 59 3c d5 1c 1a 3e
       -0.06345262 -3.5946538e-05 0.013288999 0.15050061
000180 0d 4c df 3d 56 93 c7 3d da 95 f9 bd 62 a4 95 bd
       0.109031774 0.09744899 -0.12186785 -0.07306744
000190 8b 50 07 be 11 aa 59 3d 43 cb 54 bb 1f 75 5e 3d
       -0.13214318 0.053140704 -0.0032469786 0.054310914
0001a0 89 1d 94 3d 30 05 0c 3e 56 cf 9b 3d 70 23 89 bd
       0.07232196 0.13673854 0.076079056 -0.06696212
0001b0 83 36 92 3b 2d 1e 96 3d 46 7c c3 3c b3 1d bc bd
       0.0044620647 0.07329974 0.02386297 -0.09185352
0001c0 d2 07 36 3e 1a 0c 0d 3e e5 88 da bc f9 97 99 bd
       0.1777642 0.13774148 -0.026676605 -0.074996896
0001d0 33 7e ff bb 5d f2 1a be 2c 07 d0 3c 55 24 57 3c
       -0.0077970265 -0.15131517 0.025394045 0.013131221
0001e0 2d fd ac bd 7a 9a 6d 3d c4 fe 91 bd a7 b8 8e 3c
       -0.08446727 0.05800865 -0.07128671 0.017422033
0001f0 2e 77 46 be ac 95 9c bd ee 99 a8 bd 40 20 cc be
       -0.19381401 -0.07645735 -0.08232485 -0.39868355
000200 c4 ab c0 bc 37 1a 53 bd 51 c9 42 3e cd 5a 73 bd
       -0.023519404 -0.051538672 0.19022109 -0.059412766
000210 30 30 13 3e 36 f1 71 bd d9 19 da bc 84 bb f0 3b
       0.14373851 -0.059067927 -0.026623653 0.0073465724
000220 94 22 15 3d 10 59 96 ba ce a2 08 3c 84 de 38 be
       0.03640993 -0.0011470634 0.008339597 -0.18053633
000230 9d 8e 00 bd 84 c6 34 bd fa 9c d0 3d 8e 9c 9e 3d
       -0.031386007 -0.04413463 0.10186191 0.07744704
000240 c2 c6 13 3c 08 7d fd 3d d6 32 af be a3 1f b6 bd
       0.0090195555 0.123773634 -0.34218472 -0.08892753
000250 88 48 49 bc 40 c0 25 be 0e e6 61 3d 45 5b 2b bd
       -0.012285359 -0.16186619 0.055151038 -0.04183509
000260 09 ec b7 3d ed 21 05 be 69 14 98 bd 80 8c 61 3e
       0.08980567 -0.13001223 -0.07425768 0.22026253
000270 48 9d 10 be 0a f2 8f bd d9 1f 84 3c ad 72 be 3d
       -0.14122498 -0.07028587 0.016128467 0.092992164
000280 a2 23 5e 3d 7c 0b fa bd 54 85 c4 bd e4 bc e2 bc
       0.0542332 -0.12209222 -0.09595743 -0.02767796
000290 ae c4 fc bd 3e 27 dc bc 7a 5a 6a be 74 47 71 3d
       -0.12342201 -0.02687418 -0.22886077 0.058906034
0002a0 65 3e 6d be ec 04 ca 3d 25 ef 8c 3d 44 65 7c 3d
       -0.23168333 0.0986422 0.06881551 0.061620012
0002b0 65 b1 a6 bd 05 5e 49 3e e2 66 46 3d aa 08 a2 bd
       -0.08139304 0.19664772 0.04843796 -0.07911809
0002c0 a9 1e dd bc 52 c1 9e bc f9 da c9 bc 89 43 af 3d
       -0.026992159 -0.019379292 -0.024640547 0.08557803
0002d0 d5 3e 00 bc fd 80 a9 3b 48 7d 18 be ef e1 8c bd
       -0.00782748 0.0051728473 -0.14891541 -0.06879031
0002e0 31 04 d5 3c a5 5b f0 3d 84 0f f1 3c b8 30 83 be
       0.026002975 0.1173623 0.029426344 -0.25623107
0002f0 12 72 ad 3d 01 21 29 bd e8 78 9d 3d 25 f3 43 be
       0.08469023 -0.04129124 0.07689077 -0.19135721
000300 24 64 4c be f4 2c 2a be 82 d1 28 3d 6e 81 12 3d
       -0.19960076 -0.16618711 0.041215427 0.035767965
000310 41 19 d2 bd ee aa 81 bd 3e 40 99 bd e5 52 40 bd
       -0.10258723 -0.063314304 -0.07482956 -0.046954054
000320 af b5 85 3d a7 2a c1 bd 9c 0d f5 bc a2 81 de bd
       0.06528794 -0.094319634 -0.029913716 -0.10864569
000330 8f fe 4a bd 90 af 87 bd 65 ea a5 3d 01 83 76 be
       -0.049559172 -0.06625283 0.08101348 -0.24073412
000340 2f 39 79 be 55 29 68 bd f2 de 53 be 5a db 5d 3c
       -0.2433822 -0.056680042 -0.20690516 0.013541067
000350 20 ae 94 3c 1e dc 64 be 6f 45 33 be 5b a8 41 be
       0.018149436 -0.22349593 -0.17506956 -0.18911879
000360 35 62 38 be 07 02 d6 3d ff b0 d6 bd 05 30 39 3d
       -0.18006213 0.104496054 -0.10482978 0.04521181
000370 93 f5 ac bd 1e de ab 3d 1c 98 fd bd 66 73 3f 3d
       -0.08445277 0.08391975 -0.12382528 0.046740912
000380 a1 d0 19 3c 08 11 76 be ba 07 dd 3c 23 69 67 3d
       0.00938812 -0.24029934 0.026981223 0.05649675
000390 c0 d5 a8 3c 51 4b 7f bb a5 d0 8e 3e 65 8d 7a bd
       0.020609736 -0.0038954804 0.27893558 -0.06117
0003a0 ec 3a 1f 3d ab 04 c9 3c 38 de 73 bd d1 f2 0f 3e
       0.03887455 0.024538359 -0.059538096 0.14057471
0003b0 70 a1 e8 3c 09 c9 99 be fd 7f 84 be bc 83 f9 bd
       0.028397292 -0.3003619 -0.25878897 -0.121833295
0003c0 7a ba c1 3d a4 32 cf bc f7 e2 29 3c 62 9f 97 3d
       0.09459396 -0.025292702 0.010369054 0.07403447
0003d0 d0 7c 57 3d de da 34 3e 8e 86 d7 bd 97 ea dc 3d
       0.052609265 0.17661616 -0.10523711 0.10786932
0003e0 f0 eb 91 bc a7 da 14 bd 9f 2e a9 3d e7 da 89 bd
       -0.0178127 -0.036341336 0.082608454 -0.067312054
0003f0 77 95 9b bd 1a 1c 44 be 0e 94 57 bd 1e 6a 8e 3d
       -0.075968675 -0.19151345 -0.05263143 0.06953834

fc2.bias f4 [128]
000000 d6 25 5a 3d 77 ea 62 bd 86 52 c6 3d d1 90 11 3e
       0.05325874 -0.055399384 0.09683709 0.142154
000010 90 77 20 3d a3 39 3d 3e 1c 99 37 3e 43 23 a9 bd
       0.039176524 0.18479018 0.179295 -0.08258679
000020 86 e8 1e 3e 3d a4 94 3c 9c ac 26 3c d3 38 cd 3d
       0.15518388 0.018144721 0.010172989 0.10020604
000030 76 74 37 3d 30 c3 67 bd b2 8d 00 be eb f6 db 3d
       0.0447888 -0.05658263 -0.12554052 0.10740455
000040 79 53 b8 3c 2b cc ad 3b 01 82 8a bd 42 e6 48 3c
       0.02250074 0.0053038797 -0.067630775 0.012261929
000050 52 c5 95 bd 2d 16 e8 3c 4f 85 b1 bd f2 cb 4e 3e
       -0.073130265 0.028330887 -0.08668005 0.20194986
000060 64 9d 05 bd af b8 08 3e eb d6 93 3d 04 c4 4a bd
       -0.032620803 0.13351701 0.07218727 -0.04950334
000070 43 a6 9c ba 91 13 26 bd 7e 40 43 3e fa 7b af 3e
       -0.0011951405 -0.040546004 0.1906757 0.34274274
000080 2f 7a 3d bd 97 80 7b bd 98 05 8c 3e a2 68 bc 3d
       -0.0462591 -0.06140193 0.27348018 0.091996446
000090 68 fb 73 3e 73 4b 57 3e 91 a7 1f 3d 40 aa ac 3d
       0.23826373 0.21024875 0.038978163 0.0843091
0000a0 ae cc e8 3c de 38 24 3e ca 6f 64 3e 3e 28 41 be
       0.028417911 0.16037318 0.22308269 -0.18863007
0000b0 22 b4 72 3d 1f 1b 69 3e c9 ce ad 3d b9 52 33 3e
       0.05925382 0.22764252 0.08486707 0.17512025
0000c0 1f 51 eb 3c 6f 1a 95 3e 0c 6f 4b 3e 1b 61 72 bd
       0.028725205 0.2912173 0.1986658 -0.05917464
0000d0 ff 8c a1 bc 49 d4 b5 bd b7 e8 d2 ba 91 0b 81 3e
       -0.019720552 -0.08878381 -0.0016091083 0.25204137
0000e0 27 26 28 bd 49 ca 42 3d 1d b1 4e bd 99 ea 46 be
       -0.04105201 0.047556195 -0.050461877 -0.1942543
0000f0 7a 8e 07 3e ac e3 1a 3e fa f4 7b 3d ac d9 9e bd
       0.13237944 0.15125912 0.061512925 -0.07756361
000100 79 77 0b 3e 65 ae 22 3d af 15 87 bc ce a6 d5 bd
       0.13619794 0.039717097 -0.016489832 -0.10432206
000110 79 83 f9 39 6a 61 1b be 6f 86 f4 bc 00 87 dc 3d
       0.00047590936 -0.1517388 -0.02984926 0.10767937
000120 21 75 93 bd a4 c2 21 3e bd 4a 36 be da 16 1e 3e
       -0.07200075 0.15796906 -0.17801948 0.15438405
000130 5e d7 8a bb df 2f b0 bc 6c 92 c2 bc 20 f7 52 bd
       -0.0042370996 -0.021507202 -0.02375146 -0.051505208
000140 bb 19 bf 39 26 85 b2 bc 59 3d bd bd f3 a7 72 3e
       0.0003644953 -0.021792006 -0.09240217 0.2369688
000150 05 11 2b 3e 5a f8 52 bd 23 95 ab bc 89 34 ac 3b
       0.16705711 -0.051506378 -0.020945137 0.005255286
000160 ca 13 27 bd 63 e7 d7 bd e5 bf 3a be e0 23 63 be
       -0.040790357 -0.105421804 -0.18237264 -0.22181654
000170 c8 2c e3 3d c3 f7 8f 3e 1b 60 1a 3d 7b f3 32 3d
       0.11092526 0.28118715 0.03768931 0.043689232
000180 c0 b9 ee 3d 1e 00 3a 3e 4c c2 1e be ac 6d 1d be
       0.11656523 0.18164107 -0.15503806 -0.15373868
000190 0c 3e d0 bc de b1 6e 3d a2 2a 35 3e 3a 51 4e 3e
       -0.025420211 0.058275096 0.17692044 0.20148173
0001a0 56 2c 7f 3d 21 3b 2e 3c 60 5b 8d bd 30 29 fe 3b
       0.06229814 0.010634215 -0.06902194 0.007756375
0001b0 37 da bf 3c 40 bf 9e 3d 80 cf 6a be fc 09 cb bc
       0.023419483 0.07751322 -0.22930717 -0.024785034
0001c0 ec dc 87 3d 4a 1e 89 3e e8 5c ed bd e5 92 85 3d
       0.066339344 0.2678092 -0.11589986 0.065221585
0001d0 b4 02 f6 3d f8 81 da bc a4 39 1c 3e cc da 92 bd
       0.12012234 -0.026673302 0.15256363 -0.071706384
0001e0 65 b4 e9 3d 83 2d 7c bd 21 1e af 3d 73 d3 b3 bc
       0.11411361 -0.06156684 0.085506685 -0.021951413
0001f0 7c 9d 5a bd 53 24 6d 3d 88 65 be bd d5 f2 f3 bb
       -0.053372845 0.05789597 -0.09296709 -0.0074447193

fc3.weight f4 [1, 128]
000000 09 57 c1 3d 28 63 86 be d4 a8 02 3e 43 c8 f1 3d
       0.09440429 -0.26247525 0.12759715 0.11805775
000010 43 79 06 3e 5a e3 ca 3d c4 d4 e3 3d ca ca ae be
       0.13132195 0.09906645 0.11124566 -0.3413909
000020 2e 0a ba 3d aa cb a8 3e 3b 38 a5 3d 2b 73 06 3e
       0.09083973 0.32967883 0.08067366 0.1312987
000030 5d f0 8d 3d bc db 6f 3e 5f d8 54 be b9 de ea 3d
       0.06930611 0.23423666 -0.20785664 0.11468262
000040 73 de 6c 3e 13 33 05 be 9d 75 92 be e4 1b a6 be
       0.23131733 -0.13007765 -0.28605357 -0.32443154
000050 a1 0e b3 bd e9 b1 b3 be 6a c9 c1 bd 51 cb 01 3e
       -0.087430246 -0.35096672 -0.09462245 0.12675215
000060 47 4b 50 bd 56 45 9d 3d e9 f7 50 3e d2 ea 0b be
       -0.05085304 0.076792404 0.2040707 -0.13663796
000070 83 3d 4a 3e 2e b2 8e bd 70 b4 56 3e 5d 16 00 3e
       0.19750027 -0.06967579 0.20967269 0.12508531
000080 09 81 14 be ca a8 e9 bd ce e2 b1 3d 61 00 aa 3d
       -0.14502348 -0.11409147 0.08685838 0.083008535
000090 7b 59 07 3e 10 44 04 3e 44 03 50 be 68 01 26 3e
       0.13217728 0.12916589 -0.20313746 0.16211474
0000a0 d3 13 90 be 68 33 9f 3e f8 6e 1e 3e 49 93 12 be
       -0.28140125 0.31093907 0.15472019 -0.14313997
0000b0 5b e8 3a 3e 7f d5 e8 3d 1b 33 4a 3e 9f 5e 03 3e
       0.18252699 0.11368846 0.19746058 0.12829064
0000c0 cb b4 4b 3e 65 07 fc 3d 55 6b 3d 3e c7 e9 07 be
       0.19893186 0.12306098 0.18497975 -0.13272773
0000d0 21 59 78 be 38 8a f4 be 3b 5c 84 be 40 df f1 3d
       -0.2425275 -0.47761703 -0.25851616 0.1181016
0000e0 38 e0 2d 3e 2f 55 14 3e 6a 87 bd be ad 4e 23 be
       0.16980064 0.1448562 -0.37017375 -0.15947981
0000f0 f0 7c 43 3e 89 42 fb 3d bb 89 07 3e f5 35 36 be
       0.19090629 0.1226855 0.13236134 -0.1779402
000100 2b 99 eb 3d e1 3f a2 3e 19 0e 17 be b8 d5 a6 be
       0.11503824 0.3168936 -0.14751472 -0.3258493
000110 5e 3e 93 3e 14 63 54 be 0f 3b 45 be d3 e8 00 3e
       0.2875852 -0.2074092 -0.1926081 0.12588815
000120 37 2b 60 be 3d c9 06 3e 2a e9 72 be 13 35 99 3e
       -0.21891485 0.13162704 -0.23721758 0.29923305
000130 fb da 09 bf 63 f1 87 3e 66 e4 30 be 54 eb 08 be
       -0.5384976 0.2655135 -0.17274627 -0.1337102
000140 22 81 54 be e1 21 8d be a6 5f e5 bd 21 fd cd 3d
       -0.20752385 -0.2756491 -0.11199884 0.10058046
000150 c3 22 aa 3d 5c 9d 1d be 0b 92 a9 be 94 08 a3 be
       0.083074115 -0.15392059 -0.33119234 -0.31842482
000160 7f 07 f9 bd ac d7 96 be 4d 64 2e be 92 3d 0e be
       -0.12159633 -0.2946142 -0.17030449 -0.13890675
000170 26 08 14 3e 01 30 04 3e 5a a1 df 3d d1 28 2e 3e
       0.14456233 0.12908937 0.10919447 0.17007758
000180 bf ac 0d 3e 22 19 07 3e c2 53 31 be 16 66 54 be
       0.13835429 0.13193181 -0.17317107 -0.20742068
000190 f3 1b a6 bd 52 0f c0 3e 90 4c f8 3d 14 6b 03 3e
       -0.081108 0.37511688 0.12123978 0.12833816
0001a0 52 2b 08 3e 3c 97 6e be 1b e1 b1 be ac 4a 6e 3e
       0.13297775 -0.23299879 -0.34742054 0.23270673
0001b0 96 7d 21 3e 83 22 18 3e 4d 73 cd bd c3 02 6c 3e
       0.15770563 0.14856915 -0.100317575 0.23047929
0001c0 87 3f 89 be 4e b7 01 3e 65 9d 35 be 1a ac 08 3e
       -0.2680628 0.12667581 -0.17735822 0.13346902
0001d0 64 4e f1 3d 3a 91 44 be ed 6c ae 3d e1 6d 84 be
       0.1178253 -0.19196025 0.0851687 -0.2586508
0001e0 87 3f 13 3e c2 84 d8 bd 0c 05 1c 3e 90 0c 95 3e
       0.14379703 -0.105721965 0.152363 0.29111147
0001f0 e1 fa 89 be 3f c1 b4 be c7 3d 0e be a8 9b 3c be
       -0.26949218 -0.35303685 -0.13890754 -0.18418753
